model.pt (torch_old, 21086 bytes, 14 tensors)

encoder.weight_ih_l0 f4 [52, 17]
000000 ba 21 3e bc 51 1a b5 be 6b 96 b6 bd 75 95 e0 be
       -0.011604721 -0.3537164 -0.08915409 -0.43864027
000010 98 50 2f 3e bb eb 85 bf ad a3 5d 3f cb f4 80 3e
       0.17120588 -1.0462564 0.86577874 0.25186762
000020 42 f5 55 bf 65 a3 bb 3f 3b 4c 2d bf 97 8e 48 3f
       -0.8357736 1.4659239 -0.67694443 0.78342575
000030 f4 75 7c be d3 1e 3c 3f dc 5c 42 bd ad 73 f3 3d
       -0.2465437 0.73484534 -0.04745184 0.11887298
000040 0c 17 7b bd 5a 93 5e 3f a4 ae b6 bd cf 6e 79 3f
       -0.061301276 0.8694359 -0.08920029 0.97434705
000050 6d 78 12 3d df 10 06 3f 77 17 56 bf f9 6c 2b 3f
       0.03575938 0.52369493 -0.83629555 0.66963154
000060 3d 50 c1 be f2 f7 f8 3e ca b8 5a bd 18 72 62 bf
       -0.3775653 0.48626667 -0.053398885 -0.88455343
000070 1b cc 95 3f 09 8e 61 bf b6 78 45 3e 09 a9 64 3e
       1.1702913 -0.88107353 0.19284329 0.22330107
000080 e8 01 3a 3e dd b5 cf bc 28 68 99 3e 1b 62 ad 3d
       0.1816479 -0.025355274 0.29962277 0.08465978
000090 9a ee 31 3d 28 a3 9a 3e 9a 48 26 be 1c e4 8d 3f
       0.04344044 0.30202603 -0.16238633 1.1085238
0000a0 c0 0c 8e 3e a0 29 b4 3e 39 a1 24 3f c5 c8 dd 3e
       0.27744102 0.35188007 0.64308506 0.43317237
0000b0 72 d8 9f 3f ae b6 04 3a 5b 21 7a 3f 5a b3 00 3f
       1.2487929 0.0005062622 0.97707146 0.5027367
0000c0 83 2f a6 3e fe 09 dc 3e d0 65 08 3c a6 72 38 3e
       0.32458124 0.42976373 0.008325055 0.18012485
0000d0 b2 14 9a 3e ac 8d c1 3e 4e d2 9b 3d d5 f4 4a bb
       0.30093914 0.378034 0.07608472 -0.0030968685
0000e0 96 2f da 3f bc af a7 be 7a 40 7d 3f ce 5c b5 3f
       1.7045772 -0.32751262 0.9892651 1.4168947
0000f0 93 fe 2e 3f 83 0b ed 3e 56 71 aa bd 94 95 53 be
       0.683572 0.46297845 -0.08322398 -0.20662528
000100 ad 8a c4 3c cd 10 e0 3e 00 27 9b 3e 9f a3 f1 3e
       0.023991907 0.43762818 0.30303192 0.47195145
000110 e1 77 a3 be 03 cc 64 3d 1b f3 15 3f cc b9 99 be
       -0.31927398 0.055858623 0.58574075 -0.30024564
000120 88 f1 b8 3e 84 bb 0d 3d 30 e0 54 3f 64 76 27 3f
       0.36121774 0.034602657 0.8315458 0.65415025
000130 82 c5 01 3f f5 71 80 be dc a4 2c bf 6d b9 a3 3d
       0.50692 -0.25086942 -0.67439055 0.079943515
000140 2c 98 e9 bc b9 cc 6b 3f 2a 77 b6 3e 24 0f b2 3e
       -0.028514944 0.92109257 0.3563779 0.34777176
000150 22 d6 9f bc e4 4b 57 3e 7e c9 fd 3e 8f 5d 07 3e
       -0.019511286 0.21025044 0.4956779 0.13219284
000160 ec 17 67 3e d8 4f cb 3e d6 df 98 3f 8d 32 d2 3d
       0.22567719 0.39709353 1.1943309 0.10263548
000170 86 7a 4b be ab 5a 87 3f b4 38 e3 3f 5c 45 30 be
       -0.19870958 1.0574545 1.775168 -0.17213959
000180 73 61 c0 3c 55 34 93 3f c9 b9 ff 3e e0 3b c3 3e
       0.023483967 1.1500345 0.4994643 0.38131618
000190 75 70 ea 3e b2 38 87 be 5b f5 87 3f 31 10 15 3e
       0.45788923 -0.26410443 1.0621752 0.14556958
0001a0 6f 1b ca 3e 97 8a 65 3e 0c 30 d2 3e 66 73 8d 3f
       0.39474055 0.22416149 0.41052282 1.1050842
0001b0 e7 a3 fa 3e d2 8d 7a 3f 9d aa 96 3f cb f3 5a bf
       0.48953173 0.9787265 1.1770817 -0.8552825
0001c0 d3 c6 83 3f eb 27 db 3e bb c0 0d 3f 6d 65 19 3f
       1.0295051 0.42803892 0.5537221 0.5992039
0001d0 6b 31 03 3f f2 ab ed 3e 90 0a e2 bd 4c 12 92 3d
       0.5124728 0.46420246 -0.11037171 0.07132396
0001e0 f5 08 a3 3e 80 c5 87 3d 19 a7 94 3e b0 60 81 bd
       0.3184277 0.06629467 0.29033735 -0.0631727
0001f0 a8 0a d3 be 7a d1 39 3f 65 fc c3 bc 22 12 fc be
       -0.41219068 0.7258526 -0.023924062 -0.49232584
000200 e5 e8 7c 3e ce 06 5d 3f f8 d7 26 3f 1f 2b e5 3e
       0.24698217 0.8633851 0.6517329 0.4475946
000210 c4 65 21 3f ac 4b 8c 3b 03 dd b0 3e 65 ab 99 3e
       0.6304591 0.0042814817 0.3454362 0.30013576
000220 83 67 d3 bd 84 e6 2d 3f 31 95 24 3f eb 2f 43 3e
       -0.10322478 0.67929864 0.6429015 0.19061248
000230 43 d9 20 3d a7 fd d5 3e 5b bd 24 3f 3f 25 0f 3f
       0.039269697 0.41795084 0.64351434 0.5591621
000240 e5 a9 0b 3c 08 3c cb bc f5 e2 51 3f 6d 3b 73 bd
       0.008524393 -0.024808899 0.81986934 -0.059382845
000250 ff 87 20 3f 9e 9b db 3e 63 c4 8a 3e d2 ad 83 3a
       0.62707514 0.42892164 0.27102956 0.0010046309
000260 7a 32 ee 3e 59 19 61 3f e2 92 eb 3e fc 7c bd 3d
       0.46522886 0.879293 0.460105 0.092523545
000270 7a 0c 60 3f 31 97 00 bd d5 ff 8e 3e 4a 9f 13 3f
       0.8751904 -0.031394187 0.2792956 0.5766493
000280 92 3a c3 3e d5 2c 8d bd 5e 5b a4 3f 30 6b 98 3d
       0.38130623 -0.06893317 1.2840383 0.074423194
000290 58 ad bb 3e 6a a6 e0 3d 2e 27 1a be 1d f7 15 3e
       0.36655688 0.10969241 -0.15054008 0.14645047
0002a0 a7 52 b5 3e 8b ca ed 3e 17 1c 41 3c 36 81 73 be
       0.3541462 0.4644359 0.011786482 -0.23779759
0002b0 33 65 b3 bd 33 bb 5f 3e e1 19 b2 3c 00 de 3a bf
       -0.087595366 0.21848755 0.021740856 -0.72994995
0002c0 15 61 4b 3f 2c 50 6c 3f 88 f2 3a bf 1e f7 62 bf
       0.7944501 0.9230983 -0.73026323 -0.8865832
0002d0 fa 1e 3e 3f cf a7 0a 3f 16 7e f8 ba 9f 28 0a 3f
       0.74266016 0.54162306 -0.0018958475 0.5396823
0002e0 b4 12 6f 3e 0e 30 77 be 10 d7 94 be d9 6e 08 3d
       0.23346978 -0.24139425 -0.2907033 0.033308838
0002f0 ce 99 ff be f3 99 fc 3c d1 d1 50 be b5 41 d4 bd
       -0.4992203 0.030835127 -0.20392539 -0.10364095
000300 2c fb 80 bf ae 64 ca 3e 4c 71 87 3f b7 d6 77 bf
       -1.0076652 0.39529938 1.058145 -0.96812004
000310 49 6e 88 bf da 55 94 bf 38 0e 73 3f b7 ee 06 bf
       -1.0658656 -1.15887 0.9494357 -0.52708
000320 bf 8f bc be d0 05 db 3e c5 c8 f6 3a 18 d9 b1 bd
       -0.3682842 0.42777872 0.0018828145 -0.086839855
000330 dc 5b 91 3e bd 0f 92 3c 08 f5 07 3e 8e 7c 47 3e
       0.28390396 0.01782977 0.13277066 0.19481108
000340 76 86 af 3e ab b7 8b bf 97 eb 7b 3f d2 bd e4 be
       0.34282273 -1.0915426 0.98406357 -0.4467607
000350 c9 d9 c9 bf d0 e0 50 bf 2b 73 82 3f 5c 52 e9 3f
       -1.5769588 -0.81593037 1.0191396 1.8228259
000360 77 18 ad 3e 80 3c 57 3f 7c a9 22 3e 27 78 23 3e
       0.33807728 0.8407669 0.15884966 0.15963803
000370 d8 13 95 3e c1 b6 3d 3e 35 6e 1a bf b4 90 10 be
       0.29116702 0.18526746 -0.6032441 -0.141177
000380 6e 08 11 be 6e af 7b 3d a3 34 aa be 61 59 9b 3f
       -0.14163372 0.0614466 -0.33243284 1.2136651
000390 e7 0a b2 3c 05 5f 1f bf 8c 36 66 3f e1 1c c2 bd
       0.021733714 -0.62254363 0.8992698 -0.094781645
0003a0 a5 ea 60 3f 51 5b 74 be 51 36 9b 3e f4 31 b6 bd
       0.8785804 -0.2386296 0.30314878 -0.088962466
0003b0 73 00 a7 bd 36 af c0 3e 8e 03 e9 3e 31 45 11 bd
       -0.081543826 0.37633675 0.45510525 -0.035466377
0003c0 8b ee 77 3e fe 20 5b bd 56 d8 6b 3e 61 61 3a bf
       0.2421209 -0.05349826 0.23031744 -0.7280484
0003d0 d2 43 96 be 79 a3 d8 be 10 02 0e bf 8a d9 7d be
       -0.29348618 -0.4231222 -0.554719 -0.24790016
0003e0 f2 6d 63 bf e4 ee f7 3e a8 d8 21 bd 7e 5e 3e 3e
       -0.8883964 0.48424447 -0.03951326 0.18590733
0003f0 1a ce 47 be 85 4b 4e be 75 ac 36 be 8b 4c 2c 3e
       -0.19512215 -0.20145996 -0.17839225 0.16826074

encoder.weight_hh_l0 f4 [52, 13]
000000 b1 bf 36 3d 80 1d 8b 3e 5d 59 54 be 29 a1 63 3e
       0.044616405 0.27170944 -0.20737214 0.22229446
000010 b8 b7 10 be d2 91 4a bd 40 da bc 3e a3 55 38 3e
       -0.14132583 -0.04945547 0.36885262 0.18001418
000020 ff d7 da 3d 8a 58 a0 3e 49 21 0a be 59 2d 3f be
       0.10685729 0.3131755 -0.1348926 -0.18669643
000030 56 ea 96 3e 99 bc 9d be f7 f4 00 be e6 6c d4 be
       0.2947566 -0.3080795 -0.12593447 -0.41489333
000040 63 d5 d2 bc fe 14 b3 be a2 03 10 bf ed b2 16 3c
       -0.025736516 -0.34976953 -0.56255543 0.009197933
000050 ce 77 44 3e 4d 95 36 3f 72 6c 97 be 26 8c 11 bf
       0.19186327 0.71321565 -0.29574925 -0.56854475
000060 4c 55 05 3f e1 0d c6 3e d1 bb 6c 3b c4 71 6b bc
       0.5208328 0.38682464 0.003612269 -0.014370386
000070 f9 b4 f8 be 7c f0 e7 3e 8d 4d 24 3e 43 d1 55 bd
       -0.4857557 0.45300663 0.16045208 -0.05220152
000080 3e 5b 83 bd 9a 97 95 bd a9 ce 6d be f0 67 cb bb
       -0.064138874 -0.07304306 -0.23223366 -0.0062074587
000090 bb 1c 7d bd 9e 54 4c be 50 ed 1c 3e f9 0b 02 3e
       -0.061794978 -0.19954154 0.15324903 0.1269988
0000a0 44 ff 16 3e 0a 8e 9c be 56 27 8f 3e bc fe 8a bd
       0.14745814 -0.30577117 0.27959698 -0.06786868
0000b0 87 f8 e1 be bc 05 a1 3e 52 cb 27 bd 50 cf a3 be
       -0.44134924 0.31449687 -0.040965386 -0.31994104
0000c0 c0 67 65 3e e2 dd 91 be 3e cf 94 3e e7 ba 29 3d
       0.22402859 -0.28489596 0.29064363 0.04143801
0000d0 d3 1d 4f be 53 99 22 bf 95 a2 5f be b9 b7 42 bd
       -0.20226221 -0.63515204 -0.21839364 -0.047538493
0000e0 aa f2 31 3e 52 6e a2 3c e4 9a 50 3e 31 17 b0 3e
       0.17377725 0.019827995 0.20371586 0.34392694
0000f0 1f b5 23 be c9 96 69 be a6 68 51 3b 64 a2 91 3d
       -0.15987061 -0.22811426 0.0031953244 0.07111052
000100 ed 68 8d 3e d1 e4 fc 3e 6d 3a f9 be d3 88 4a 3e
       0.27619115 0.49393323 -0.48677388 0.19778757
000110 e9 42 41 3e 94 d1 f2 3d 0e e7 94 3c e1 ec 44 bf
       0.1887318 0.1185638 0.018176582 -0.7692395
000120 17 1d 19 3d 3e 7d 86 be bd a8 30 be e9 94 b8 3e
       0.037381258 -0.26267427 -0.17251869 0.3605111
000130 0f f9 91 be 48 a0 1c be b4 d5 fb 3d 86 97 58 bf
       -0.2851033 -0.15295517 0.1229662 -0.84606206
000140 29 d4 27 3e 8f e4 04 3e 18 3d b1 be b3 45 3a bd
       0.16389526 0.12977813 -0.34616923 -0.045476627
000150 5f 40 fe 3e 90 92 75 be 88 03 e5 be 66 75 4d bf
       0.49658486 -0.2398169 -0.44729257 -0.8025726
000160 fd a7 e4 3d c0 b9 9c 3e ee e4 0d be 4d 70 11 be
       0.11164854 0.30610466 -0.13856861 -0.14202996
000170 98 6b 3c 3e df 26 30 bd 60 12 8a bc d9 7c 6e 3e
       0.18400419 -0.04300582 -0.016854465 0.23289813
000180 23 1b 89 3e 3a 5d 14 bd 0e 76 cd 3e 30 cc 8b 3e
       0.26778516 -0.03622172 0.4012913 0.2730422
000190 6c 27 0d 3f 80 91 fc bd 60 cb d9 bc 0f 37 81 3d
       0.5513828 -0.123324394 -0.026586235 0.0630933
0001a0 de 65 67 be 6f 51 c4 be c2 65 ec 3d 57 5a 4e be
       -0.22597453 -0.3834338 0.11542846 -0.2015165
0001b0 b5 60 94 be ec 41 15 3d 85 a7 e0 be cb 4e 0f 3f
       -0.28980032 0.03643982 -0.43877807 0.55979604
0001c0 59 9a f2 3d 60 c0 80 3e 98 c3 87 bd c5 fc 5b bd
       0.11845846 0.2514677 -0.066291034 -0.053707857
0001d0 b2 10 89 3e a3 d7 5f 3b cc a2 25 bf 50 d3 a7 be
       0.2677055 0.003415563 -0.64701533 -0.32778406
0001e0 4c a8 29 3e 4d fe ad bd b9 1d 7d be 1e f9 36 bf
       0.16568106 -0.0849577 -0.2471837 -0.7147387
0001f0 40 3f 81 be 5b 99 95 3e de 4c 35 3e 67 ff 06 be
       -0.25243568 0.29218563 0.17705104 -0.13183366
000200 5d 1a dd bd 82 12 20 be 9f 0c aa 39 57 98 9d be
       -0.10796044 -0.1563206 0.0003243433 -0.3078029
000210 70 69 87 be 5f b7 27 bd b2 ca c5 bd 56 cb 20 be
       -0.2644763 -0.04094636 -0.09657802 -0.15702567
000220 83 95 95 be f3 00 cf 3e 77 89 5c 3d 26 a7 76 3e
       -0.2921563 0.40430412 0.053842034 0.240872
000230 ed 8c cc be ac 85 18 bd 1d 8a ed 3e 70 67 86 bd
       -0.39951268 -0.037236854 0.46394435 -0.06562698
000240 cc d2 5b bd 5a 46 b6 be 30 8d 83 3d 3b be 0e 3e
       -0.05366783 -0.3560055 0.06423414 0.13939755
000250 fd 26 1f 3e 12 f2 38 3e ef 65 9d 3e 89 29 dd 3e
       0.15542217 0.18061092 0.30741832 0.4319575
000260 26 57 26 3e 80 73 cb be a0 bf a2 3e 7a 56 a5 3e
       0.16244182 -0.39736557 0.31786823 0.3229254
000270 2e fe d4 be e0 c7 9a be 5a 69 25 3d 47 af b2 bd
       -0.41600174 -0.30230618 0.040383674 -0.08724838
000280 af 62 ab bb a9 1b 48 be 94 7e ea 3d d6 bc 07 3e
       -0.00523027 -0.19541802 0.11449924 0.13255629
000290 23 64 1d be b4 82 f7 3c 96 bc c2 be 93 ff d6 3e
       -0.1537023 0.030213691 -0.38034505 0.41991863
0002a0 16 2a 2b be 92 40 69 be 1c 3f 20 3f 15 39 ea 3c
       -0.16715273 -0.22778538 0.625963 0.028591672
0002b0 07 0a 53 be ce a9 f4 3b 5f a2 01 be c1 95 51 3f
       -0.20609294 0.0074665314 -0.12659596 0.8186913
0002c0 8f 37 73 3d a2 31 97 3e 65 77 11 3f 27 b9 7a 3c
       0.059379157 0.29530054 0.56822807 0.015302933
0002d0 bd fa 53 3e 2f 4f 58 be 0c f8 a8 be 40 a3 a0 be
       0.20701118 -0.21123956 -0.33001745 -0.3137455
0002e0 0f b9 c7 bd 13 a8 4e 3e c9 a7 a8 bd ff ae 13 be
       -0.09752094 0.20181303 -0.082351275 -0.14422224
0002f0 5b cf a7 bd ea c9 4b 3e bf 61 33 be 5b 95 4f be
       -0.08193847 0.19901243 -0.17517756 -0.20271818
000300 96 fc db bd 2e a3 9d 3d 84 0b 96 be 97 8e 78 3e
       -0.10741536 0.0769714 -0.2930566 0.24273144
000310 e3 ee 98 be ae 62 8a be c3 81 e8 3e 0d a0 62 3e
       -0.29869756 -0.27028412 0.454115 0.22131367
000320 ff fb 16 be 09 ac a0 be de fc e4 bb 1b c5 49 be
       -0.14744566 -0.31381252 -0.006988152 -0.19704096
000330 d4 04 bc bd da 8a 8b 3d 95 53 58 bd 94 69 b9 3e
       -0.091806084 0.06813593 -0.052814085 0.36213362
000340 84 5e 92 3d 99 04 fa be 75 a8 82 be 16 69 ad bd
       0.07146934 -0.48831633 -0.25519148 -0.08467309
000350 62 9f 0f bf ec 6b 0d bf 59 81 17 be 2c 28 33 be
       -0.56102574 -0.552428 -0.14795436 -0.17495793
000360 a4 37 0d 3e 85 b9 72 be 32 46 e2 3e 78 fe 95 3e
       0.13790756 -0.23703583 0.4419418 0.29295707
000370 c6 7a a7 be 00 7e 01 bf 05 6e 19 be 01 0c 94 be
       -0.32710856 -0.50582886 -0.14983375 -0.28915408
000380 6c 9c d9 3d df ca 85 be 2d 1b 2d be f5 c8 0a 3f
       0.10625538 -0.2613134 -0.16904898 0.54212886
000390 04 e2 42 3f 6f 1c 48 3e eb c7 dd 3d 4f 8a 1b bf
       0.7612612 0.19542097 0.10829147 -0.6075792
0003a0 da 6d d7 3e 3b 3c 58 3e bb c2 bf be 8e 89 95 be
       0.42075998 0.21116726 -0.37453255 -0.29206508
0003b0 eb bd a7 be bd 79 f4 3d c4 81 79 3c dc f2 f8 be
       -0.32762083 0.11937282 0.015228692 -0.48622787
0003c0 1e 36 3a be 0c 7f b1 3e ff cc 3b 3f 00 9e 0e 3e
       -0.18184707 0.34667242 0.73359674 0.1392746
0003d0 4d 06 ea be 51 c9 83 3e 9f 3c e7 3d d1 c8 fb bd
       -0.45707932 0.2573953 0.112908594 -0.12294162
0003e0 77 91 c3 be ba 20 8a 3d ed 57 c7 3e 10 08 e9 bd
       -0.38196918 0.06744523 0.3893427 -0.11378491
0003f0 a4 1d 9c 3e 8d c6 f1 be d2 67 81 3e ae f9 97 be
       0.30491364 -0.47221795 0.2527452 -0.29682678

encoder.bias_ih_l0 f4 [52]
000000 ad b0 ac 3e 4f c7 77 3e f4 3f 4c 3e 16 1b a8 bd
       0.33728543 0.24197124 0.19946271 -0.08208291
000010 3b aa 8f be 6d 42 c8 3e fb 1b d5 3d 2f c1 b9 3d
       -0.28059563 0.3911318 0.104057275 0.0907005
000020 ce ef a2 3e c7 64 96 3d 75 aa b4 bb e9 a0 27 be
       0.3182358 0.073434405 -0.005513484 -0.16369976
000030 d5 14 8f 3e 2f 9f a6 3d f6 55 e3 bd bd f6 8d bd
       0.2794558 0.081358306 -0.1110038 -0.06931827
000040 0b bf 37 be 6c d6 23 3e 49 8f a1 3e 4b d0 1e 3e
       -0.17943971 0.15999764 0.3155463 0.15509145
000050 2d dd 1a 3e 4a 00 cd 3d 98 cb d9 3d 19 41 0b be
       0.15123434 0.10009821 0.106345356 -0.13599052
000060 c9 69 57 3e 2f 7f 8a 3d fc 4b 3b bd 9c 7c f4 bc
       0.21036448 0.067625396 -0.04572676 -0.029844575
000070 28 11 c2 bd 5e 67 d8 3c 39 09 4f be 62 d7 eb bd
       -0.094759285 0.026416477 -0.20218362 -0.115156904
000080 f6 83 e7 bd 88 8d 2d bc dc ac a4 3d 54 41 44 be
       -0.113044664 -0.010592826 0.08040783 -0.19165546
000090 e1 c3 b4 bd e0 8b 9e 3d e0 80 c7 3c a6 ce 91 bd
       -0.088264234 0.07741523 0.024353445 -0.07119493
0000a0 58 ed 9a 3e 2e 6f 7b 3e ec 53 3e 3e 89 c0 11 3e
       0.30259204 0.2455413 0.18586701 0.14233603
0000b0 90 37 ca 3e 1c 7e 40 3e 2b b3 7c bd 11 9b dd 3e
       0.39495516 0.18798107 -0.061694305 0.4328237
0000c0 9f c0 ee 3e 75 2a 85 3e b2 f3 ac 3e 69 19 b9 3e
       0.46631333 0.26008955 0.33779675 0.361522

encoder.bias_hh_l0 f4 [52]
000000 6d 0a 74 3e f9 47 bb 3e 95 c7 5e 3e 7b a2 3a be
       0.23832102 0.36578348 0.21755822 -0.18226044
000010 a2 20 28 3d f4 aa 9a 3e 1b a3 99 3e 5a e8 a6 3e
       0.041046746 0.30208552 0.30007252 0.32599145
000020 32 b8 7e 3e e4 5e 59 3d c6 9d 41 be d3 2d 7c bd
       0.24874952 0.05306901 -0.18907842 -0.06156714
000030 ac 09 c6 3d 61 2b 8b bd 22 ae af bc 7c a1 3e bd
       0.096698135 -0.06795383 -0.021445338 -0.046540722
000040 4a e5 d3 3c 30 2f 3e 3e 40 d5 23 3e 03 3d 55 3d
       0.02586617 0.18572688 0.15999317 0.05206014
000050 3b 04 4e be ff 38 00 3e d1 90 5f 3e d9 05 24 be
       -0.20118801 0.12521742 0.21832587 -0.16017856
000060 35 e5 12 be ef 69 f5 3c b8 d5 61 3d 7b cd 60 be
       -0.14345248 0.02995774 0.05513546 -0.21953385
000070 4c 80 99 bd aa 9f 0f 3e c4 ea 6e be cd e6 93 3e
       -0.07495174 0.14025751 -0.23331743 0.28887025
000080 67 ac 9c 3d 14 ef 33 be 3c eb a5 be 79 90 7e be
       0.07650071 -0.1757167 -0.32406032 -0.248598
000090 96 40 04 3e 96 e8 a9 3d 67 39 9f be 38 64 0c 3e
       0.12915263 0.08296315 -0.31098482 0.13710105
0000a0 c2 4e 27 be 44 7e ba bd 00 7b 17 3e f9 44 a7 3c
       -0.16338637 -0.091061145 0.14793015 0.02041863
0000b0 ae 7a ac 3d 91 fb bc 3e 67 7b a3 3e 08 1a b2 3e
       0.08421837 0.3691068 0.31930086 0.34785485
0000c0 a9 64 8d 3e 8c 0e a8 bd 5a 65 7c 3d 98 68 99 3e
       0.2761586 -0.082058996 0.061620094 0.2996261

lstm.weight_ih_l0 f4 [52, 13]
000000 b5 74 43 3c 3e ee e5 be 55 15 29 3d a3 a0 4e 3c
       0.011929681 -0.44908327 0.04128011 0.012611541
000010 a7 d4 69 bf 01 3f b3 be aa d2 ca be 23 d8 0e 3f
       -0.91340107 -0.35009006 -0.3961385 0.5579855
000020 d0 d2 4d 3f 04 30 fe be 1c 27 80 be 02 f2 73 3e
       0.803998 -0.49646008 -0.25029838 0.23822787
000030 72 1e 40 3f 7e f3 bb be 71 5d 0d bc 36 2a b6 be
       0.75046456 -0.36709207 -0.008628235 -0.3557908
000040 2a 0b 82 3e c2 88 be be 5b dd ea be 05 b7 c0 bd
       0.25399143 -0.37213713 -0.45872006 -0.09409908
000050 50 7f 87 3f ef 6c 48 3f d9 ff 14 3e be c3 b5 be
       1.0585728 0.7829122 0.14550723 -0.35500902
000060 61 db 95 3e 92 ca 27 3f 4e 2d a5 3b 55 83 ee 3e
       0.29268935 0.6554347 0.005040801 0.46584573
000070 ea 52 93 3c 15 ea 4d be a5 60 25 3e 10 6a 7e 3d
       0.017983872 -0.20108826 0.16150148 0.062112868
000080 6d ea 66 3e 4d 2f ea 3e 30 26 17 3f c5 7e f0 3d
       0.22550364 0.45739213 0.59042645 0.11742929
000090 2b c5 20 bf e5 4a d9 3d 35 91 07 3e 56 bc 49 bf
       -0.62800854 0.10609988 0.13238986 -0.78803
0000a0 20 a3 9f 3e 97 03 08 bf ac 84 ab 3d f3 75 51 be
       0.31179142 -0.5313048 0.083749145 -0.2045515
0000b0 06 8a 3e be 38 cc c5 3d a5 3b 7f bd 24 c8 8f 3d
       -0.1860734 0.09658092 -0.06231274 0.07020596
0000c0 18 eb b1 3e 78 7c 5d bf a4 b6 17 3f 45 8a d4 3e
       0.34749675 -0.8651805 0.5926306 0.4151174
0000d0 4f e2 80 be 2b 4f 8b be 09 8a 03 bd bc 77 70 3e
       -0.2517266 -0.27208838 -0.032114062 0.23483175
0000e0 5c 17 12 be b6 26 c1 bd 5d 06 0a bf 4e 4e 19 3e
       -0.14266723 -0.09431212 -0.5391596 0.14971277
0000f0 36 49 e4 3e 22 4e 2d be 6e 44 f3 be 00 e3 9a 3e
       0.44587106 -0.16924337 -0.47513145 0.30251312
000100 ea e9 de 3d 51 25 2b 3d bb d4 94 be 01 36 a0 3c
       0.10884459 0.041783635 -0.2906855 0.019557001
000110 fe 5d e9 3e 75 14 f9 be 7c 27 40 be 16 32 2b bf
       0.45579523 -0.4864842 -0.18765062 -0.668733
000120 c7 fa 7b 3f 06 73 08 3f 76 8d 5c bf 82 e1 40 be
       0.9842953 0.5330051 -0.8615335 -0.18836024
000130 d6 5b a2 bd c7 94 a2 3c 5a fd 06 3e 4e be ff 3e
       -0.079276726 0.019846333 0.13182583 0.49949878
000140 a9 d1 8f bd 09 97 5a 3e c6 51 68 bd bf 95 cd 3d
       -0.070224114 0.21346678 -0.05671861 0.100383274
000150 a0 09 da be 15 74 e8 3e dc 99 0e 3e 82 1b d1 3e
       -0.42585468 0.45401064 0.1392588 0.408413
000160 3f 18 2d bd 54 88 01 be 01 8b 9d bd 46 f6 92 be
       -0.04225945 -0.12649661 -0.076925285 -0.28703517
000170 f1 0a 7e 3d e6 ea 0b bf 87 ea 37 3e ca 39 c0 be
       0.062022153 -0.546553 0.17960559 -0.3754409
000180 ea 75 23 be 7b 5c f8 be e2 e0 9e 3e 99 de 8d 3e
       -0.1596295 -0.48508057 0.31030947 0.2770889
000190 2d 9b ab 3c 30 56 f3 bd 67 80 a8 3e 53 0c 98 3e
       0.020948017 -0.11881673 0.32910463 0.29696903
0001a0 2e d9 bd bd ea 7b 12 3f a7 a6 f6 3d 1f 69 6b 3e
       -0.09269939 0.5722033 0.12043505 0.2298932
0001b0 94 22 6e bd d1 23 1b 3e 51 aa 44 3e 8d 56 3b bd
       -0.058138445 0.15150382 0.19205596 -0.045736838
0001c0 7c be 85 3e b1 45 0e 3f ff 07 18 3d fa f8 a8 be
       0.2612189 0.5557509 0.037117 -0.33002454
0001d0 9b 3a e2 be 87 a6 73 be f9 14 78 3e b6 c7 ad bd
       -0.44185337 -0.23793994 0.2422675 -0.084853575
0001e0 0d f1 7a be de 5d b6 be 42 8e 44 bf 28 f1 8f 3e
       -0.24506016 -0.3561849 -0.7677957 0.28113675
0001f0 c7 b6 89 3c 46 c0 8d be ac 11 dd be 66 fb 37 bf
       0.016810788 -0.27685755 -0.43177545 -0.7186798
000200 4f 22 e7 3e 32 a6 be 3e a5 e1 8d be 6e e2 94 3e
       0.45143363 0.37236172 -0.27711216 0.29079002
000210 0e e3 eb be 78 e4 a0 3e c5 cb a2 be a7 bb 1c be
       -0.46071666 0.31424308 -0.3179609 -0.15305959
000220 c2 96 b0 be 17 52 89 3e ba f3 a7 3e 6c cb b0 be
       -0.3449002 0.26820442 0.32803136 -0.345302
000230 48 00 2f be 12 fb c5 3e ac d7 26 be 80 e9 75 bf
       -0.17089951 0.38668114 -0.1629321 -0.9605942
000240 10 06 87 3e 7c 9e 0c bf 00 ff 64 bc 63 ce e4 be
       0.26371813 -0.5492933 -0.013976812 -0.4468871
000250 be 63 c5 3e ad e8 81 3c 0b 3e 35 3f d4 ca 95 3e
       0.3855266 0.015858019 0.70797795 0.29256308
000260 d1 0f 33 3b 60 18 69 bf bc 70 29 3f 2a 67 c5 3e
       0.002732266 -0.9105282 0.66187644 0.3855527
000270 42 bd 41 be 54 fc cf 3e 57 35 55 3d 75 74 b2 3d
       -0.18919852 0.406222 0.052052822 0.08713619
000280 56 fe 8f be 01 10 3b be 2e 75 b5 3d 49 d9 a0 3e
       -0.2812373 -0.18267824 0.08860241 0.31415775
000290 82 1f 3a 3e 80 1d 5b 3e 71 03 ad be 93 c5 18 3e
       0.18176082 0.21397972 -0.33791688 0.14919119
0002a0 62 01 c0 3d 20 d3 10 bf b0 83 97 be 7d 19 91 3e
       0.09375264 -0.5657215 -0.29592657 0.2833976
0002b0 af 56 4f be f8 9e 30 bd 38 c5 63 3d 0e 35 f6 3c
       -0.20247911 -0.043120354 0.055608004 0.030054595
0002c0 6a db e8 3d fe 71 a9 bb 50 ba 08 bf 8d 74 91 3e
       0.11369975 -0.0051710596 -0.5340929 0.28409234
0002d0 c1 1e 24 3e 89 01 a0 bd 96 e3 73 be b9 69 d2 be
       0.16027357 -0.07812793 -0.23817286 -0.41096285
0002e0 b9 38 44 3d 29 c2 b0 3e 05 6a 06 bf a0 a0 1e bf
       0.047905657 0.34523132 -0.5250552 -0.61963844
0002f0 d9 8e fe bd 07 30 a5 3e a1 c4 0e 3f 72 c8 e7 be
       -0.1242959 0.32263204 0.5576878 -0.45270115
000300 ec 42 d9 bd f3 ee 3b 3d 51 38 90 3e 5d 68 e4 be
       -0.106084675 0.045882177 0.28167966 -0.44610873
000310 2d db 37 3e c6 96 08 3b a0 79 8e 3e 14 42 e8 bc
       0.17954703 0.002084182 0.27827168 -0.028351821
000320 a2 ac 97 be bc 18 7f be 8b c0 f1 3c 4c 56 9a 3e
       -0.29623896 -0.24911779 0.029510757 0.30143964
000330 5c 40 19 3e 12 0f 0a bd 5d 73 50 3e 72 14 09 be
       0.14965957 -0.03370578 0.20356508 -0.13386706
000340 23 4a a6 be 68 54 50 3e 57 95 3c bd 36 26 9b be
       -0.32478437 0.20344698 -0.04604086 -0.3030259
000350 a6 ec 20 be b5 0a 8d 3e fb 20 69 bd 6a 1a 32 bd
       -0.15715274 0.2754723 -0.05691622 -0.04348222
000360 9d 6b c6 be 69 8e 9d be 33 2f 8c be 30 14 51 3d
       -0.38753977 -0.30772713 -0.2737976 0.051044643
000370 a7 ce 32 3e 03 dc 38 bb 34 99 da bd fb da 66 be
       0.17461644 -0.002820731 -0.106737524 -0.22544472
000380 0f b5 c1 3e 3f ee f2 be 42 44 14 bf a5 fd 31 bf
       0.3783345 -0.47447392 -0.57916653 -0.69527656
000390 aa e2 0f 3e 42 a2 2a 3f 2e 29 99 be 4e 55 af be
       0.14051309 0.66653836 -0.2991423 -0.3424477
0003a0 52 d9 22 3f e0 7d cb 3e d9 72 ea be 7b f2 a6 bd
       0.63612854 0.39744473 -0.45790747 -0.08151718
0003b0 97 61 e3 be bb 2d 3e 3e 42 47 e0 be 3b 50 6f bd
       -0.44410393 0.18572132 -0.43804365 -0.058426123
0003c0 40 81 95 be 2c 74 35 3e 51 be bc 3b 1d db 1a bf
       -0.29200172 0.17720097 0.005759992 -0.6049059
0003d0 cc f3 e2 be bd ce b1 3e 5c 6b 2b bf af f8 93 bd
       -0.44326627 0.3472804 -0.6696069 -0.07225167
0003e0 b5 cc 8d 3d d9 26 73 3b b0 a5 7e 3c 2a e4 c9 3d
       0.069238104 0.0037102012 0.015542433 0.09857972
0003f0 ff f4 0d be 03 53 a8 be e6 d3 e9 3d 45 ec 1c bc
       -0.1386299 -0.32875833 0.114173695 -0.009577815

lstm.weight_hh_l0 f4 [52, 13]
000000 d4 f8 bc bd 58 9b 3b bf 57 a7 3e be 4e 33 df be
       -0.09227148 -0.7328391 -0.18618523 -0.4359383
000010 16 1f 9a be b9 13 11 bf ed 92 18 3e 4d 85 b7 3e
       -0.30101842 -0.5667072 0.14899798 0.35843888
000020 21 1e 02 be c2 c1 b7 3d 8a 10 0b bf 8e b6 06 bf
       -0.12706806 0.08972503 -0.5432211 -0.52622306
000030 dd 18 ce 3e 6f 0c 4e 3e d7 0a cf 3e 4b 32 4e be
       0.40253344 0.2012193 0.40437958 -0.20136373
000040 8b 87 17 3e 28 b7 94 be e2 5d b6 be e3 68 d1 3d
       0.147978 -0.29045987 -0.35618502 0.10225084
000050 3c b9 d9 ba a9 79 48 3e b0 28 7d 3e b3 ba 05 bf
       -0.001661099 0.1957766 0.24722552 -0.52238005
000060 d9 b0 1e be 45 fd d2 3c 25 bd 68 3e 9d 90 94 be
       -0.1549715 0.025755534 0.22728403 -0.2901658
000070 05 4a cf 3d f0 90 9f 3e 49 84 03 be 69 1f 8a bd
       0.1012154 0.31165266 -0.12843432 -0.06744272
000080 eb 46 90 3d 79 67 b2 be 6c 9b f9 bd 97 4d f8 be
       0.070447765 -0.34844568 -0.121878475 -0.48496696
000090 7b 89 9e 3e 42 86 2d be c7 7d 91 bd e2 f2 65 be
       0.30964264 -0.16945747 -0.07104068 -0.22455934
0000a0 ad 09 9e 3e 04 87 f6 bd c5 b2 46 3e 49 4c 4c 3e
       0.30866757 -0.12037471 0.19404133 0.19950975
0000b0 7d 4f ef bd 2e 64 74 3e 85 c3 4f 3e d8 50 90 3e
       -0.11685083 0.2386634 0.20289429 0.2818668
0000c0 18 00 ef 3e a2 9c 60 3e ca af 23 3e 6e fe b6 be
       0.4667976 0.2193475 0.15985027 -0.3574099
0000d0 c5 03 22 3e 3a 1b d7 3d 2d bd c5 3a 74 63 71 3e
       0.1582175 0.1050324 0.0015086286 0.23573095
0000e0 97 a7 e5 3d 68 ce 8d bd 0d 28 21 3b d8 6b 6f be
       0.11213606 -0.069241345 0.0024590523 -0.23380983
0000f0 f3 f1 07 bd 12 98 b3 bd e9 1f c1 3e 1b b5 c3 3e
       -0.033189725 -0.087692395 0.37719658 0.3822411
000100 ad 85 c2 bc 87 80 0f be ef 93 97 3e 2a 62 b9 be
       -0.023745382 -0.14013873 0.29605052 -0.36207706
000110 db 3a 96 be 04 e4 44 3e 77 e3 1c bf 21 fe 12 3f
       -0.29341778 0.19227606 -0.61284584 0.5741902
000120 c4 2e 08 3f bf 05 44 3f a2 ff 67 3d 6b 7d 0b bd
       0.5319636 0.7657127 0.056640275 -0.034055155
000130 87 f3 59 be da 1f b3 3e e8 c1 c8 bd ff c0 54 be
       -0.21284305 0.34985238 -0.0980261 -0.20776747
000140 f8 87 af 3d 01 65 ac bd a3 35 3c 3e 16 84 14 3e
       0.08570856 -0.084177025 0.18379836 0.14503512
000150 e9 e3 fc 3d 0a 77 43 bd d3 b1 48 be 6c 70 e9 3c
       0.12348158 -0.047720946 -0.19599085 0.02849599
000160 16 60 59 3e f5 06 5c 3e 27 51 32 bd 1b e5 ea bd
       0.2122806 0.21487029 -0.043534424 -0.1146948
000170 bd 31 4b be 96 97 8b 3e ea c2 b7 be 57 f1 b6 be
       -0.19843192 0.27264088 -0.35890895 -0.35731003
000180 28 e7 98 bd 16 8a 01 3f 91 0e b0 3e 96 ea a1 3e
       -0.074659646 0.5060133 0.34386113 0.31624287
000190 01 87 18 3e 81 7b 69 3e 6b 46 8a be 0a 3f 19 3e
       0.1489525 0.22801019 -0.2700685 0.14965454
0001a0 f7 19 06 be 98 5a 16 3e 78 01 8e 3d 4b 3f a1 3d
       -0.13095842 0.14682996 0.06933874 0.078734
0001b0 57 51 ed 3e ac 49 90 be 28 e3 a5 bd a4 a0 93 be
       0.4635112 -0.28181207 -0.08099967 -0.28833497
0001c0 0b 63 bb 3e 9d ef 92 bd e9 38 1b 3e 87 8b 2c 3e
       0.36599 -0.07174609 0.15158428 0.168501
0001d0 b9 a0 dc be b6 83 28 3f b5 c9 8b be e3 ae 56 be
       -0.43091372 0.65825975 -0.27302328 -0.20965151
0001e0 f2 e7 a9 3c 2b a7 b4 3e b3 a9 45 be c9 5b 09 be
       0.020740483 0.3528379 -0.19303016 -0.1341392
0001f0 bf e4 92 be 65 a6 72 be 4c 19 97 3d 0c 01 be be
       -0.28690144 -0.23696287 0.07377872 -0.37110174
000200 11 18 dd be 55 d0 2b bf 2e 0f fb 3c c8 f4 dd be
       -0.43182424 -0.67114764 0.030646887 -0.43350816
000210 98 e9 04 be 8c 20 dc be a7 7b ee be 81 6e 8d be
       -0.12979734 -0.4299358 -0.46578714 -0.2762337
000220 06 6b 79 3e b8 3a fd 3e 79 04 a7 3e f8 f5 e4 3d
       0.24357232 0.4945886 0.326206 0.11179727
000230 14 de c9 be 6f b9 01 bf 5f 02 7f bc 8f 01 5c 3e
       -0.39427245 -0.50673574 -0.01556453 0.2148497
000240 c1 a9 bb be f6 90 8f be a1 8d 49 be 50 53 1e 3e
       -0.3665295 -0.28040284 -0.19682933 0.15461469
000250 ad 04 c0 be b4 d0 8a 3e b8 39 80 3e 9a 8a 93 3e
       -0.37503567 0.27112353 0.25044036 0.28816682
000260 6b c5 68 3e 21 2c a3 bd 14 59 9f bd 21 1d c0 3b
       0.22731559 -0.07967401 -0.07780662 0.0058628474
000270 93 30 27 3f d4 ff 5e be b5 30 3e be 16 84 46 be
       0.65308493 -0.21777278 -0.18573268 -0.19386324
000280 15 32 d1 3d df 4e 0a be 1c f8 97 3d 2c 63 84 3e
       0.102146305 -0.1350665 0.0742037 0.25856912
000290 14 5d f0 3e 48 83 df 3c 4d d2 26 be ce 43 b7 be
       0.46946013 0.02728428 -0.16291161 -0.35793918
0002a0 84 f6 ce be 23 14 74 bd 78 80 8f be 21 b8 05 3e
       -0.40422451 -0.059589516 -0.280277 0.13058521
0002b0 21 75 eb be af e6 9a bd 50 a6 de bd 85 6d d9 bc
       -0.459878 -0.07563531 -0.10871565 -0.02654148
0002c0 d2 51 e6 3e a9 4a e5 be 7a 53 76 3e e5 e9 b3 be
       0.449843 -0.44783524 0.24055281 -0.35139385
0002d0 4f c7 c5 bd 3c 30 b4 3e 01 95 51 be 91 e0 f9 bd
       -0.09657156 0.3519305 -0.20466997 -0.12201036
0002e0 55 c5 1c bf 4f e5 8a 3e 8d bd 4a be 1f 38 c7 be
       -0.61238605 0.27128074 -0.1979887 -0.38910004
0002f0 eb 7d 19 3e 8e 5f 33 3e 3d 80 1a 3e 17 2c 01 3e
       0.1498944 0.1751692 0.15087982 0.12614475
000300 fb 1a ad be b4 4f a3 be e3 8a 2e be 5e 72 82 3e
       -0.33809647 -0.31896746 -0.17045169 0.2547788
000310 d4 07 2a be de 45 35 bd 03 e2 cf 3e 7f 16 08 3e
       -0.16604549 -0.044256084 0.4060212 0.13289832
000320 95 7e 90 be 79 9b 8f 3e 02 f8 b7 3c b7 a1 a6 3e
       -0.28221574 0.28048304 0.022457127 0.32545254
000330 4e fd bc be c0 2b c9 3e 4d bb 08 be 13 5a 61 be
       -0.36912006 0.3929119 -0.133527 -0.22007017
000340 18 37 a0 3d 38 22 d4 bd 9a 56 d8 be b8 9f 8f be
       0.07823008 -0.10358089 -0.42253572 -0.28051543
000350 30 cd 06 3e ce 85 ac be 4c ce e5 3e 61 7c e5 3e
       0.1316421 -0.33695835 0.44883955 0.44821456
000360 00 00 f9 3d f4 a8 e8 3d 89 5a 3b 3d d8 c5 bc be
       0.12158203 0.1136035 0.045740638 -0.36869693
000370 af 69 a5 bd 14 96 0c 3f 2a 80 f6 3d aa 1c 93 be
       -0.08076798 0.549165 0.12036164 -0.28732806
000380 1b 6c 8c bd 75 7f ee bc 2e 4b a8 be 21 00 d3 3e
       -0.06856557 -0.02911351 -0.32869858 0.41211036
000390 a9 67 56 3e dc 40 b0 bd 7c 8d ea 3e 47 38 0c be
       0.2093798 -0.08606121 0.4581107 -0.13693343
0003a0 79 67 7a be 49 09 72 3e a9 54 3c 3e 68 46 c5 bd
       -0.24453534 0.23636355 0.1839167 -0.096325696
0003b0 5a 4f ea 3d ca 4a 9b bc 6f c4 0d be e3 ad 35 bf
       0.11440916 -0.01895656 -0.13844465 -0.70968455
0003c0 d7 54 2a 3f 9f 9f f8 3d cd f6 3d 3f f9 23 b3 3e
       0.66535705 0.1213982 0.74204713 0.34988382
0003d0 05 b3 d0 be 8f a7 a7 be c2 90 3a 3e 5b c6 a5 3e
       -0.4076158 -0.32745025 0.18219283 0.32377896
0003e0 51 57 b1 be 3c 04 54 be ba dd c6 be 52 33 2f 3e
       -0.3463693 -0.2070474 -0.3884104 0.17109421
0003f0 17 4e 4d be 7a 7f 52 3e c9 a7 11 be 3f 9a 92 3c
       -0.2004932 0.20556441 -0.14224161 0.017895816

lstm.bias_ih_l0 f4 [52]
000000 80 b0 8b 3e 23 62 87 3e a9 ec da bd 83 33 b8 3e
       0.27283096 0.2644206 -0.106896706 0.359768
000010 63 72 07 3e d3 d1 b7 3e 03 23 26 3e dd d6 bc 3e
       0.13227229 0.3590227 0.16224293 0.36882678
000020 74 8d 86 bd 5a cf d3 3c fd d5 fc 3e 89 ec 92 3e
       -0.06569949 0.025855709 0.4938201 0.28696087
000030 87 48 88 bd b7 eb 9a 3d 78 a0 48 3e 9f 8d 09 bd
       -0.066544585 0.0756449 0.19592464 -0.033582326
000040 94 c0 d1 3e 1a 49 c9 3d d2 d6 ca 3e 80 8e 2b 3e
       0.40967238 0.09828396 0.3961702 0.16753578
000050 6a 3b 16 3e bf fb fc bd cd 92 a8 3e 2e d0 59 3e
       0.14671102 -0.12352704 0.329245 0.2127082
000060 35 9b 6c bd fb f7 f1 bd 0f 7c b4 3d d7 53 8b bd
       -0.057765204 -0.11814877 0.08812725 -0.068031006
000070 12 35 72 3e fd 62 0f 3b e3 da 58 bd 71 7b ae 3d
       0.23653057 0.002187907 -0.05294312 0.08519638
000080 c9 a0 b5 3e 27 67 65 bc 4e 25 8c 3e 82 72 8f 3d
       0.35474232 -0.014001644 0.2737221 0.070042625
000090 48 90 55 be 77 fd 28 3e 93 3b c3 bd 68 a2 0a 3f
       -0.2085582 0.16502939 -0.09532847 0.5415406
0000a0 5b 03 a8 3e 68 65 d9 3e 66 d0 4b 3f 28 b9 c2 3e
       0.3281506 0.4246018 0.79614866 0.38031888
0000b0 14 0d 9b 3d 73 ea 22 3e 92 fc 28 3e ad 4e d9 3e
       0.07570854 0.15909748 0.16502598 0.42442837
0000c0 db 6b 59 3e e3 b6 7f 3e 85 c1 97 3e 71 d1 82 3e
       0.2123255 0.2497211 0.2963983 0.25550416

lstm.bias_hh_l0 f4 [52]
000000 ed 7f 70 3e bf 38 ba 3e 2d 7e 66 be f1 40 83 3e
       0.234863 0.3637142 -0.2250907 0.25635484
000010 0f 96 16 3b de 9f f5 3e 70 c0 7c 3e c1 66 c4 3d
       0.0022977625 0.4797353 0.24682784 0.09589911
000020 97 6d 8d 3e 0a b6 a6 3e be 07 15 3f e0 4b 06 3f
       0.27622673 0.3256076 0.5821494 0.52459526
000030 cc 8b a4 3e 4a ce 1e bd b1 f1 25 3e 2b 15 ab 3e
       0.32137907 -0.03877095 0.16205479 0.33414587
000040 24 8a 38 3e 87 8a c6 3d 2b 67 52 3e 81 94 3f be
       0.18021446 0.09694391 0.20547168 -0.18708993
000050 e4 d6 60 3d ec 1f 37 3e cd 1c 5b 3d e8 72 af 3e
       0.054892436 0.17883271 0.053494263 0.34267354
000060 dd 24 4f bd ee 7e 68 3e 58 6a c2 3d 4a 6a 5e bd
       -0.050572265 0.2270467 0.0949294 -0.054300584
000070 17 ae 2c be 18 da 40 bd f3 f2 cb 3d cb af e0 bd
       -0.16863285 -0.04708299 0.09958448 -0.1097103
000080 29 8d 05 3d c2 f2 94 3e 5d bc 6c bd e6 47 3a 3e
       0.032605324 0.2909146 -0.057796825 0.1819149
000090 a1 65 11 3d 85 fe 06 3e f1 f2 37 3c 5e 35 36 3e
       0.03549731 0.13183029 0.011227355 0.17793795
0000a0 88 e6 05 3f f4 84 9f 3d 0b b0 01 3f 4b a5 eb 3d
       0.5230489 0.07789031 0.50659245 0.115061365
0000b0 18 26 1e bd cf 77 2a be 32 67 dc bd 54 92 bf 3d
       -0.038610548 -0.16647266 -0.107618704 0.09354082
0000c0 fe 0c 65 3e b6 bd a6 3d 2f fe 41 3e 4f bf b7 3e
       0.22368237 0.08141653 0.1894462 0.35888144

lstm.weight_ih_l0_reverse f4 [52, 13]
000000 a5 81 b4 be 67 46 b3 be 72 57 8d bd 0c 92 7d 3e
       -0.3525516 -0.3501465 -0.069014445 0.24762744
000010 b6 7d 62 be 47 d6 ba be ad 7f 14 bf 92 3e 0c 3f
       -0.22118267 -0.36491606 -0.5800732 0.54782975
000020 ef 14 67 3e 66 df 08 3e b1 0c 18 be 17 9d c1 3d
       0.2256658 0.1336647 -0.14848591 0.09453791
000030 1b 68 88 be 5a 1e 04 bd 71 89 5b be 61 a6 35 3f
       -0.26641926 -0.032255508 -0.21439148 0.70957
000040 55 40 69 3e cc 33 ec 3d e5 5c 16 3f 12 de dc be
       0.22778447 0.11533317 0.58735496 -0.43138176
000050 2b da 63 be 69 8e 26 3d 61 14 5c 3e d9 c0 21 be
       -0.22251193 0.040663157 0.21492149 -0.15796222
000060 b8 28 4e 3e a1 5a 7f be 5c 4e 93 bc 76 6b b9 3e
       0.2013272 -0.24936916 -0.0179817 0.362148
000070 ee 17 c7 bd 07 67 44 be 6a 12 bc 3e 95 02 f0 3d
       -0.09721361 -0.19179927 0.367328 0.117192425
000080 57 c8 9d bd b4 66 4a 3e ef 95 73 3e 1c 11 b2 bd
       -0.077042274 0.1976574 0.23787664 -0.086946696
000090 2a 76 53 bd e6 72 b1 3e 66 28 ca bc a1 3e e5 bd
       -0.051626362 0.34657973 -0.024677467 -0.11193586
0000a0 73 a4 1c be 01 e3 c6 be 6d 8d b2 3d 67 51 84 be
       -0.15297107 -0.38845065 0.08718381 -0.25843355
0000b0 31 44 9d be 2b 3e a7 be b3 3b 82 3e ef 87 78 3e
       -0.30716088 -0.32664618 0.25436172 0.24270605
0000c0 b5 76 de bd 1a da 6c bd a1 95 09 3e 5d 93 fb bc
       -0.10862485 -0.057825185 0.13435985 -0.030709917
0000d0 19 b3 79 3d c6 75 94 be 89 c5 4f 3c 95 88 e0 3c
       0.060961816 -0.28996104 0.012681373 0.027408877
0000e0 1c 6e 84 be 57 e9 b0 3e 0b 0f 02 3e c6 86 fe 3d
       -0.25865257 0.34553024 0.12701051 0.1242805
0000f0 e4 b3 08 be b3 a3 86 3e 29 5e b7 3e 76 a0 ad be
       -0.13349873 0.26296768 0.35814026 -0.33911484
000100 dc a0 22 3f 2f 12 be be 19 30 25 3e 18 ed 59 be
       0.635267 -0.37123248 0.16131629 -0.2128185
000110 d6 e2 ad 3d b6 45 44 bb 6a 3b cc be d9 4a a0 3d
       0.08490531 -0.0029948778 -0.3988908 0.07826776
000120 1b d4 ca 3e eb 18 8f 3e a1 32 2e 3d cf 42 28 bf
       0.3961495 0.27948698 0.042528752 -0.6572694
000130 0f d3 e2 3e 57 8d 3f be 3f bd 06 be 92 a8 a4 3e
       0.4430165 -0.1870626 -0.13158129 0.3215986
000140 7d 7a 4f 3d 5b 56 d9 3e ce fa fd 3d cc 93 a5 be
       0.050653923 0.42448696 0.12401353 -0.32339323
000150 88 92 92 3c a6 5d c8 3e a2 d9 48 be 3b c8 dc be
       0.017892137 0.39133948 -0.1961427 -0.43121514
000160 b7 aa 92 be 19 05 60 3e 48 c4 15 bc cb 10 17 3e
       -0.2864587 0.21876945 -0.009141035 0.147525
000170 16 91 ca 3d 6e 46 11 be a0 b9 99 3d b7 58 05 ba
       0.09890954 -0.14187023 0.07506108 -0.0005086767
000180 5e 26 9a be d6 1f c6 be cc e0 92 be 12 3e e0 bd
       -0.30107397 -0.38696164 -0.2868713 -0.10949339
000190 92 a6 1e bf ee 5b e9 bd c1 4d e3 3e 3d 9d 1a be
       -0.61972916 -0.11394487 0.4439526 -0.15099044
0001a0 87 00 c8 3e 78 f9 e7 3d cf 4f 41 be 4f fc 1c 3f
       0.39062902 0.11326879 -0.18878101 0.6132249
0001b0 b3 6f a6 be 56 5a c0 be 4f 39 80 bf 92 00 bf be
       -0.32507095 -0.3756892 -1.0017489 -0.37305123
0001c0 aa da 00 3d 2f 48 2b 3f dd bd 25 3e 14 d5 92 be
       0.031458534 0.6690702 0.16185708 -0.2867819
0001d0 ce 8d 31 bf d6 7b f6 be e8 cd 52 be c0 be da be
       -0.69357 -0.48141354 -0.2058636 -0.42723656
0001e0 b9 c7 c1 3c 78 a9 e5 be 63 a2 c5 be 40 ce 20 3c
       0.023654805 -0.44855857 -0.38600454 0.009814799
0001f0 ed 5c 59 3e f9 c1 ea 3e 92 e0 9f be e9 fd 10 3e
       0.21226855 0.45851114 -0.3122602 0.14159359
000200 5e 89 2e bd e3 20 31 bd 5b e5 22 bf 93 05 0c 3c
       -0.042611472 -0.043244254 -0.6363122 0.008546251
000210 9e 2d 9e be 95 a8 a7 3d b6 50 58 3e d5 9e b0 bd
       -0.30894178 0.08186451 0.21124539 -0.08624045
000220 cd df 7d 3d 23 fb 29 3e 6e c4 86 3e 7a ed b2 bd
       0.06198101 0.16599707 0.2632174 -0.08736701
000230 a6 f2 e8 be 3c 0f 93 3e a3 81 08 be 42 9b 93 be
       -0.45497626 0.2872256 -0.13330702 -0.2882939
000240 b9 e7 ad bd fa 0b db be b4 47 af 3d 2a 5b 61 3d
       -0.08491463 -0.42782575 0.08558598 0.05501858
000250 d4 9d 0a bf bc fd 65 3e 18 79 0f 3c fd 92 84 be
       -0.54147077 0.22460073 0.008756898 -0.25893393
000260 47 ee cc be b7 78 52 be c2 51 be 3e aa 75 a8 3e
       -0.4002554 -0.20553862 0.3717175 0.3290227
000270 b5 4e 97 be cc bd e0 3d 4c 74 95 be 84 2b 5b bd
       -0.29552236 0.10973701 -0.2919029 -0.053508297
000280 ce 40 62 3d 9c b1 0c bf e5 cd 33 3e 3f e2 1d 3f
       0.055237584 -0.5495851 0.17559011 0.6167335
000290 63 75 88 be bd ab 16 be c4 9f 18 be 5e a7 f0 3e
       -0.2665206 -0.1471395 -0.14904696 0.4700269
0002a0 08 32 02 bd b6 db 07 be e7 cf 01 be 73 86 02 3e
       -0.031785995 -0.13267407 -0.12676965 0.12746601
0002b0 4d a1 c6 3d 24 9f 42 be 73 62 a1 3c 6d aa b4 b9
       0.096987344 -0.1900602 0.019700265 -0.00034459252
0002c0 44 b1 c5 3d 87 11 b3 3d 7c 00 b7 be 24 ff 26 be
       0.09652951 0.087435775 -0.35742557 -0.16308266
0002d0 f1 9d 6d 3e 0a 91 4f bd ae ef cc bd c6 c3 04 bf
       0.23204781 -0.05067543 -0.10006653 -0.51861227
0002e0 f5 b7 1f 3f bc ab 28 be d2 e2 76 3d 87 72 ff 3e
       0.6239007 -0.16471761 0.060274906 0.49892065
0002f0 da 35 14 be 9c 1e 63 be ab 23 40 be 18 32 8e bd
       -0.14473668 -0.22179645 -0.18763606 -0.069431484
000300 92 49 e0 bd fe a7 1e be 64 2b 1c be bb d1 c9 3c
       -0.109515324 -0.15493771 -0.15250927 0.02463614
000310 be c9 1d bd a4 7f 6d be 79 98 20 3d f6 b2 54 3e
       -0.038522474 -0.23193222 0.03920791 0.20771393
000320 80 30 e0 be 53 6f 96 3e a2 d2 29 ba 9a ea b7 bd
       -0.43787003 0.2938181 -0.0006478225 -0.089802936
000330 41 8e b7 be d6 a8 68 be f1 8d 14 bc 36 82 01 3d
       -0.3585072 -0.22720656 -0.009067045 0.03161832
000340 17 ac 88 be 4f 9c 8b bd d3 ea 93 39 bc d6 9d be
       -0.26693794 -0.06816923 0.00028212983 -0.30827892
000350 05 94 86 be 2b d8 ad 3e 0c 29 eb 3e e9 0e 0d be
       -0.26284805 0.33953986 0.45929754 -0.13775219
000360 84 da b6 3e 2a 0f 1b bd df 68 33 bc 15 cb 5e be
       0.3571359 -0.03785626 -0.010950296 -0.21757157
000370 20 b2 05 3f 4d 2e b0 be fd 90 4d be 3e f5 df bc
       0.5222492 -0.34410325 -0.2007484 -0.02733862
000380 8d 5d 0f 3f 82 f6 aa be e4 6b aa 3c d1 2f df be
       0.5600212 -0.33391196 0.0208034 -0.4359117
000390 98 90 17 3c 2b d6 ad 3e e1 24 01 3f 1c 51 99 be
       0.009250782 0.3395246 0.504469 -0.29944694
0003a0 3c f9 93 bc 27 6f f7 3c 74 48 95 be 1c cf d0 be
       -0.01806318 0.030204369 -0.2915684 -0.40783012
0003b0 aa 37 78 be e8 bc cc 3e d5 84 d1 be c3 e1 81 be
       -0.24239984 0.39987874 -0.40921655 -0.25367555
0003c0 b4 c4 af be 0f 03 e4 bc f2 f7 d2 3e 01 ee 93 be
       -0.3432976 -0.02783349 0.41204792 -0.2889252
0003d0 5c 78 bb be 5f 60 57 3e cf 71 e5 3c 2b de a2 3e
       -0.36615264 0.21032856 0.02800837 0.31810126
0003e0 07 1d bf be 4a 11 b7 3e 49 54 11 3e 55 b5 2b 3d
       -0.37326834 0.35755378 0.14192308 0.04192098
0003f0 5e 3b 21 3e 43 5a c8 be c7 9f ce bc d1 ee 0e be
       0.15745303 -0.39131364 -0.025222672 -0.13958289

lstm.weight_hh_l0_reverse f4 [52, 13]
000000 1c 7c 9b 3c f4 1f 4d 3e d8 d5 73 bd 3f b2 88 be
       0.018980078 0.2003172 -0.05953011 -0.2669849
000010 72 b4 bb be d4 26 3f be b1 cd 14 3d 7b 32 5b bd
       -0.36661106 -0.18667156 0.036328975 -0.05351494
000020 f6 81 b7 3e da 9d b9 3d f9 fe 1f 3d fe 47 09 3e
       0.3584134 0.09063311 0.03906152 0.13406369
000030 52 07 e0 be e1 00 91 be 4c b7 7c 3e e7 81 98 3e
       -0.43755585 -0.28320983 0.24679297 0.29786608
000040 ea 5b c5 be e6 87 f7 3c 12 cc 4a bd 83 48 f5 3d
       -0.38546687 0.030216169 -0.049511023 0.11976721
000050 fd 70 d8 bd 37 f3 3e 3d 5d 58 69 be 45 ac 40 3e
       -0.10568426 0.046618666 -0.22787614 0.18815716
000060 89 61 94 be 97 3f ac be 09 1a b8 be 68 1f ea 3d
       -0.28980663 -0.33642265 -0.35957363 0.114317715
000070 6b 47 a5 3c c5 b8 92 be f3 b9 04 bd fe 09 f5 3d
       0.020175656 -0.28656593 -0.032403897 0.119647965
000080 ae 08 91 3e e1 07 93 be 9e ae b0 3c fb c1 54 be
       0.28326935 -0.2871695 0.021567639 -0.20777123
000090 74 9a 83 3d 4e 35 32 3f f7 e7 40 bf 4e 05 bc bd
       0.06425944 0.69612586 -0.7535395 -0.09180699
0000a0 13 c6 cc 3e 53 2a 30 3e 78 d5 3c be be 7f 0b bf
       0.3999487 0.17203645 -0.18440807 -0.54491794
0000b0 c1 3c b0 3e c4 77 e9 3c 13 ff 6e be d0 ce 91 bd
       0.34421352 0.028499492 -0.2333949 -0.071195245
0000c0 9b 69 8d bd 0b 8a fd be f2 4d d9 3d db eb 94 bd
       -0.06904908 -0.4951938 0.1061057 -0.07271548
0000d0 ab d3 f6 be 3e be 82 bd 69 b2 a5 bc a2 d9 fc 3e
       -0.48208365 -0.06383942 -0.020226674 0.4938479
0000e0 7f 76 14 bf 34 37 b5 3e f8 64 de 3d 0e b2 5a 3e
       -0.5799331 0.3539368 0.10859102 0.21356985
0000f0 4b 1b 52 3e c6 b5 ef 3c 49 41 48 be cd ad 19 bc
       0.20518224 0.029261481 -0.19556154 -0.009379816
000100 bd 6a 1e 3e 6f 78 87 bd ae 75 51 3e 24 64 7e bc
       0.15470405 -0.06614768 0.20455047 -0.015526805
000110 7c 77 3b bd 61 26 3d be 55 d4 df be fb 65 9b be
       -0.045768246 -0.18471672 -0.43716684 -0.30351242
000120 c3 75 15 bf 69 d1 81 3e dc e4 fd be 1d 88 24 be
       -0.58382815 0.2535508 -0.49588668 -0.16067548
000130 5e a7 1c 3f ed 4d a1 bd b1 fd aa be 95 6c c1 3e
       0.6119288 -0.07876191 -0.33396676 0.37778154
000140 ed e9 07 3e 51 44 34 3e 08 1c d0 3d 2d 86 8e bd
       0.1327283 0.17604186 0.101615965 -0.06959186
000150 41 fd 80 be 36 9f 00 bf d9 f5 8c be f5 3e ed bd
       -0.25193217 -0.50242937 -0.27531317 -0.11584274
000160 8c 77 ac bd 1d ba 0a 3e d6 b6 d3 be 32 09 3b be
       -0.08421239 0.13547559 -0.4135043 -0.18265226
000170 c2 7a 74 bd a7 39 e3 bc 76 ef cc bd ad 29 10 be
       -0.059687383 -0.027737452 -0.10006611 -0.14078398
000180 67 c6 23 be a9 b7 a2 3e 70 4f 80 be c2 b3 c2 bd
       -0.15993653 0.31780747 -0.25060606 -0.09506942
000190 68 91 aa 3b ea c8 3c 3e 17 38 b6 3e 5f 58 b4 be
       0.005205322 0.18436018 0.35589668 -0.35223672
0001a0 e4 c0 80 3e 95 91 f6 3e 67 79 eb be 6a 54 c1 bd
       0.25147164 0.48157945 -0.4599106 -0.09439929
0001b0 06 48 81 be c4 3d b8 3e 6d b8 a4 be b3 c1 7c be
       -0.25250262 0.35984623 -0.32171956 -0.24683265
0001c0 8d cc 38 bd 47 4a f8 3b dd 5c 08 bf d2 79 28 3e
       -0.04511695 0.007577214 -0.532667 0.16452721
0001d0 ed e5 2c 3c 73 f1 74 3e b1 66 8c 3e af 81 04 3d
       0.010552865 0.2392023 0.27422097 0.03235024
0001e0 61 a1 c2 3d 79 c0 c2 3a bf b7 79 3d ff ab ba bd
       0.09503437 0.0014858387 0.06096625 -0.09114837
0001f0 fd d1 f5 be a2 95 3c be 85 31 00 be 68 26 08 bd
       -0.4801177 -0.18416455 -0.1251889 -0.033239752
000200 f4 5c 34 3e cf c7 99 be 4f b8 f4 bb b0 60 94 3e
       0.17613584 -0.30035254 -0.0074682604 0.28980017
000210 e4 09 a4 3e 68 f5 07 3f 0a 0c a1 3e 77 07 71 3f
       0.32038796 0.53108835 0.31454498 0.94152015
000220 ec 42 1c bf 66 7e 3b bf 4f 42 e9 be 0d 86 2e bf
       -0.61039615 -0.73239744 -0.45558402 -0.68173295
000230 7d 9f 19 bf 8b a0 f8 3e 31 5e 09 bf 8c e8 81 3e
       -0.60008985 0.48559985 -0.5365935 0.25372732
000240 c3 a7 9e 3d aa ce 18 3e 24 63 d8 3e e4 0d f7 3d
       0.07746842 0.14922586 0.42263138 0.12063196
000250 b8 e4 fa 3d 12 4d ca be 02 cd 41 be 86 e1 6d bf
       0.12250656 -0.39511925 -0.1892586 -0.92922246
000260 00 94 12 bf 19 48 d5 be 79 9a e9 bd e9 a5 78 3d
       -0.5725708 -0.4165657 -0.114064164 0.0607051
000270 70 db eb 3e 6d d9 5c be 13 5e a7 3e 16 a0 5d 3d
       0.46065855 -0.21567316 0.3268896 0.054107748
000280 7c 92 81 bd 07 4b 91 3e 09 6f 9b be 41 20 a0 be
       -0.06326768 0.28377554 -0.3035815 -0.31274608
000290 7f f4 06 be be 08 e2 bd 1e 81 4b be 01 c8 ed 3e
       -0.13179205 -0.11036824 -0.19873473 0.46441653
0002a0 ba f2 bb 3d 77 c6 1c 3e 91 70 af 3d a2 a6 bc 3e
       0.09177156 0.15310083 0.08566392 0.3684588
0002b0 64 aa aa 3c 14 3e 24 3d 30 03 85 3e 71 6f bf be
       0.020833202 0.040098265 0.25978994 -0.3738971
0002c0 32 9a 8c be 74 44 ae 3e 85 be 9c 3c 14 74 c1 be
       -0.27461392 0.340366 0.019133816 -0.37783873
0002d0 94 98 26 3d 27 d0 02 be 9d eb 48 3d 94 98 cd 3e
       0.040672854 -0.12774716 0.049052823 0.4015547
0002e0 8c 61 d0 bd dd fe 72 be a1 b4 ad 3e da b0 b9 be
       -0.101748556 -0.23730035 0.3392687 -0.3626774
0002f0 15 8a a3 be ef a9 6b 3e 25 70 23 bc 19 52 57 3d
       -0.31941286 0.23014043 -0.009975468 0.05256853
000300 5d f6 d4 3d e2 51 1a be 57 52 01 be 66 49 01 bf
       0.103985526 -0.15070298 -0.12629066 -0.5050262
000310 34 73 6f bd 09 ee aa 3e d2 47 34 3e e8 0a a8 3c
       -0.058459476 0.3338473 0.17605522 0.020513013
000320 e1 a2 1e be ee 8d fd bd c1 fb 6a 3d 5a be c8 be
       -0.15491821 -0.123805866 0.057368997 -0.39207727
000330 87 08 bb be f5 ab ea bd 2e a9 2c 3e c3 78 b4 be
       -0.36529943 -0.114585795 0.16861412 -0.35248384
000340 cc f3 7c be 74 df 25 3e 9b d1 f9 3c e7 b6 ac bd
       -0.24702376 0.16198522 0.030495455 -0.08433323
000350 bf f3 d0 bc a2 04 97 3e a8 07 23 bd e9 fa a8 bd
       -0.025506852 0.29495722 -0.039802223 -0.08250982
000360 d4 59 cb bd e6 71 9a 3c f6 e7 9e be 2c d1 97 3e
       -0.09929243 0.01885314 -0.31036347 0.29651773
000370 3f 0d 9c be 75 4c 8c be fc 5a 9c bd 5e 17 f1 bd
       -0.30478856 -0.27402082 -0.076345414 -0.11772035
000380 e7 99 15 3e b3 0c bc be 18 00 0d 3e 5f f4 9f be
       0.1460949 -0.3672844 0.13769567 -0.31241128
000390 50 fc f0 bd 85 a8 48 3e f1 a8 03 bd 8f 22 58 be
       -0.11766875 0.19595535 -0.032143537 -0.21106933
0003a0 7f 10 e5 bd 61 89 a6 be 06 21 2c 3d 63 04 13 3f
       -0.11184787 -0.32526687 0.04202368 0.5742857
0003b0 c9 f3 f4 bb 6d a3 b9 3e d7 f5 e4 be 4f 09 5c 3e
       -0.0074753505 0.36257496 -0.4471881 0.21487926
0003c0 d2 25 10 bf 35 30 ac be c5 8e 99 be 67 a7 a3 be
       -0.5630771 -0.3363053 -0.29991737 -0.31963655
0003d0 d8 f3 ce be 2b 55 5b be 18 3a bb be 79 06 7a be
       -0.40420413 -0.21419208 -0.3656776 -0.24416532
0003e0 b8 95 d1 3e dd 0b 2e 3e 3f 95 80 3e 1e 08 0b 3d
       0.4093454 0.16996713 0.25113866 0.033943288
0003f0 74 21 f3 3d d4 4e 56 3d 0f 17 19 be 97 5c 8c be
       0.11871615 0.05232127 -0.14950202 -0.2741439

lstm.bias_ih_l0_reverse f4 [52]
000000 86 e6 59 3c 7a 8b d7 3e 52 5a 2e 3e 1d 9a e2 3e
       0.01329959 0.420986 0.17026642 0.44258204
000010 c0 df 62 be 5d 96 89 3e b0 73 11 3f 06 6c ab 3e
       -0.22155666 0.2687253 0.5681715 0.33480853
000020 a7 bb 90 be 04 d4 6c 3e ce 2b 54 3d 6f c3 cd 3e
       -0.28268167 0.23127753 0.051799588 0.40188166
000030 bf 16 e0 bd 82 8c a0 3e 16 af 1c 3e ef 03 d9 3e
       -0.109418385 0.313572 0.15301165 0.42385814
000040 7f b0 e2 3c 8e fe 69 3e 2f 68 c7 3e fc 27 2d 3e
       0.02767205 0.22851011 0.38946673 0.16909784
000050 3f e7 33 3e 13 be 33 3e 28 4e 0f be 66 04 b0 3e
       0.17568682 0.17552976 -0.13994658 0.34378356
000060 0a 9a 82 3e 32 57 e0 3e 70 de 04 be 01 f9 41 3e
       0.25508147 0.43816525 -0.12975478 0.18942644
000070 27 21 06 be 81 d2 94 3d f6 e0 7a 3e cf 8e 81 be
       -0.13098584 0.07266713 0.24499878 -0.25304267
000080 26 44 4a bd 28 c7 a2 3d d2 b2 aa be 87 cd 1d be
       -0.049381398 0.07948142 -0.33339554 -0.15410434
000090 d6 a5 6f be 02 2e b8 bb 98 ea ff bd 57 68 1e 3f
       -0.23403105 -0.005620719 -0.12495917 0.6187796
0000a0 f0 7d 32 3e 91 46 01 be f0 1e 33 3e 7d a6 4b 3e
       0.17430854 -0.12624575 0.1749227 0.19887729
0000b0 70 19 1c 3e 68 f6 be 3c d0 ef 29 be 3d d5 93 3e
       0.15244079 0.023310855 -0.16595387 0.28873625
0000c0 27 2a ca 3e 68 05 1b 3f 47 12 01 3f f4 3e af 3d
       0.39485285 0.60555124 0.50418514 0.08556929

lstm.bias_hh_l0_reverse f4 [52]
000000 68 09 a5 3d d1 06 e1 3e 78 7b 9a 3e 6d 2e 02 3f
       0.08058435 0.43950513 0.30172324 0.5085209
000010 a0 61 1f 3e a1 00 a2 3e 20 f3 de 3e 8d 03 92 3e
       0.15564585 0.31641105 0.43544865 0.28518334
000020 be 71 41 bd 83 58 e8 3e f1 9f 1a 3f c3 97 a1 3e
       -0.047227614 0.4538003 0.604003 0.31561098
000030 bf 4e 5e 3e 78 47 a9 3e d7 89 91 3e f6 35 17 3e
       0.21709727 0.3306234 0.28425476 0.14766678
000040 78 20 4b 3e 57 cc bf 3b f6 7d 02 3f f8 a5 ef 3d
       0.19836605 0.0058532166 0.5097345 0.11701578
000050 6a 78 df bc 54 31 58 3e cd c8 13 3e 5c 9e 5e bc
       -0.027279098 0.21112567 0.14432068 -0.0135875605
000060 3d 50 01 be 7a f7 ca 3e 13 05 2c be c6 c5 3a 3e
       -0.12628265 0.39641935 -0.1679881 0.18239507
000070 75 f3 a3 3e e0 b0 d1 bd 8b 17 cb bd 97 aa ec bd
       0.3202168 -0.10238814 -0.099166 -0.11555975
000080 17 df 7b bd ea e9 b8 be 12 4a 3a bd 1d 70 9f be
       -0.061492052 -0.36115962 -0.045480795 -0.31140223
000090 20 6a 99 be 79 26 f9 3d ce 58 08 3d 93 7d d6 3e
       -0.2996378 0.12165541 0.033287816 0.4189268
0000a0 43 f7 44 3e 93 65 ba 3e 84 20 0c 3f d2 9b 0c be
       0.19234948 0.3640562 0.54737115 -0.13731316
0000b0 4c 50 32 3d 26 82 71 3e ce e4 21 bd 7e c0 9f 3e
       0.04353361 0.23584804 -0.039524846 0.31201547
0000c0 09 5c 82 3e b3 f6 62 3e 63 72 13 3e f4 82 ca 3e
       0.25460842 0.22164421 0.14399104 0.39553034
