model.pt (torch_old, 148350 bytes, 14 tensors)

encoder.weight_ih_l0 f4 [128, 17]
0	0xbdbb7538	-0.09153217
1	0x3db41407	0.087928824
2	0xbd8f182f	-0.069870345
3	0xbd818d9d	-0.06325839
4	0x3d3c5791	0.045981947
5	0xbc928c56	-0.017889183
6	0x3e64673a	0.22305003
7	0x3ce68d5b	0.028143575
8	0x3dbc4177	0.09192174
9	0x3da648ae	0.08119331
10	0x3e2b0299	0.1670021
11	0xbe0f9d5a	-0.14024869
12	0x3e1389d4	0.14408046
13	0x3eabd401	0.33560184
14	0xbcb32f54	-0.021873154
15	0x3d9d6ed3	0.07687154
16	0x3dbea495	0.09308735
17	0x3e10f8cc	0.14157408
18	0x3cf60ddd	0.030035907
19	0x3e68eacb	0.22745816
20	0x3d719419	0.058979128
21	0xbcc73ce1	-0.024321022
22	0x3dcb08da	0.09913798
23	0x3e14fbbe	0.14549157
24	0x3e91c18f	0.28467986
25	0xbb50c6d2	-0.0031856787
26	0xba47a07d	-0.0007615162
27	0x3e918260	0.2841978
28	0x3e4d6441	0.20057775
29	0x3e9bab65	0.304042
30	0x3ea3a68e	0.3196301
31	0x3c5f1cbc	0.013617691
32	0xbc6349f8	-0.013872616
33	0xbd77f5e0	-0.06053722
34	0x3def078b	0.116713606
35	0x3d87f408	0.06638342
36	0x3e0ef1b4	0.1395939
37	0x3e34c81b	0.17654459
38	0xbddce12e	-0.10785137
39	0xbdac1e58	-0.08404225
40	0x3e7c6142	0.24646476
41	0x3e042dec	0.12908143
42	0xbe771d63	-0.24132304
43	0x3d14bdbc	0.036313757
44	0x3e5196fa	0.20467749
45	0xbbcde4b2	-0.006283366
46	0x3e2ff536	0.17183384
47	0x3eb4925b	0.3526791
48	0xbb930035	-0.0044861087
49	0x3d8cf8c3	0.06883385
50	0xbddf88e4	-0.10914782
51	0xbae62a83	-0.0017560277
52	0x3dcdad47	0.10042816
53	0x3dfa40b9	0.12219376
54	0xbc7fe493	-0.015618461
55	0xbdbbfa10	-0.09178555
56	0x3e1c7698	0.15279615
57	0x3d753496	0.059864603
58	0x3d794888	0.060860187
59	0xbe0cae69	-0.13738407
60	0xbe301ae0	-0.17197752
61	0x3e029bb9	0.12754716
62	0x3e00bc11	0.12571742
63	0x3e85dbba	0.261442
64	0x3e229844	0.15878397
65	0x3e3c426b	0.18384711
66	0x3dd8b56e	0.1058148
67	0x3da5ca88	0.080952704
68	0xbe1322b4	-0.14368707
69	0x3dac10e2	0.08401658
70	0x3e295e7c	0.16539949
71	0xbdcc138c	-0.09964666
72	0x3db0d510	0.086343884
73	0x3dae66ac	0.08515677
74	0xbe5c8783	-0.21536069
75	0x3d9ad84b	0.07560786
76	0x3da6b6e3	0.081403516
77	0x3e171cd8	0.14757097
78	0x3e45e5dd	0.19325967
79	0xbdf33e62	-0.11877133
80	0x3d8760ec	0.06610283
81	0x3dd26e90	0.102749944
82	0x3e13e594	0.14443046
83	0x3e0bee16	0.13665041
84	0x3dc8fc06	0.09813695
85	0xbdd1a5ca	-0.102367
86	0x3e4f32f7	0.20234285
87	0xbc74cfc8	-0.014942117
88	0xba057306	-0.0005090687
89	0x3e045062	0.12921289
90	0x3e2a2e84	0.16619307
91	0x3e8c5411	0.27407888
92	0x3e1fb24c	0.15595359
93	0x3da619ac	0.08110365
94	0x3df1ac3e	0.11800431
95	0xbc186bac	-0.009303015
96	0x3da9e1cc	0.082950205
97	0x3e57e9c8	0.21085274
98	0x3ebfcfe2	0.3746329
99	0x3e66488c	0.22488612
100	0x3e889d5f	0.26682565
101	0xbd20c9b9	-0.039254878
102	0x3e28334c	0.16425818
103	0xbd28a4f9	-0.041172955
104	0x3db7f14f	0.08981573
105	0x3d1c14bc	0.03810571
106	0x3e10b7ed	0.14132662
107	0x3e530e53	0.20610933
108	0x3eaf85c5	0.34281746
109	0xbc550b07	-0.013003117
110	0x3d80b02e	0.062836036
111	0x3d1f4a7c	0.038889393
112	0x3e04a56b	0.12953727
113	0x3e301545	0.17195614
114	0x3e1bcb63	0.15214305
115	0x3e0a3355	0.13496144
116	0x3e806035	0.250734
117	0x3e64084d	0.22268791
118	0x3c4d6a39	0.0125375325
119	0xbdff2fb2	-0.12460269
120	0x3e69fa70	0.2284944
121	0x3d823cc4	0.063592464
122	0x3e1b8348	0.15186799
123	0xbda1cc17	-0.07900255
124	0x3dd8ae3e	0.10580109
125	0xbd050f64	-0.03248538
126	0x3cd059f0	0.02543351
127	0x3e517aab	0.2045695
128	0xbd27c4e5	-0.040959258
129	0x3d843d20	0.06456971
130	0xbdee0e40	-0.11623812
131	0x3dbfad30	0.09359205
132	0x3d86019f	0.06543278
133	0x3cce9b0e	0.02522042
134	0x3e6f25cf	0.23354267
135	0xbcb7069a	-0.022342015
136	0xbd9247f5	-0.07142631
137	0x3e615d71	0.22008301
138	0x3e60d671	0.21956803
139	0xbd1ee8bf	-0.038796183
140	0xbdb96d20	-0.09054017
141	0x3dccefa0	0.10006642
142	0x3eb0af1f	0.34508607
143	0x3e5bf00c	0.2147829
144	0x3e151051	0.14557005
145	0x3d63ffd7	0.05566391
146	0x3d9e0688	0.077160895
147	0xbe105271	-0.14093949
148	0x3e7c2596	0.24623713
149	0x3dcc79d7	0.099841766
150	0x3e438052	0.19091919
151	0x3c554f70	0.013019428
152	0x3e838daf	0.25694034
153	0xbd37a79a	-0.04483757
154	0xbda8ad9a	-0.08236237
155	0xbd14fbd7	-0.036372986
156	0x3e531648	0.20613968
157	0xbe042ead	-0.1290843
158	0xbd25ed6b	-0.040509623
159	0xbc88e3c4	-0.01671017
160	0xbe05e307	-0.13074885
161	0xbb9e40a1	-0.0048294817
162	0x3b6a4219	0.0035744964
163	0xbce960b7	-0.0284885
164	0xbdf801a2	-0.121096864
165	0x3de74737	0.1129288
166	0x3c47e128	0.0121996775
167	0xbd861309	-0.065465994
168	0x3d703eb4	0.05865355
169	0x3dcf5e53	0.10125413
170	0xbd3e3a07	-0.046442058
171	0xbdd75a45	-0.105152644
172	0xbcb17261	-0.021660985
173	0x3e2f6390	0.17127824
174	0x3d370510	0.044682562
175	0x3dcb0879	0.099137254
176	0x3ec6769e	0.38762373
177	0x3e2fbf21	0.17162754
178	0xbdc8d2ce	-0.09805833
179	0x3e28abc8	0.1647178
180	0x3e629fca	0.22131267
181	0x3d13fb8a	0.03612856
182	0x3eb594cd	0.35465088
183	0x3ec26386	0.37966555
184	0x3e78e3ea	0.24305692
185	0xbd749496	-0.059712015
186	0xbdc6e46a	-0.09711535
187	0xba71f415	-0.00092297915
188	0xbdf7b09a	-0.12094231
189	0x3da73e0a	0.0816613
190	0x3cc996b2	0.02460799
191	0x3b8c6c81	0.0042853956
192	0x3d554a21	0.052072648
193	0x3e6d886d	0.23196574
194	0x3e159e7a	0.14611235
195	0xbadeb969	-0.0016992512
196	0x3e0ab12e	0.13544151
197	0xbd627849	-0.055290494
198	0x3e85b8c5	0.2611753
199	0x3e8fd440	0.2809162
200	0x3de18027	0.11010771
201	0x3e8b9b0e	0.27266735
202	0xbb7e7fd7	-0.0038833523
203	0x3d2c3cba	0.0420501
204	0x3e0ce5f1	0.1375959
205	0xbd076617	-0.033056345
206	0x3e201633	0.15633468
207	0x3d0b69fc	0.03403662
208	0x3e518787	0.20461856
209	0x3c3e4010	0.011611953
210	0x3e6ff782	0.2343426
211	0x3e844559	0.25834158
212	0x3c8277d4	0.01592628
213	0x3d51801a	0.051147558
214	0x3e57589f	0.210299
215	0xbd2cf48c	-0.042225406
216	0x3e568ee3	0.20952944
217	0x3eb9a296	0.36256856
218	0x3dc7cfdd	0.09756444
219	0x3dcb498d	0.09926138
220	0xbda1c74d	-0.07899342
221	0x3e1469be	0.14493462
222	0xbdac7ce1	-0.08422256
223	0xbda47b20	-0.08031297
224	0x3e1688bc	0.14700598
225	0x3cbdfbda	0.023191381
226	0x3e5da58e	0.21645185
227	0x3e4872e6	0.1957508
228	0x3e932f21	0.28746894
229	0xbc69c770	-0.014268741
230	0xbe1e8d8e	-0.15483686
231	0x3e58c343	0.21168236
232	0xbd0f7a95	-0.035029013
233	0x3e0f4597	0.1399139
234	0x3e99e368	0.3005631
235	0x3a2dc22c	0.000662836
236	0xbb3fab98	-0.0029246565
237	0x3e878bdc	0.26473892
238	0xbde56a6d	-0.1120194
239	0x3d27939a	0.04091225
240	0x3e13539f	0.14387368
241	0x3aebc450	0.0017987583
242	0x3e31f02b	0.17376773
243	0xbcc6c0ed	-0.024261916
244	0x3dd113e8	0.10208875
245	0x3dee785c	0.116440505
246	0x3d9e3d9e	0.07726596
247	0xbd7ab9d3	-0.061212372
248	0x3e2d5e5e	0.1693053
249	0x3e5f3a90	0.21799684
250	0x3d5add8e	0.053433947
251	0x3ecf41a2	0.4047976
252	0xbb6e0786	-0.0036320402
253	0xbc7f74c1	-0.015591801
254	0x3cce9aa0	0.025220215
255	0x3e1ef035	0.15521319

encoder.weight_hh_l0 f4 [128, 32]
0	0xbd514947	-0.051095273
1	0xbe1417e7	-0.14462243
2	0x3e308525	0.1723829
3	0x3de96a70	0.113972545
4	0x3decb8df	0.11558699
5	0xbc7d2313	-0.015450257
6	0x3e4dee6a	0.20110479
7	0xbd04d7be	-0.03243231
8	0x3e326307	0.17420588
9	0xbd301f57	-0.042998638
10	0x3aea5dab	0.0017880698
11	0xbe02aac5	-0.12760456
12	0xbd96b5d4	-0.073589
13	0x3e13f85a	0.14450207
14	0xbcbb4b56	-0.022863071
15	0x3e3621a0	0.17786264
16	0x3ddc38e2	0.10753037
17	0x3d84baf7	0.06480973
18	0x3d9fcd13	0.07802787
19	0xbc5eeea4	-0.013606701
20	0x3d07c053	0.0331424
21	0xbdcbe1d6	-0.09955184
22	0xbcd779db	-0.026303222
23	0x3e293b08	0.16526425
24	0x3deee84b	0.116654
25	0xbd249321	-0.040179376
26	0x3d0572df	0.032580253
27	0x3d11cea4	0.03559746
28	0x3d75f3fb	0.06004713
29	0xbd7a7dfd	-0.061155308
30	0x3cddbc4b	0.027067324
31	0xbdff49a9	-0.124652214
32	0xbd55ba57	-0.05217966
33	0x3daee974	0.085406214
34	0xbbbb607d	-0.0057182894
35	0xbd8dad67	-0.069178395
36	0xbca68fd5	-0.020332256
37	0x3dbc6b39	0.092001386
38	0x3cd93dc0	0.026518703
39	0xbda7e6d5	-0.081983246
40	0xbdab906b	-0.08377155
41	0x3dd243f6	0.10266869
42	0x3dcb42d9	0.099248596
43	0x3dd0c372	0.10193528
44	0xbca47d78	-0.02007936
45	0xba873ac6	-0.0010317198
46	0x3da0c8de	0.078508124
47	0x3e42c824	0.1902166
48	0x3e032231	0.12806012
49	0xbd118035	-0.03552266
50	0xbdac6b95	-0.08418957
51	0xbd3d6547	-0.046239164
52	0xbe0f2b18	-0.13981283
53	0xbc19a020	-0.009376556
54	0xbdcb4237	-0.09924739
55	0xbd8eaac2	-0.06966163
56	0xbe3ceb70	-0.18449187
57	0xbdedab81	-0.116049774
58	0xbb9efcfe	-0.0048519364
59	0x3e6109eb	0.2197644
60	0xbdedf1b6	-0.11618368
61	0x3ad761ff	0.0016432403
62	0x3e1d03f1	0.15333535
63	0x3e1ed0cf	0.15509342
64	0x3d898e43	0.067165874
65	0xbbdaec59	-0.006681007
66	0xbe049f85	-0.12951477
67	0x3e2c704b	0.16839711
68	0x3e10a4b8	0.14125335
69	0xbdf949d3	-0.12172284
70	0x3e2e0ca7	0.16997014
71	0x3dbe8f09	0.093046255
72	0x3dd25353	0.10269799
73	0x3e274528	0.16334975
74	0x3e1291dd	0.14313455
75	0xbe2e5cc4	-0.17027575
76	0xbd853e5d	-0.065060355
77	0xbe1e5975	-0.15463813
78	0x3e2ef9eb	0.17087524
79	0xbdc7fc20	-0.09764886
80	0x3db0a768	0.0862568
81	0x3cc45a7b	0.023968926
82	0x3d80447e	0.06263064
83	0xbcd88ab3	-0.026433324
84	0xbdea71f3	-0.11447515
85	0xbddc0bc1	-0.107444294
86	0xbd7a5a70	-0.061121404
87	0x3e182c6b	0.14860694
88	0xbd874a54	-0.06605974
89	0xbdbbc7ab	-0.09168943
90	0x3d5ff154	0.054673508
91	0x3e22d906	0.159031
92	0xbe29f19b	-0.16596071
93	0xbe410409	-0.18849196
94	0x3dcfb529	0.101419754
95	0xbd862935	-0.06550828
96	0x3ddb061b	0.10694524
97	0xbdfda9b1	-0.12385882
98	0x3e02868f	0.12746643
99	0xbe14029a	-0.14454117
100	0x3e7a3eca	0.24438015
101	0x3dcbbb38	0.099478185
102	0x3e68d48e	0.22737333
103	0xbe001ddd	-0.12511392
104	0x3e4daef9	0.20086278
105	0x3d442a01	0.04789162
106	0x3e06153a	0.13094035
107	0xbd3c8ed2	-0.04603464
108	0x3e6630b2	0.22479513
109	0xbcf1a342	-0.029496793
110	0xbdb9c2d6	-0.09070365
111	0x3e0fb48d	0.14033718
112	0x3c05e644	0.008172575
113	0x3ddbe59c	0.10737154
114	0x3c7f997a	0.0156005565
115	0xbe607d82	-0.21922877
116	0xbe32a6ec	-0.17446488
117	0xbd8afc5e	-0.067864165
118	0x3d506e12	0.05088622
119	0xbd8a34ca	-0.0674835
120	0xbc3e2966	-0.01160655
121	0x3e47a754	0.19497424
122	0xbdc055e6	-0.09391384
123	0x3e690732	0.22756651
124	0xbe110907	-0.141636
125	0x3de03449	0.109474726
126	0x3db75053	0.089508675
127	0x3d092297	0.033480253
128	0x3d87c1f4	0.066287905
129	0x3e719fda	0.23596135
130	0x3d98a9c0	0.07454252
131	0xbde4a39c	-0.111640185
132	0xbd1d5795	-0.038413603
133	0xbc89fd70	-0.016844481
134	0x3dbb8f0c	0.091581434
135	0x3d6dd52b	0.05806462
136	0xbcf7b6c3	-0.030238515
137	0x3e055e63	0.13024287
138	0xbd1158b7	-0.035484996
139	0x3d66b65f	0.056326266
140	0x3e38bc3f	0.1804056
141	0x3c7eefc8	0.015560098
142	0x3e487035	0.19574054
143	0x3d620cbe	0.055187933
144	0xbd5c7238	-0.053819865
145	0x3dec3073	0.115326785
146	0xbc31ba7e	-0.010847686
147	0x3d9457d7	0.072433166
148	0x3dba1a1f	0.090870135
149	0xbdd10ec7	-0.10207897
150	0xbdc210b9	-0.09475846
151	0x3e31f15a	0.17377225
152	0xbdf66712	-0.12031378
153	0xbe201d7e	-0.1563625
154	0x3da80c9d	0.08205531
155	0x3d9253d7	0.071448974
156	0xbce6f112	-0.028191123
157	0xbc0f003f	-0.008728086
158	0xbcde3af3	-0.027127719
159	0xbd8dfa92	-0.06932558
160	0xbda7a005	-0.08184818
161	0xbe3203dc	-0.17384285
162	0x3e496ba0	0.19669962
163	0xbdf8e331	-0.12152708
164	0xbd27a6db	-0.04093061
165	0xbd7ab934	-0.06121178
166	0x3c86341b	0.016382268
167	0xbdb72b43	-0.089437984
168	0x3e296345	0.16541775
169	0xbe003dd8	-0.12523592
170	0xbe4e53eb	-0.201492
171	0xbdb6c418	-0.08924121
172	0x3c0ab19c	0.008465197
173	0xbe3ec91f	-0.18631409
174	0x3d9bbcf9	0.07604403
175	0x3d5d0164	0.053956404
176	0xbd01a445	-0.0316508
177	0x3e1c5bfb	0.15269463
178	0x3df8afbc	0.12142894
179	0xbde9d78e	-0.11418067
180	0xbdf7e19e	-0.1210358
181	0x3e063bdd	0.13108774
182	0x3c1f2710	0.009713903
183	0xbdc66c6c	-0.096886486
184	0xbde61050	-0.1123358
185	0xbd5e96cd	-0.054343034
186	0x3dba8719	0.09107799
187	0xbda8ff6d	-0.082518436
188	0xbbbc89ad	-0.005753717
189	0xbc2234ab	-0.009900252
190	0x3df3fc4f	0.119133584
191	0xbe3e19fa	-0.18564597
192	0x3e0c7dde	0.1371989
193	0xbd6933f4	-0.056934312
194	0x3d84aed5	0.06478659
195	0x3b830f82	0.0039996514
196	0x3dd168c4	0.102250606
197	0xbe18d147	-0.14923583
198	0x3d2e20b6	0.042511664
199	0xbde70f86	-0.11282258
200	0x3e1da2ef	0.15394185
201	0xbde5fc03	-0.11229708
202	0x3de861a0	0.113467455
203	0xbe30f907	-0.17282496
204	0x3d422e79	0.0474076
205	0x3d23c130	0.03997916
206	0x3e0b0883	0.13577466
207	0x3e03815c	0.12842315
208	0x3dd1b4cb	0.10239562
209	0x3b513846	0.003192441
210	0xbd6d8f7b	-0.05799816
211	0xbdd0d878	-0.10197538
212	0x3d689c83	0.056789886
213	0x3e0b2b84	0.13590819
214	0x3e3a64f5	0.18202575
215	0xbca340b3	-0.019928312
216	0x3c0d9c50	0.008643225
217	0x3bc02f47	0.005865011
218	0xbc716c77	-0.014735333
219	0x3ddde2c5	0.108342685
220	0xbd05ceb5	-0.032667834
221	0xbd3e4bc2	-0.046458967
222	0x3c7ddaeb	0.015494089
223	0xbe12a445	-0.14320476
224	0x3d841fd9	0.06451387
225	0xbc8abff5	-0.016937235
226	0x3e603d0e	0.2189829
227	0x3e6fa3fd	0.234024
228	0xbdd27207	-0.10275655
229	0xbdb71ef9	-0.089414544
230	0x3e4532a3	0.19257598
231	0xbdcfaff7	-0.101409845
232	0x3ca2b78f	0.019862918
233	0x3e5bb082	0.21454051
234	0x3c182514	0.009286184
235	0xbe465476	-0.19368157
236	0x3e69a684	0.22817427
237	0xbdfa488a	-0.12220867
238	0xbb023dbe	-0.0019873227
239	0x3e34cea3	0.1765695
240	0xbdb97ddd	-0.0905721
241	0x3e2b6093	0.16736059
242	0xbe7bb8bd	-0.24582191
243	0xbe64bd7d	-0.22337909
244	0x3d07d427	0.03316131
245	0x3e1a3d2e	0.150624
246	0x3e064445	0.1311198
247	0x3e44a0eb	0.1920201
248	0xbcd4c24b	-0.025971552
249	0x3a498bcd	0.00076883734
250	0xbe315361	-0.17316963
251	0x3d154802	0.036445625
252	0xbe04ec1a	-0.1298069
253	0xbd85eb59	-0.0653903
254	0x3d6e2ce2	0.058148272
255	0x3cc443ec	0.023958169

encoder.bias_ih_l0 f4 [128]
0	0x3db83a78	0.08995527
1	0x3e5b6272	0.21424273
2	0xbdc79005	-0.097442664
3	0x3e0b273f	0.1358919
4	0x3dc7a69d	0.09748576
5	0xbdb4672a	-0.088087395
6	0x3e040436	0.12892231
7	0x3d89bbe6	0.06725292
8	0x3dbbdbd4	0.09172788
9	0x3e0c96b7	0.13729368
10	0x3dcc8179	0.099856324
11	0x3d97417c	0.07385537
12	0xbd4b4fd8	-0.04963669
13	0x3de5053d	0.1118264
14	0x3e304767	0.17214738
15	0xbdbda2e9	-0.09259588
16	0xbd4d6a09	-0.05014995
17	0xbcd0fa37	-0.025509937
18	0x3e24a0ca	0.16076961
19	0xbd6c441a	-0.057682134
20	0x3e2f5ecd	0.17126007
21	0x3daead2e	0.08529125
22	0x3c0edacc	0.008719157
23	0x3e1bcfcc	0.15215987
24	0xbd6b268e	-0.057409815
25	0xbdee97fc	-0.116500825
26	0xbd53acb5	-0.051678378
27	0x3da1f32d	0.0790771
28	0x3def780f	0.11692821
29	0xbd869d51	-0.065729745
30	0x3db16b6d	0.08663068
31	0x3dda3a72	0.10655679
32	0xbdb2f651	-0.087383874
33	0xbcd46d0d	-0.025930906
34	0xbe0821df	-0.13294171
35	0xbde007d3	-0.10938992
36	0xbe2ef0a8	-0.1708399
37	0xbd44f979	-0.04808948
38	0xbe1bc44f	-0.15211605
39	0xbcf76b33	-0.030202484
40	0xbca7c7fa	-0.020481098
41	0xbe4b149a	-0.19832078
42	0xbe09bc33	-0.13450699
43	0x3e001db0	0.12511325
44	0xbddd59d3	-0.10808148
45	0xbd62a9db	-0.055337768
46	0x3e05a36e	0.13050625
47	0xbdffa569	-0.12482721
48	0x3e05368d	0.1300909
49	0x3e0c7100	0.13714981
50	0x3ceea94d	0.029133463
51	0xbde2b2cf	-0.11069261
52	0xbb4e5bf1	-0.0031487907
53	0xbc899cf8	-0.016798481
54	0xbd2ff67e	-0.042959683
55	0xbdc5d1bc	-0.09659144
56	0xbb29b76d	-0.0025896684
57	0xbd143345	-0.036181707
58	0x3d4c7590	0.049916804
59	0xbe189ada	-0.14902821
60	0x3e0cd30f	0.13752387
61	0xbdf93e46	-0.12170081
62	0xbafeee68	-0.0019449713
63	0x3dea245b	0.114327155
64	0xbc40ae62	-0.011760326
65	0xbd74e241	-0.059786085
66	0x3de12d2f	0.10994946
67	0x3e10a9ce	0.14127275
68	0xbe2ce9a9	-0.1688601
69	0xbe33a0c5	-0.17541797
70	0xbda9bf32	-0.08288421
71	0xbe4d7928	-0.20065749
72	0x3e2e581e	0.17025802
73	0xbd3c8f11	-0.046034876
74	0xbe0474cc	-0.1293518
75	0x3e1bbff7	0.15209948
76	0xbbd7908d	-0.006578511
77	0xbe41abbe	-0.1891317
78	0x3e307b7a	0.17234603
79	0x3dc63110	0.09677327
80	0x3be58851	0.0070047756
81	0x3e3a3aa7	0.18186437
82	0xbd8a8ded	-0.067653514
83	0x3dc08ab8	0.094014585
84	0xbdd145ff	-0.10218429
85	0xbe25246a	-0.16127172
86	0x3e0a7789	0.13522162
87	0x3e40b301	0.18818285
88	0xbdd62e1e	-0.10458015
89	0xbe0d0e5d	-0.1377501
90	0x3e018c66	0.12651214
91	0xbd77360c	-0.060354277
92	0xbe11df18	-0.1424526
93	0x3cb5f042	0.02220929
94	0x3de6ba35	0.11265985
95	0xbd846dda	-0.06466265
96	0x3dd69472	0.104775324
97	0x3e8840d0	0.26611948
98	0x3e413dd1	0.18871237
99	0x3b8d8dd4	0.0043198857
100	0x3a73a248	0.0009293896
101	0x3e3cd821	0.18441822
102	0xbc111212	-0.008854406
103	0x3db47112	0.08810629
104	0x3d768565	0.06018581
105	0x3e11cc8a	0.14238182
106	0xbb41f6bf	-0.0029596535
107	0xbc24bfff	-0.010055541
108	0xbdd6d9ef	-0.10490786
109	0xbddc1aa7	-0.10747271
110	0x3ddcb827	0.10777312
111	0x3e091e15	0.13390382
112	0x3e390ab2	0.18070486
113	0xbde9467b	-0.11390396
114	0xbc8faf39	-0.017539607
115	0x3e093788	0.1340009
116	0x3e43bf20	0.19115877
117	0xbd738cd0	-0.05946046
118	0x3daa7a24	0.08324078
119	0x3e3f9c9e	0.18712088
120	0x3cf3f218	0.029778525
121	0x3dad27c0	0.08454847
122	0xbd3bd78a	-0.04585985
123	0x3de66571	0.11249817
124	0xbdc27a52	-0.09495987
125	0x3df1365a	0.11777945
126	0xbe063ab6	-0.13108334
127	0x3d97f478	0.074196756

encoder.bias_hh_l0 f4 [128]
0	0xbccf433f	-0.02530062
1	0x3e4c450e	0.19948217
2	0xbd8b3f74	-0.06799212
3	0x3e14ec3e	0.14543244
4	0xbd950380	-0.07276058
5	0x3e297ec4	0.16552263
6	0x3e2c41d2	0.16821983
7	0xbcdbba55	-0.026822248
8	0x3d7d1e5b	0.061796527
9	0xbdeaf5c9	-0.11472661
10	0xbd858649	-0.065197535
11	0xbde17468	-0.11008531
12	0x3d264a05	0.040597934
13	0x3d74c41c	0.059757337
14	0xbdbaaca8	-0.09114963
15	0x3e55167d	0.2080936
16	0x3da7d1cc	0.081943125
17	0x3db6d7eb	0.08927902
18	0xbd020f1e	-0.031752698
19	0x3bdac40d	0.006676203
20	0x3e80a164	0.2512313
21	0x3be7490d	0.007058269
22	0x3e1b3064	0.15155178
23	0xbd6cf971	-0.057855073
24	0xbe03bb38	-0.12864387
25	0xbdd288de	-0.102800116
26	0x3e48bb2c	0.1960265
27	0x3d97f72d	0.07420192
28	0x3e0f33c4	0.13984591
29	0xbda127c6	-0.07868914
30	0xbdf323c2	-0.11872055
31	0x3e4cffa6	0.20019397
32	0xbd9820ee	-0.07428156
33	0xbd088237	-0.033327308
34	0x3d8237b0	0.06358278
35	0x3daf59de	0.08562063
36	0xbb629f22	-0.0034579714
37	0xbd28a9ae	-0.041177444
38	0x3d48566f	0.048910554
39	0x3d42bb26	0.04754176
40	0x3d7208ce	0.059090428
41	0x3db7caf3	0.08974256
42	0x3e450fba	0.1924428
43	0xbe227737	-0.1586579
44	0xbdb5d05d	-0.08877633
45	0xbd294ba5	-0.041331906
46	0x3d297ccc	0.04137878
47	0xbda2d541	-0.07950831
48	0xbe04d561	-0.12972023
49	0xbda581c5	-0.08081392
50	0x3db402b8	0.08789581
51	0x3dfa1b81	0.12212277
52	0xbd9c8de3	-0.0764425
53	0x3dacb77f	0.084334366
54	0x3dc62e3a	0.09676786
55	0x3d963282	0.07333852
56	0x3e1e381d	0.15451093
57	0xbdea2e26	-0.11434583
58	0xbd2b457a	-0.041814305
59	0x3e2951a5	0.16535051
60	0xbd931644	-0.07181981
61	0xbc8d27b0	-0.017230839
62	0xbe18bea5	-0.14916475
63	0x3db2b9d5	0.08726851
64	0x3d8a0d02	0.06740762
65	0x3e29cc29	0.16581787
66	0xbd8c3f03	-0.06847956
67	0x3e21240c	0.15736407
68	0x3d9472fc	0.07248494
69	0xbc8845c8	-0.016634837
70	0x3d15aa07	0.036539104
71	0xbe2773be	-0.16352746
72	0xbdb3c6bd	-0.08778141
73	0x3d2302a0	0.039797425
74	0xbd8e2ba1	-0.06941915
75	0xbde83b94	-0.113394886
76	0x3d864b41	0.06557322
77	0xbd0b8535	-0.034062583
78	0x3e152b71	0.14567353
79	0xbde84cc1	-0.11342765
80	0xbd83699f	-0.0641663
81	0x3e1e79b1	0.15476109
82	0x3d50418d	0.050843764
83	0xbdbb1fe1	-0.0913694
84	0x3db8a35c	0.09015533
85	0x3d932da5	0.071864404
86	0x3dadd661	0.08488155
87	0x3e1cbcd6	0.1530641
88	0xbdf4c748	-0.119520724
89	0x3de14101	0.10998727
90	0x3db87f72	0.09008683
91	0x3d01ab2b	0.03165738
92	0x3dcc2e92	0.0996982
93	0xbdfc3ad1	-0.12315906
94	0x3c3944eb	0.011307935
95	0xbe07f825	-0.13278253
96	0x3dae418b	0.08508595
97	0x3e3bbafe	0.1833305
98	0xbce995bf	-0.028513787
99	0xbaacbd79	-0.0013179026
100	0xbce6edad	-0.028189505
101	0xbc99bcd2	-0.018766794
102	0x3e692fe5	0.22772177
103	0xbc4d2e51	-0.01252325
104	0xbd8ca1c3	-0.06866791
105	0x3e2169b2	0.15762976
106	0xbd917061	-0.07101513
107	0x3e3e8112	0.18603924
108	0xbc718bfe	-0.014742849
109	0x3e208897	0.15677105
110	0x3e2867b3	0.16445808
111	0xbcc380fc	-0.023865215
112	0xbd6849a7	-0.056710865
113	0xbdafd1e7	-0.085849576
114	0xbc245ca8	-0.010031857
115	0xbc365d10	-0.011130586
116	0x3e02db06	0.12778863
117	0x3e0a10de	0.13482997
118	0x3cc05079	0.023475872
119	0x3e36c380	0.17848015
120	0xbd51e0b2	-0.051239677
121	0x3e1b21ae	0.15149567
122	0x3e146728	0.14492476
123	0xbdb6b34d	-0.08920918
124	0xbe0dbcaf	-0.13841508
125	0xbd6ed7da	-0.05831132
126	0xbcc2f0bd	-0.023796434
127	0x3e1c158e	0.15242597

attn.weight f4 [540, 40]
0	0x3e04c430	0.12965465
1	0x3dfa1c02	0.12212373
2	0x3dc7c090	0.09753525
3	0x3dedd208	0.11612326
4	0xbd62869f	-0.055304166
5	0xbdd65d46	-0.10467009
6	0xbcab0df5	-0.020880679
7	0xbde08c80	-0.10964298
8	0xbca53031	-0.020164581
9	0xbdf1a5f5	-0.11799232
10	0xbc8afbca	-0.016965766
11	0x3c8c9465	0.017160604
12	0xbda99347	-0.08280044
13	0xba24f672	-0.0006292827
14	0xbd83ba6f	-0.06432044
15	0x3da337ef	0.07969653
16	0x3d9a7164	0.07541159
17	0x3e12bb8f	0.1432936
18	0x3db204d6	0.08692329
19	0x3e123fd9	0.14282168
20	0xbc54c388	-0.012986071
21	0x3e0868c3	0.13321213
22	0xbd6cbccb	-0.057797235
23	0xbded64ba	-0.11591478
24	0xbd09c3bb	-0.03363393
25	0x3e2d9704	0.16952139
26	0x3ccc6f2a	0.02495535
27	0x3e1bd38e	0.1521742
28	0xbdaf34c1	-0.08554984
29	0x3da25300	0.07925987
30	0x3d83fed8	0.06445092
31	0x3b4ba15e	0.0031071524
32	0x3d653461	0.055958156
33	0x3e1cdffc	0.15319818
34	0x3d6fa1f1	0.05850405
35	0x3dfa8546	0.12232451
36	0x3e47bd22	0.19505742
37	0x3dc148ba	0.094376996
38	0x3df096ee	0.117475376
39	0xbd6017c6	-0.054710172
40	0xbca906d0	-0.020633131
41	0xbdd7ffc7	-0.105468325
42	0x3c9c0dc6	0.019049536
43	0xbd9bb6c5	-0.0760322
44	0x3c80a31a	0.015702773
45	0xbc782283	-0.015144947
46	0xbdc57858	-0.096420944
47	0x3d9cc35f	0.076544516
48	0xbe258536	-0.16164097
49	0x3dbedc26	0.09319334
50	0x3e428a71	0.18998124
51	0x3cf42f23	0.029807633
52	0xbe9901e9	-0.2988427
53	0x3da739eb	0.08165344
54	0xbe1f8535	-0.15578158
55	0xbe17b33d	-0.14814468
56	0xbd89bc7f	-0.06725406
57	0xbe373778	-0.17892253
58	0xbd9dee5e	-0.077114806
59	0x3d64002c	0.055664226
60	0xbc855f2c	-0.016280733
61	0xbdef642f	-0.116890304
62	0x3c3cc086	0.011520511
63	0x3bc69df7	0.0060613113
64	0xbcb33b19	-0.021878766
65	0x3d147139	0.03624079
66	0xbe096d04	-0.13420492
67	0x3cc421ce	0.0239419
68	0x3c6d9bda	0.01450249
69	0x3dd668b6	0.10469191
70	0xbdb93977	-0.09044164
71	0xbd137393	-0.035998892
72	0xbe126d65	-0.14299543
73	0x3cdc63fc	0.026903145
74	0xbd8b7fe0	-0.068114996
75	0x3c4fd4f4	0.012685049
76	0xbdbb5619	-0.09147281
77	0xbd140a95	-0.036142904
78	0xbda9451d	-0.082651354
79	0x3dc0c9a7	0.09413462
80	0xbe2e35ec	-0.17012757
81	0xbe482238	-0.19544303
82	0x3dde24ef	0.10846888
83	0x3da79941	0.08183528
84	0x3ccf5e79	0.025313603
85	0xbe0b896e	-0.13626644
86	0x3d48f265	0.04905929
87	0x3de87e0e	0.11352168
88	0x3dd0fc88	0.102044165
89	0xbce13616	-0.02749161
90	0x3d020cc0	0.03175044
91	0x3d76e161	0.06027353
92	0xbe50d029	-0.20391907
93	0x3c7c11d5	0.015385111
94	0xbe91f544	-0.28507435
95	0xbda223bd	-0.07916973
96	0x3d9353c2	0.0719371
97	0xbd9db627	-0.077007584
98	0xbd196524	-0.03744997
99	0x3e29828b	0.16553704
100	0xbe038b32	-0.12846068
101	0xbd3e6fa5	-0.04649319
102	0x3e5a5d05	0.21324547
103	0x3c57622a	0.013145963
104	0x3e0d32c0	0.13788891
105	0xbbaabde6	-0.005210626
106	0xbde0f4fc	-0.10984227
107	0x3e245e78	0.16051662
108	0xbd800a6c	-0.06251988
109	0x3e143897	0.14474712
110	0xbdc8655f	-0.0978496
111	0xbdb21c8f	-0.08696853
112	0xbe3dce91	-0.1853583
113	0x3e23cb02	0.1599541
114	0xbda04619	-0.0782587
115	0xbd2929a1	-0.041299466
116	0x3e5584df	0.20851468
117	0xbca22529	-0.01979311
118	0xbe0cea31	-0.13761212
119	0x3ab60425	0.0013886733
120	0xbdc94442	-0.09827472
121	0x3e019a5d	0.12656541
122	0xbcee1565	-0.029062936
123	0x3dc2712a	0.094942406
124	0x3e4715c8	0.19441903
125	0x3e112ef4	0.14178067
126	0x3d1ea51f	0.03873169
127	0x3e1e35f8	0.15450275
128	0x3c5bda17	0.013418696
129	0x3d14bee8	0.036314875
130	0xbd3d0462	-0.046146758
131	0x3de5f65d	0.11228631
132	0x3caca78f	0.021075992
133	0xbd8b54d2	-0.068032876
134	0x3d6730ff	0.05644321
135	0x3cc81cb6	0.024427753
136	0x3e0d6697	0.13808666
137	0x3d8f0293	0.06982913
138	0x3dc5b9fd	0.09654615
139	0x3dc272b5	0.09494535
140	0xbb414c7c	-0.002949505
141	0xbe02397c	-0.12717241
142	0xbe040567	-0.12892686
143	0xbd0fe5e4	-0.03513135
144	0xbc5b81d9	-0.013397657
145	0xbd95f286	-0.07321648
146	0x3d5f9d55	0.054593403
147	0xbda1ac2f	-0.078941695
148	0x3c8f240d	0.017473245
149	0x3e2617fc	0.16220087
150	0xbdf7174c	-0.120649904
151	0xbde10323	-0.109869264
152	0x3d91e546	0.071238086
153	0x3bbc0f02	0.0057390938
154	0xbd84f74c	-0.06492481
155	0xbce69ef2	-0.028151963
156	0xbd85499e	-0.06508182
157	0x3dc8abad	0.097983696
158	0xbd9f205a	-0.077698424
159	0x3c8b16c7	0.016978635
160	0x3e348447	0.17628585
161	0x3dbcc3bf	0.09217023
162	0xbdbb2c20	-0.091392756
163	0x3e279a47	0.16367446
164	0x3dc2dc2c	0.09514651
165	0xbddf0930	-0.10890424
166	0x3e50acf2	0.20378473
167	0x3d9bf39e	0.07614826
168	0x3dba2535	0.09089128
169	0xbd663cd4	-0.056210354
170	0x3d5c985c	0.05385624
171	0x3e0210f4	0.1270178
172	0xbe2fc6ca	-0.17165676
173	0xbc54aa51	-0.01298006
174	0xbe5d3d77	-0.21605478
175	0xbd4a51b2	-0.049394317
176	0x3d05b63d	0.0326445
177	0xbdcdc177	-0.10046666
178	0xbd85dc66	-0.06536178
179	0xbe1ace80	-0.15117836
180	0x3d3750ce	0.044754796
181	0x3d7414bd	0.05959009
182	0xbe1d4800	-0.15359497
183	0xbdbfa53e	-0.09357689
184	0x3d1a530e	0.037676863
185	0xbc558968	-0.0130332485
186	0x3dfda573	0.123850726
187	0xbd44c33b	-0.04803775
188	0xbd9ed4e4	-0.077554494
189	0x3dcdf93e	0.10057305
190	0x3d829bb0	0.06377351
191	0x3ce0f817	0.027462048
192	0xbcbe6d0f	-0.023245363
193	0xbde0b0c1	-0.10971213
194	0x3c4a5187	0.012348539
195	0x3d60d21f	0.054887887
196	0x3dafeaf7	0.08589738
197	0xbe36e620	-0.17861223
198	0xbe0d3e14	-0.13793212
199	0xbd3ec336	-0.046572886
200	0x3de0fecd	0.109860994
201	0x3dab2231	0.08356131
202	0x3e2c1c38	0.1680764
203	0x3dc5fc45	0.09667257
204	0x3e41ac0f	0.18913291
205	0xbdd0b88f	-0.10191452
206	0xbc117371	-0.008877621
207	0x3d05f6d7	0.032706108
208	0xbd8c2c8d	-0.06844435
209	0x3e20c7e2	0.15701249
210	0xbd4a386b	-0.04937021
211	0xbda2f568	-0.07956964
212	0xbe419165	-0.1890312
213	0x3d0c29a3	0.034219395
214	0xbc3c9247	-0.011509485
215	0x3da1cc99	0.07900352
216	0x3c8af0fc	0.016960613
217	0x3e2bbdb5	0.16771586
218	0x3db9d3f8	0.09073633
219	0xbe20c6c8	-0.15700829
220	0xbd0ca8dc	-0.034340724
221	0x3d10e772	0.035376973
222	0x3d3c34a6	0.045948647
223	0xbc8191ed	-0.015816653
224	0xbcf83a30	-0.030301183
225	0xbde85896	-0.113450214
226	0x3db6e9e1	0.089313276
227	0x3d8e2c63	0.0694206
228	0xbd770ae7	-0.06031313
229	0x3d39fc42	0.045406587
230	0xbdc27d95	-0.09496609
231	0xbdc5079d	-0.09620593
232	0x3e0028c9	0.12515558
233	0x3ca61999	0.020275878
234	0x3e10e666	0.1415039
235	0x3dcb4e97	0.09927099
236	0x3e005443	0.12532143
237	0x3dea6eaf	0.114468925
238	0xbd8d840d	-0.06909952
239	0x3d716c09	0.05894092
240	0x3dc3d1d9	0.0956151
241	0x3dd1a432	0.10236396
242	0x3e3c3630	0.18380046
243	0x3c854b9c	0.016271405
244	0x3cb09b1d	0.021558339
245	0xbd39b8dc	-0.04534231
246	0xbde8bbd9	-0.11363954
247	0x3d56c595	0.052434523
248	0x3d04bb4c	0.032405183
249	0x3df16b2b	0.11788019
250	0x3d2b9e5c	0.04189907
251	0xbda35df7	-0.07976907
252	0xbe40578e	-0.187834
253	0x3b9e321f	0.0048277522
254	0x3c354998	0.011064909
255	0xbd1fd414	-0.039020613

attn.bias f4 [540]
0	0x3e8008d6	0.2500674
1	0x3e77e44a	0.24208179
2	0x3e382aac	0.17985028
3	0x3e8418a7	0.25800058
4	0x3d5dccad	0.054150272
5	0x3d9d20b1	0.07672251
6	0xbd8db706	-0.069196746
7	0x3e3d238b	0.1847059
8	0x3cc89bcd	0.024488354
9	0x3e22c62e	0.15895912
10	0x3e182293	0.14856939
11	0x3d816884	0.06318763
12	0x3e0dfe9f	0.13866661
13	0x3e970189	0.2949336
14	0x3dc47a9c	0.095936984
15	0xbc0898d9	-0.008337223
16	0x3e442f1a	0.19158593
17	0xbd878d04	-0.066186935
18	0x3e00d348	0.12580597
19	0x3c66e22a	0.014092008
20	0xbe085d2f	-0.13316797
21	0x3d443e48	0.04791096
22	0x3e27e26d	0.16394968
23	0xbdc2d955	-0.09514109
24	0x3db208e5	0.08693103
25	0x3dee96e6	0.11649875
26	0xbc8e77f4	-0.017391182
27	0x3e1eb9f8	0.15500629
28	0xbdaefdfe	-0.08544539
29	0xbda1aa6c	-0.078938335
30	0x3dba29ed	0.09090028
31	0x3dc1820d	0.09448633
32	0xbd36f71b	-0.044669252
33	0x3e0333b1	0.12812687
34	0x3de16790	0.11006081
35	0x3d981cae	0.07427345
36	0xbda19ff2	-0.07891835
37	0x3db76571	0.08954895
38	0x3e179a77	0.14805017
39	0x3e20f9ac	0.15720242
40	0x3dc1c324	0.09461048
41	0x3e05e33c	0.13074964
42	0xbd992657	-0.07478016
43	0xbdbce410	-0.09223187
44	0xbd885771	-0.06657303
45	0xbd368c7b	-0.044567566
46	0x3c8b894a	0.017033238
47	0x3d0476c1	0.032339815
48	0xbc67ae13	-0.014140624
49	0xbc3d6ae9	-0.011561134
50	0x3e33e935	0.1756943
51	0x3e1eced6	0.15508589
52	0x3b39eb7b	0.0028369117
53	0x3e158861	0.14602806
54	0x3c0b03be	0.008484779
55	0x3cd4f037	0.02599345
56	0x3c5a5e36	0.013328126
57	0x3d94b1c1	0.07260466
58	0x3d9448ba	0.07240434
59	0x3d73a0fe	0.059479706
60	0x3e0a5484	0.13508803
61	0x3e691aeb	0.22764175
62	0x3d1806cd	0.03711586
63	0x3e3580b5	0.17724879
64	0xbd4945b7	-0.04913875
65	0x3df8ec08	0.121543944
66	0x3e1d934b	0.15388219
67	0x3e30b9f0	0.1725843
68	0x3e01412d	0.12622519
69	0x3e41378d	0.18868847
70	0xbc7546d5	-0.014970501
71	0x3dc4f373	0.09616747
72	0xbddedff7	-0.10882562
73	0xbd6e243f	-0.058140036
74	0xbda9cb43	-0.08290722
75	0xbd88a259	-0.0667159
76	0xbdcf00bb	-0.10107561
77	0x3d2e7749	0.042594228
78	0xbdf3523b	-0.118809186
79	0xbc8f48ee	-0.01749083
80	0xbe049ddc	-0.12950844
81	0x3dd1a270	0.102360606
82	0x3e2e134e	0.16999552
83	0x3c035b8a	0.00801743
84	0xbc5eba33	-0.013594198
85	0xbe1051ba	-0.14093676
86	0xbe1908bf	-0.14944743
87	0x3d8893db	0.06668826
88	0x3e23217a	0.15930739
89	0xbe633030	-0.22186351
90	0xbdbcf035	-0.09225503
91	0xbe08b4fb	-0.13350289
92	0xbc04b062	-0.008098694
93	0x3e196aa3	0.14982085
94	0xbdc057cb	-0.09391745
95	0x3e3cca55	0.18436559
96	0x3e19a6f9	0.15005101
97	0xbc9e1e03	-0.01930142
98	0x3aef9a4d	0.0018280238
99	0x3d7702a7	0.060305264
100	0xbc36b9b1	-0.011152671
101	0xbd98927d	-0.074498154
102	0x3d95d248	0.073154986
103	0x3e2e964b	0.1704952
104	0x3e2cbdb6	0.16869244
105	0xbd1f46a2	-0.03888572
106	0x3e3a3c9f	0.18187188
107	0x3e4ed687	0.20199023
108	0x3ce95004	0.028480537
109	0x3df2778b	0.11839207
110	0xbba70532	-0.005097055
111	0xbb573cc4	-0.0032842616
112	0x3e12fdbb	0.14354603
113	0xbdd7c070	-0.105347514
114	0x3e045473	0.1292284
115	0x3e0c1871	0.13681199
116	0x3debfb64	0.11522558
117	0x3cc0ea02	0.023549084
118	0x3de6e2b9	0.11273713
119	0x3d2907a2	0.041267045
120	0xbd671a68	-0.056421667
121	0x3d728b2c	0.059214756
122	0xbe1ccb45	-0.15311916
123	0xbd3c5e62	-0.045988448
124	0xbd407f31	-0.0469963
125	0xbe8face9	-0.28061607
126	0xbd8f71d3	-0.07004132
127	0xbe4075ff	-0.18795012
128	0xbde47fac	-0.11157164
129	0xbe8c4d99	-0.27402952
130	0xbe9957bb	-0.29949746
131	0xbe37b071	-0.17938401
132	0xbd8ce331	-0.06879271
133	0x3d585afd	0.05282115
134	0x3d9bf8a9	0.076157875
135	0xbe888294	-0.26662123
136	0xbe1ffdde	-0.15624186
137	0x3c4e9e84	0.012611035
138	0x3df12261	0.117741354
139	0xbdde4988	-0.10853869
140	0xbd40e3f6	-0.0470924
141	0xbe31418e	-0.17310163
142	0xbe79f391	-0.2440932
143	0xbd1ff46d	-0.039051462
144	0xbe50c54d	-0.20387764
145	0xbdd31fe4	-0.10308817
146	0xbcaa9598	-0.020823285
147	0xbba9b954	-0.0051795635
148	0x3d7fbd72	0.06243653
149	0xbd514bef	-0.051097807
150	0x3dda8f16	0.10671823
151	0xbdbb791d	-0.0915396
152	0xbb9f2607	-0.004856828
153	0x3e00643f	0.12538241
154	0x3dcf225e	0.10113977
155	0xbdbd7cf8	-0.092523515
156	0xbd15d875	-0.036583383
157	0x3e1240c4	0.14282519
158	0x3da83437	0.08213084
159	0xbdefa635	-0.11701623
160	0xbd461e1b	-0.048368555
161	0x3da31a85	0.079640426
162	0xbc41b2f4	-0.011822451
163	0xbe4e00f6	-0.20117554
164	0xbe1893f0	-0.14900184
165	0x3b9bb8ec	0.004752269
166	0xbd340f6f	-0.04396003
167	0xbbfc0a39	-0.0076916483
168	0x3e138080	0.14404488
169	0xbdc48117	-0.095949344
170	0xbc92d2de	-0.017922815
171	0xbe69896f	-0.22806333
172	0xbe29784f	-0.165498
173	0xbd40487c	-0.046944126
174	0x3d13d93b	0.03609584
175	0x3ce1c1ee	0.027558293
176	0x3da271cf	0.079318635
177	0xbe2b96b9	-0.16756715
178	0x3d099eee	0.033598833
179	0xbd950b34	-0.072775275
180	0x3c7dd043	0.015491548
181	0xbd8ccdcf	-0.068751924
182	0xbda4bf06	-0.08044247
183	0x3d16ec7d	0.036846627
184	0xbd8c4fc5	-0.06851152
185	0xbd81613c	-0.06317374
186	0xbe0a7ad4	-0.13523418
187	0xbcc3e52a	-0.023912985
188	0xbd0b5947	-0.03402069
189	0xbe339c2a	-0.1754004
190	0xbc118ed5	-0.0088841515
191	0xbe033e94	-0.1281684
192	0xbe163c01	-0.14671327
193	0x3d6adb23	0.05733789
194	0xbdeee43c	-0.11664626
195	0x3c9d8b3c	0.019231431
196	0x3e403b0a	0.18772522
197	0xbe68a641	-0.22719671
198	0x3d8a10db	0.06741496
199	0x3d7bae51	0.061445538
200	0xbe36d90e	-0.17856237
201	0x3cb3254b	0.021868369
202	0x3db066a2	0.08613326
203	0xbb8bb0d1	-0.0042630215
204	0x3d64d626	0.05586829
205	0xbe3cae8f	-0.18425964
206	0x3b81ecf8	0.0039650165
207	0x3b9b58fa	0.0047408314
208	0x3d3355e7	0.043783095
209	0x3c9fa32f	0.019486992
210	0xbc4b5583	-0.012410524
211	0xbd96167b	-0.073285066
212	0xbda7fc12	-0.082023755
213	0xbcd302f2	-0.02575824
214	0x3dbd9758	0.09257382
215	0xbd0b9862	-0.03408087
216	0x3daf8ded	0.08571992
217	0x3d872af3	0.06599989
218	0x3e0b988f	0.13632415
219	0xbc59b458	-0.013287626
220	0x3e2290a8	0.15875494
221	0x3ddb476a	0.107069805
222	0xbdd453c1	-0.10367537
223	0xbd906fc4	-0.070525676
224	0x3e3d5f32	0.18493345
225	0x3e5da767	0.2164589
226	0x3dbee216	0.09320466
227	0x3dc088bd	0.09401081
228	0xbc960b8d	-0.018316055
229	0x3dffcc55	0.12490145
230	0xbd9a6832	-0.07539405
231	0x3e79263a	0.24330989
232	0xbd3a25e9	-0.04544631
233	0xbc228af8	-0.009920828
234	0x3e6453d8	0.22297609
235	0xbdb0f51a	-0.086404994
236	0xbe2dfdac	-0.169913
237	0x3e1005f0	0.14064765
238	0xbdd19554	-0.1023356
239	0xbdccbe87	-0.09997278
240	0xbde7f46b	-0.11325916
241	0x3dc291e2	0.09500481
242	0xbe35150d	-0.17683811
243	0xbd6aab77	-0.057292428
244	0x3d071850	0.03298217
245	0x3d6cd6b5	0.057821948
246	0xbc04cb43	-0.008105102
247	0xbe545ddc	-0.2073893
248	0xbd5d8304	-0.054080024
249	0xbe0e2593	-0.13881521
250	0xbd99aa7d	-0.07503221
251	0xbe2193d0	-0.15779042
252	0xbe1012f4	-0.1406973
253	0xbd136ec7	-0.035994317
254	0xbda825a5	-0.08210305
255	0xbd96d6e7	-0.07365208

attn_combine.weight f4 [32, 40]
0	0x3defc1ea	0.11706908
1	0xbe2843fa	-0.16432181
2	0x3d4e34d3	0.050343346
3	0xbdff19d2	-0.12456097
4	0x3a5ae780	0.0008350536
5	0x3b5af3f4	0.0033409568
6	0x3dfc69ea	0.12324889
7	0x3be3be31	0.006950163
8	0x3e329283	0.17438702
9	0xbdf70304	-0.12061122
10	0x3e3348f3	0.17508297
11	0x3cd61dd5	0.026137272
12	0xbdcb43b8	-0.09925026
13	0x3cfd18fb	0.0308957
14	0x3e2244e7	0.15846597
15	0x3c084971	0.008318291
16	0x3bd0b5b1	0.0063693156
17	0x3d9b6592	0.075877324
18	0xbe07ef95	-0.13274987
19	0x3c8ed507	0.017435564
20	0x3e108ba4	0.14115769
21	0x3c98e2c7	0.018662823
22	0x3d9a7af2	0.07542981
23	0x3e553458	0.20820749
24	0xbdf381c5	-0.11889986
25	0xbd9d48f1	-0.07679928
26	0xbe48db0a	-0.19614807
27	0xbe2c6ee3	-0.16839175
28	0xbe455a15	-0.19272645
29	0x3a2f7fca	0.0006694762
30	0xbc26a3cf	-0.010170891
31	0x3b684340	0.0035440475
32	0xbdb309b6	-0.087420866
33	0xbd67b879	-0.05657241
34	0xbe52097e	-0.20511433
35	0x3dd37191	0.103243954
36	0x3e0d6529	0.13808121
37	0xbe485bd6	-0.19566283
38	0x3e625728	0.2210356
39	0x3def97ba	0.116988614
40	0xbcb4136c	-0.021981917
41	0xbd1082b4	-0.0352809
42	0x3d925b27	0.07146292
43	0x3d1fc1b7	0.0390031
44	0xbc7f4f41	-0.01558286
45	0xbc7d2776	-0.015451303
46	0x3d9bb4f8	0.076028764
47	0x3bffdd21	0.007808343
48	0xbe260e62	-0.16216424
49	0x3e131219	0.14362372
50	0x3c8c100b	0.017097494
51	0xbcc0bab8	-0.023526534
52	0xbe0e8027	-0.13916074
53	0x3e07c3f7	0.13258348
54	0x3bc86c39	0.006116417
55	0x3dc49b54	0.09599939
56	0xbe178311	-0.14796092
57	0x3dedeaca	0.11617048
58	0x3e005b01	0.12534715
59	0x3cfbb299	0.03072481
60	0xbc8a4571	-0.016878815
61	0x3e02056d	0.12697382
62	0x3df55c21	0.11980463
63	0xbe36815e	-0.17822787
64	0x3e02b259	0.12763347
65	0x3dd2aa22	0.102863565
66	0xbd8f456e	-0.069956645
67	0xbde9b8e1	-0.11412216
68	0x3d78447f	0.060612198
69	0x3da575b1	0.080790885
70	0xbdc3ecbe	-0.09566639
71	0x3cb2d0cd	0.02182808
72	0xbe0a405f	-0.13501118
73	0xbe0e092b	-0.13870685
74	0xbdac42e5	-0.084111966
75	0xbda31671	-0.07963265
76	0xbdfa1db0	-0.12212694
77	0xbda6623f	-0.08124208
78	0x3cb877d2	0.022518072
79	0xbde57f75	-0.11205951
80	0x3e025e77	0.12731348
81	0xbdecc1c3	-0.115603946
82	0xbc50b5d5	-0.012738665
83	0x3e19a2b7	0.15003477
84	0x3db8af45	0.09017805
85	0xbcf5626a	-0.029954154
86	0xbd19c2c9	-0.037539277
87	0x3de75ab4	0.11296597
88	0x3e4998bd	0.19687171
89	0xbdae9cdb	-0.085260116
90	0x3e70022d	0.2343833
91	0x3e40ff72	0.18847445
92	0xbd0d8572	-0.03455109
93	0xbdc98c9c	-0.09841272
94	0xbd6392b3	-0.055559825
95	0x3d21fada	0.03954587
96	0x3dcbcc98	0.099511325
97	0x3e2193d2	0.15779045
98	0x3d85acd7	0.06527107
99	0xbe32757e	-0.17427632
100	0x3e70f74d	0.23531838
101	0xbdfc6e9d	-0.12325785
102	0x3d885f14	0.0665876
103	0xbd50098d	-0.05079036
104	0xbd775abe	-0.060389273
105	0x3d1df2b1	0.038561527
106	0xbc302caf	-0.010752841
107	0xbdb524e6	-0.088449284
108	0xbd7277e5	-0.05919637
109	0x3dbdc5dc	0.09266254
110	0x3dae2967	0.085039906
111	0x3d3ad7dc	0.045616016
112	0x3dc15631	0.09440268
113	0x3e119839	0.14218225
114	0xbe3a0584	-0.18166167
115	0xbd993768	-0.07481271
116	0x3db2340f	0.08701336
117	0x3ca7ab98	0.020467564
118	0x3e0670a8	0.13128912
119	0x3d178ba5	0.03699841
120	0xbe04f633	-0.12984543
121	0xbdf65237	-0.120274
122	0xbdef6be2	-0.11690499
123	0xbe201d8b	-0.1563627
124	0x3c79d3ee	0.015248282
125	0x3d4e3235	0.05034085
126	0x3d985d85	0.074397124
127	0xbde3efd9	-0.11129732
128	0x3dcfd1fc	0.10147473
129	0xbadf1020	-0.0017018355
130	0x3d5e33ef	0.054248746
131	0xbc88cbf1	-0.01669881
132	0x3e20ef4d	0.15716286
133	0x3dd3cb46	0.10341506
134	0xbdb7b1b6	-0.089694425
135	0xbe8106c3	-0.2520047
136	0xbc8a83b7	-0.01690851
137	0x3d6ecf2f	0.058303054
138	0xbc82598c	-0.01591184
139	0xbc707889	-0.014677175
140	0x3d8004e8	0.06250936
141	0x3dcde354	0.10053125
142	0x3da5c184	0.08093551
143	0x3e29dbc7	0.16587745
144	0xbdb9b436	-0.09067576
145	0x3e22ca03	0.15897374
146	0x3e0e93fb	0.13923638
147	0x3d44797f	0.04796743
148	0xbdc15fd7	-0.09442108
149	0xbd81cbdb	-0.063377105
150	0xbdd67aeb	-0.104726635
151	0x3db66a1d	0.08906958
152	0x3d3915fa	0.045186974
153	0xbe0878df	-0.13327359
154	0x3dfaddc0	0.12249327
155	0x3d074d21	0.03303254
156	0x3de51709	0.11186034
157	0xbdec4d2b	-0.11538156
158	0x3c30c7ba	0.010789806
159	0xbe0c4cfb	-0.1370124
160	0x3e19108d	0.1494772
161	0x3e1ff364	0.1562019
162	0x3c5b0055	0.013366778
163	0xbd44730a	-0.047961272
164	0x3dd256f1	0.10270489
165	0x3cb8c283	0.022553688
166	0xbd53aa43	-0.051676046
167	0x3b82bda1	0.0039898907
168	0xbd855cbe	-0.0651183
169	0xbd94eda6	-0.0727189
170	0x3d7958d8	0.060875744
171	0x3c8eddec	0.017439805
172	0x3e04e388	0.12977421
173	0x3d1e6c96	0.038677774
174	0xbd9ac2e6	-0.07556705
175	0x3e11e819	0.14248694
176	0x3dde9d6f	0.10869872
177	0x39406a5e	0.00018350172
178	0x3d6278e4	0.05529107
179	0xbce3ddfe	-0.027815815
180	0x3ddbfc35	0.10741464
181	0x3e4526d0	0.19253087
182	0x3c7ff879	0.015623205
183	0xbe2903f1	-0.1650541
184	0xbda775e0	-0.0817678
185	0xbaab1328	-0.0013051974
186	0x3e3fc6fb	0.18728249
187	0x3c62502f	0.013813063
188	0x3e12cd64	0.14336163
189	0xbd4dd2d5	-0.050249893
190	0xbdcb665d	-0.099316336
191	0xbdcf0fbe	-0.101104245
192	0xbbbd4d4b	-0.0057770363
193	0xbdb3c7a5	-0.087783135
194	0x3d6cbf63	0.057799708
195	0xbdb30ad3	-0.08742299
196	0x3e1458bb	0.14486973
197	0x3cf1e0f8	0.029526219
198	0x3da1a220	0.07892251
199	0xbce1e50d	-0.02757504
200	0xbdcca9d1	-0.099933274
201	0xbe263d3b	-0.16234295
202	0xbda8504d	-0.08218441
203	0x3de47c62	0.11156537
204	0x3dd74fba	0.105132535
205	0x3dcae8d1	0.099076875
206	0x3da5ba4e	0.080921754
207	0xbe4eaff6	-0.20184311
208	0x3ca6f241	0.020379188
209	0xbdcbf6a4	-0.09959152
210	0x3e0e2306	0.13880548
211	0x3e7df0fb	0.24798958
212	0x3df04341	0.11731578
213	0xbea5c680	-0.32378006
214	0x3e9614e6	0.2931282
215	0x3e5f2ed7	0.21795212
216	0x3e885a3f	0.26631352
217	0x3e15be4a	0.14623371
218	0xbe219600	-0.15779877
219	0xbcc33140	-0.023827195
220	0x3e15b723	0.14620642
221	0xbe2ebe4d	-0.17064781
222	0x3d8412b4	0.0644888
223	0x3de9bff2	0.11413564
224	0xbe617a84	-0.22019392
225	0x3de4d1c4	0.11172822
226	0xbe9b6819	-0.30352858
227	0xbe72e2f7	-0.23719393
228	0xbd90ef35	-0.07076875
229	0x3e8025cd	0.2502884
230	0x3e2e1980	0.17001915
231	0x3e41fde2	0.18944505
232	0xbddbf5ed	-0.10740266
233	0x3e3c0a89	0.18363394
234	0xbe567438	-0.20942771
235	0x3daf58b2	0.08561839
236	0xbe04a4d5	-0.12953503
237	0xbe2d3e51	-0.16918303
238	0x3e1b80e8	0.15185893
239	0x3e080882	0.13284495
240	0x3e54b6f2	0.20772913
241	0x3e6d681a	0.23184243
242	0x3d2046c3	0.039129984
243	0x3e027166	0.1273857
244	0x3d8b9d54	0.06817117
245	0x3df9f333	0.1220459
246	0x3deb3616	0.114849254
247	0x3e0e3776	0.13888344
248	0x3d41bc18	0.04729852
249	0xbcddeb22	-0.02708966
250	0x3e7a6dec	0.24455994
251	0x3d48b63d	0.04900192
252	0x3e6bd9ff	0.23032378
253	0xbe91e25c	-0.2849301
254	0x3e267c1c	0.16258281
255	0x3dfa7e09	0.122310705

attn_combine.bias f4 [32]
0	0x3e2b7031	0.16742016
1	0xbd40e4cd	-0.0470932
2	0xbe024b7e	-0.1272411
3	0x3dbefc22	0.09325434
4	0xbd31d04e	-0.043411545
5	0x3e26c74f	0.16286968
6	0x3e12d0b2	0.14337423
7	0xbc601a63	-0.013678166
8	0x3e0198bf	0.12655924
9	0x3d4e72c5	0.05040242
10	0x3d80c6dc	0.062879294
11	0x3deddabf	0.11613988
12	0x3e095192	0.13410023
13	0xbdb861c6	-0.09003024
14	0x3ae738f9	0.001764088
15	0x3ddb661b	0.107128344
16	0xbe01abeb	-0.12663238
17	0x3d9278f4	0.07151976
18	0x3e4f31e7	0.2023388
19	0x3e41ee84	0.18938643
20	0xbdf419c3	-0.11918976
21	0x3e221735	0.15829165
22	0x3e119695	0.14217599
23	0x3e0bae20	0.13640642
24	0x3dec4814	0.11537185
25	0x3e057563	0.1303306
26	0x3d3eb8d3	0.04656298
27	0xbe0d4dad	-0.13799162
28	0x3e1e0022	0.15429738
29	0xbdf80d7c	-0.12111947
30	0xbd975706	-0.07389645
31	0xbd0ebfae	-0.03485077

gru.weight_ih_l0 f4 [96, 32]
0	0x3e4aa905	0.19791038
1	0x3d8766a1	0.06611372
2	0x3e169d87	0.1470853
3	0xbd8e8f23	-0.06960895
4	0x3dbbab97	0.091635875
5	0xbdd6331e	-0.104589686
6	0xbdf22746	-0.11823897
7	0xbc45e739	-0.012079054
8	0x3e364ffd	0.1780395
9	0xbdf94fbf	-0.121734135
10	0xbd0b73a5	-0.034045834
11	0x3e501e2c	0.2032401
12	0xbdcb1e44	-0.09917882
13	0xbdaaf33a	-0.08347173
14	0x3df60788	0.12013155
15	0xbdee0b15	-0.116232075
16	0x3e04e923	0.1297956
17	0xbdeb0cdd	-0.11477063
18	0xbc375719	-0.011190199
19	0xbd7359e7	-0.05941191
20	0xbe1db283	-0.15400128
21	0xbc68c0a5	-0.014206086
22	0xbd41e44a	-0.047336854
23	0x3c9e6f74	0.019340254
24	0x3e47f8c2	0.19528487
25	0x3d634415	0.05548485
26	0x3e4021f5	0.18762954
27	0x3e2116bb	0.15731327
28	0x3e360968	0.17777026
29	0xbd294cca	-0.041332997
30	0x3e1938d4	0.14963084
31	0xbe1aaecd	-0.15105744
32	0x3e357fd8	0.1772455
33	0x3e30ba68	0.17258608
34	0x3db53663	0.08848264
35	0x3c15af78	0.009136073
36	0x3cc3b9f2	0.023892377
37	0x3e4911b2	0.19635656
38	0x3ec1d1cc	0.37855375
39	0x3e854349	0.26027897
40	0x3dc21cb3	0.0947813
41	0x3dd8977f	0.105757706
42	0x3be18cd6	0.006883244
43	0xbca85fd1	-0.020553501
44	0x3c991224	0.018685408
45	0x3e14e345	0.14539821
46	0x3d42c1e1	0.04754818
47	0xbd86ad84	-0.06576064
48	0xbd819349	-0.063269205
49	0xbd077423	-0.03306974
50	0xbd601a11	-0.05471236
51	0x3e1403bc	0.1445455
52	0xbe09b3d0	-0.134475
53	0xbd239ee3	-0.039946448
54	0x3e0e3b02	0.13889697
55	0xba404f82	-0.00073360663
56	0x3db5bb38	0.088736
57	0x3db18b71	0.086691745
58	0xbc34bc07	-0.011031157
59	0x3e3b59aa	0.18295923
60	0x3d98ba59	0.07457418
61	0xbe0169ae	-0.1263797
62	0xbdba7b6c	-0.09105572
63	0xbd19bdee	-0.037534647
64	0x3d461745	0.048362035
65	0x3cac9e93	0.021071708
66	0xbde8f796	-0.11375348
67	0xbc045dd9	-0.008079016
68	0xbd13837d	-0.03601407
69	0xbd248605	-0.040166873
70	0xbe0dbb3b	-0.13840954
71	0xbe22ea8e	-0.15909788
72	0xbe3efcb5	-0.18651088
73	0x3e09e892	0.13467625
74	0xbd2e4c7c	-0.04255341
75	0x3e3bdc02	0.18345645
76	0x3d6428e6	0.055703066
77	0x3cd81682	0.02637792
78	0xbdd6351f	-0.10459351
79	0xbce05f4a	-0.027389187
80	0x3e156516	0.14589342
81	0x3d988aa8	0.074483216
82	0xbe1a871d	-0.15090604
83	0xbb29aa56	-0.0025888882
84	0x3e4372fa	0.19086829
85	0xbe4af0bf	-0.198184
86	0xbdc40b9e	-0.09572528
87	0xbe1928c2	-0.14956954
88	0x3cb2cbbe	0.021825667
89	0xbdbc6417	-0.09198778
90	0x3e382a63	0.17984919
91	0xbd0d22dc	-0.034457073
92	0x3da79e70	0.081845164
93	0x3e0b0118	0.13574636
94	0x3e08f1b1	0.13373448
95	0x3e09892d	0.13431235
96	0xbdba90ed	-0.09109674
97	0x3df309e7	0.11867123
98	0x3dbfa512	0.093576565
99	0xbe32f7d4	-0.17477351
100	0x3db0565a	0.0861022
101	0xbc8cfebd	-0.017211312
102	0x3d630f19	0.05543432
103	0xbd94e201	-0.07269669
104	0xbd95614a	-0.07293947
105	0xbe25898d	-0.16165753
106	0x3d1d4408	0.038394958
107	0xbbf271f2	-0.0073988372
108	0xbcb82599	-0.022478865
109	0xbd65e44d	-0.056125928
110	0xbe0611ac	-0.13092679
111	0xbd8e0cb2	-0.06936015
112	0xbe0209d9	-0.12699069
113	0x3cdd0162	0.026978198
114	0xbd9e19c9	-0.07719762
115	0xbde582ca	-0.11206587
116	0xbdf5ac77	-0.11995786
117	0xbd7fd0cf	-0.062454995
118	0xbc48d9a0	-0.012258917
119	0xbe324f72	-0.17413118
120	0xbd1a8cd6	-0.037731968
121	0x3e2549d0	0.16141438
122	0xbcba3449	-0.02273001
123	0xbdc8c189	-0.09802539
124	0x3cb56542	0.02214301
125	0x3dd89626	0.105755135
126	0xbe1b41ce	-0.15161821
127	0x3e46c41b	0.19410746
128	0x3d7203fc	0.05908583
129	0xbe095066	-0.13409576
130	0xbdd5ddd8	-0.10442704
131	0xbd80ce94	-0.06289402
132	0x3d750862	0.059822448
133	0xbe91782f	-0.28412005
134	0xbce7242f	-0.028215496
135	0x3db2b412	0.08725752
136	0xbe12503a	-0.14288417
137	0x3db0eca9	0.08638889
138	0xbc0b7858	-0.008512579
139	0x3cb43da3	0.022002047
140	0xbe2cb424	-0.16865593
141	0xbd853cca	-0.06505735
142	0x3d6b99c0	0.057519674
143	0xbda464e8	-0.08027059
144	0x3dd492a9	0.10379536
145	0x3db10709	0.0864392
146	0x3bc2b69e	0.00594218
147	0x3de45abc	0.11150119
148	0x3b59542c	0.0033161743
149	0xbe9ad151	-0.3023782
150	0x3c12bfd5	0.008956869
151	0x3a508b7a	0.0007955354
152	0xbe078381	-0.13233759
153	0xbe8e37bc	-0.27776897
154	0x3c64a26f	0.013954743
155	0xbde37730	-0.111067176
156	0x3c9347e9	0.017978625
157	0x3e1cbd36	0.15306553
158	0x3dfec04b	0.12439021
159	0x3d8464ea	0.0646456
160	0xbe42ffd6	-0.19042906
161	0x3d78b40e	0.06071859
162	0xbe173758	-0.14767206
163	0xbd873037	-0.06600993
164	0x3d1bd17e	0.038041584
165	0xbb5c6a67	-0.0033632757
166	0xbda0c85a	-0.07850714
167	0x3c3e22d3	0.011604982
168	0x3cd95b0f	0.026532678
169	0xbdc4addb	-0.09603473
170	0xbe2a5691	-0.16634585
171	0xbcd0e280	-0.025498629
172	0x3e12e6e6	0.14345893
173	0xbe287b36	-0.16453251
174	0xbe4959a2	-0.19663098
175	0xbe68f86d	-0.22751017
176	0xbd330c5a	-0.04371295
177	0xbe1830b4	-0.14862329
178	0x3d48bd7f	0.049008843
179	0x3dfa3aa9	0.1221822
180	0xbdd161d3	-0.102237366
181	0xbde506e2	-0.111829534
182	0x3d01b501	0.03166676
183	0xbe1eb800	-0.15499878
184	0xbbeb9552	-0.007189431
185	0xbe42edc1	-0.19036008
186	0x3d8e1af5	0.069387354
187	0xbcc75775	-0.024333695
188	0x3d960a3b	0.0732617
189	0x3d9c4963	0.07631185
190	0x3dbbfc45	0.09178976
191	0xbdf37640	-0.11887789
192	0xbddf68c0	-0.10908651
193	0xbe0736cf	-0.13204502
194	0x3db5ada9	0.08871014
195	0x3d859441	0.06522418
196	0xbc3f0847	-0.011659688
197	0xbe5da3c2	-0.216445
198	0xbd80cef5	-0.06289474
199	0x3e31ce31	0.17363812
200	0x3d8f9099	0.07010002
201	0x3cf37b5a	0.029721905
202	0xbe06c3db	-0.1316065
203	0x3d03c1f2	0.032167383
204	0x3e4c7a05	0.19968422
205	0xbd86fd44	-0.06591275
206	0xbce44eaa	-0.027869541
207	0xbe0ada03	-0.13559727
208	0x3d988152	0.07446541
209	0xbe30bb33	-0.17258911
210	0xbd8413d0	-0.064490914
211	0xbde4cfbf	-0.11172437
212	0x3e002bdb	0.1251673
213	0xbd5a006a	-0.05322305
214	0xbd8e0ad8	-0.06935662
215	0x3dcc2efd	0.099699
216	0xbdeaa634	-0.11457482
217	0xbe507bb4	-0.20359689
218	0xbdef8774	-0.116957575
219	0x3dabc367	0.083868794
220	0xbe256f96	-0.16155848
221	0x3e3086af	0.17238878
222	0xbdb1298b	-0.08650502
223	0xbe6c6757	-0.23086296
224	0x3dab41f0	0.08362186
225	0x3dc89728	0.09794456
226	0xbe2a3699	-0.1662239
227	0x3cd87426	0.026422571
228	0x3e20173a	0.1563386
229	0xbe5f4674	-0.2180422
230	0x3e1aa738	0.15102851
231	0x3dd724d2	0.1050507
232	0x3d15629f	0.036471006
233	0xbe4003c3	-0.18751435
234	0x3d1bbd83	0.03802253
235	0xbda6dd62	-0.08147694
236	0x3ddb638c	0.107123464
237	0xbe55b06a	-0.20868078
238	0xbe56efea	-0.20989957
239	0xbe5564b8	-0.20839202
240	0xbcbb8208	-0.022889152
241	0xbe206a09	-0.15665449
242	0xbdfd7bdd	-0.12377141
243	0x3da0020a	0.07812889
244	0x3dbf4d23	0.093408845
245	0xbc831e95	-0.016005794
246	0x3db08e39	0.08620877
247	0x3c8c6153	0.017136252
248	0x3e1ebaef	0.15500997
249	0x3db50565	0.088389196
250	0xbe227d7b	-0.1586818
251	0x3dd12201	0.10211564
252	0xbda35994	-0.0797607
253	0xbe0a61ec	-0.13513917
254	0x3d3710c1	0.044693712
255	0x3deb24f2	0.11481656
