model.pt (torch_old, 146631 bytes, 18 tensors)

encoder.weight_ih_l0 f4 [136, 17]
0	0xbc0ce571	-0.008599625
1	0xbe675f44	-0.22594935
2	0xbe18e8cf	-0.1493256
3	0x3cfc7803	0.030818945
4	0xbe5221eb	-0.20520751
5	0x3da34e4a	0.07973917
6	0xbd5f44de	-0.054509036
7	0x3e2b3cb4	0.16722375
8	0xbca1e801	-0.019763948
9	0xbbedff42	-0.007263095
10	0xbbf77214	-0.007551441
11	0x3ca0ca7b	0.0196278
12	0x3cd2fdb6	0.025755744
13	0xc0740dd2	-3.8133435
14	0x3fa91374	1.3209062
15	0x3fa5712d	1.2925164
16	0xbf811faa	-1.0087788
17	0xbd4c4cf0	-0.04987806
18	0x3df2aa34	0.1184887
19	0xbe394591	-0.18092944
20	0xbdcf6457	-0.1012656
21	0xbe87b3ae	-0.26504272
22	0xbe9bb7fc	-0.30413806
23	0x3e9a77be	0.3016948
24	0x3e4be331	0.19910885
25	0xbddf0e8a	-0.10891445
26	0xbe0824ed	-0.13295336
27	0x3e066fbf	0.13128565
28	0xbe60e57e	-0.21962544
29	0xbdfede2c	-0.1244472
30	0x3ffe892d	1.9885613
31	0x3fb6375c	1.4235644
32	0x3faa72b7	1.3316258
33	0x3d557326	0.052111767
34	0xbd8ea333	-0.069647215
35	0xbc6cf023	-0.01446155
36	0x3e4eca5f	0.20194386
37	0x3d254a26	0.040353917
38	0x3e1954cf	0.14973758
39	0xbd8c4afe	-0.06850241
40	0x3e3384f4	0.17531186
41	0xbd84199a	-0.064501956
42	0x3e0efb0a	0.13962951
43	0x3c6ba817	0.014383337
44	0xbd8a6f08	-0.06759459
45	0x3e0da0f6	0.13830933
46	0xbd9f49a3	-0.07777717
47	0xc037240a	-2.8615746
48	0x3d63da2f	0.055627998
49	0x3d8f5958	0.06999463
50	0x3f146352	0.5796405
51	0xbcfb1826	-0.030651163
52	0x3d78f4c7	0.060780313
53	0xbba1a739	-0.0049332646
54	0x3e14c8e2	0.14529756
55	0x3e3348a2	0.17508176
56	0x3c7bcffc	0.015369412
57	0xbdb51270	-0.08841407
58	0x3e05a04d	0.13049431
59	0x3d9ced93	0.07662501
60	0xbdb28f50	-0.08718741
61	0x3e0a19c0	0.13486385
62	0x3e02a599	0.12758483
63	0x3e33fdb1	0.17577244
64	0x4099c841	4.805695
65	0x3f837a0c	1.0271621
66	0x3f8b885b	1.0900987
67	0x4038b21a	2.8858705
68	0x3e116d00	0.14201736
69	0xbdfc6169	-0.12323267
70	0x3e8bcb99	0.2730377
71	0x3c0c2cf9	0.008555644
72	0x3e69051a	0.22755852
73	0x3e36f453	0.1786664
74	0x3fc89111	1.5669271
75	0x3f31c2a7	0.6943764
76	0x3ec02c2e	0.37533706
77	0x3d3012fa	0.042986847
78	0xbd09229c	-0.03348027
79	0xbd996592	-0.07490076
80	0xbc61392d	-0.013746542
81	0x40035787	2.0522172
82	0x3dd10734	0.10206452
83	0x3dbb44cc	0.09143981
84	0x3f1791c8	0.5920682
85	0xbd3ecfdb	-0.046584945
86	0xbdd0dcb2	-0.10198344
87	0x3e513eb9	0.20434083
88	0x3d0c2e2e	0.034223728
89	0x3e3212d4	0.17389995
90	0x3d31ef96	0.043441378
91	0xbdbeef1e	-0.09322952
92	0x3ce5d1f8	0.028054222
93	0x3d14b573	0.036305856
94	0xbde9a85f	-0.11409067
95	0xbc9a4bce	-0.018834975
96	0x3c813f97	0.015777392
97	0x3c998b88	0.018743291
98	0x3f1198ce	0.56873786
99	0x3f560ed5	0.8361638
100	0x3f8522d5	1.0401255
101	0x3f4254f4	0.7591088
102	0x3e63357e	0.22188374
103	0x3e211751	0.15731551
104	0xbc8c823c	-0.017151944
105	0xbdf2ea55	-0.118611015
106	0x3e8000a6	0.25000495
107	0x3d0d2973	0.034463357
108	0x3df27c9d	0.11840174
109	0x3d906446	0.07050376
110	0x3d7f166e	0.06227725
111	0x3e23e542	0.16005424
112	0x3e2855af	0.16438936
113	0xbdade3c2	-0.08490707
114	0x3d0af7be	0.03392767
115	0x3f9349de	1.1506917
116	0x4048ec7f	3.1394346
117	0x403a49e2	2.9107594
118	0x3fd28fd0	1.6450138
119	0x3e4b3256	0.1984342
120	0xbfc4a399	-1.5362426
121	0xbe9ca815	-0.30596986
122	0x3eca3f50	0.3950143
123	0xbe964604	-0.29350293
124	0x3e9644c7	0.29349348
125	0xbe0fb173	-0.14032535
126	0xbe858c6e	-0.26083702
127	0xbd30dd9a	-0.043180086
128	0x3e7b238b	0.24525277
129	0x3f00ae91	0.5026637
130	0x3e6c557f	0.23079489
131	0xbef1cef3	-0.47228202
132	0x3f9fdb14	1.2488732
133	0x3fe3a838	1.7785711
134	0x3fe97f29	1.8241931
135	0xbe8b6c02	-0.2723084
136	0x3dde287e	0.10847567
137	0x3d3572d9	0.04429898
138	0xbdf02bba	-0.1172709
139	0xbe1379c1	-0.14401914
140	0xbda0f02d	-0.0785831
141	0xbca398c8	-0.019970313
142	0xbdd74962	-0.105120435
143	0x3d807f9a	0.06274338
144	0x3d5966fc	0.05307673
145	0xbd1f0fb4	-0.038833335
146	0x3d86fdde	0.0659139
147	0x3d630614	0.05542572
148	0x3dd67066	0.10470657
149	0x4020044d	2.5002625
150	0x4016e385	2.3576367
151	0x401f5f73	2.4902008
152	0x3ee1d49b	0.44107518
153	0xbda3ac55	-0.07991854
154	0xbda59d79	-0.08086676
155	0xbe2dd2e5	-0.16974981
156	0xbda4659d	-0.08027194
157	0xbe1dee63	-0.15422969
158	0x3df58c97	0.11989706
159	0xbd69ff64	-0.057128325
160	0xbe04d6bd	-0.12972541
161	0x3d83f2e1	0.0644281
162	0x3d58b12e	0.052903347
163	0x3de17107	0.110078864
164	0xbdb8eefb	-0.09029957
165	0x3d1262d3	0.035738777
166	0xbfd9deeb	-1.7021154
167	0x3ea9d183	0.33167657
168	0x3e843833	0.25824127
169	0xbd4d10fa	-0.05006502
170	0xbd57221c	-0.052522764
171	0x3d9632ae	0.07333885
172	0x3d0054e8	0.031330973
173	0x3d2d84cc	0.042362973
174	0x3e2f4823	0.17117362
175	0x3e2b28a5	0.16714723
176	0x3def8e06	0.11697011
177	0x3bb2f340	0.0054611266
178	0xbdf2fa2e	-0.11864124
179	0x3e093e95	0.1340278
180	0xbd2fa8bc	-0.042885527
181	0xbc632970	-0.01386486
182	0xbe174ab0	-0.14774585
183	0xc006501b	-2.0986392
184	0xbf9d1a4d	-1.2273651
185	0xbf70fd7d	-0.9413679
186	0xbfb4cb91	-1.4124624
187	0xbdc4e500	-0.09613991
188	0x3d21b00a	0.039474525
189	0xbd2b8b36	-0.04188081
190	0x3ddc5e2f	0.107601516
191	0xbc6760ec	-0.014122229
192	0xbda21170	-0.07913482
193	0x3d248b8b	0.04017214
194	0x3e1f4703	0.15554433
195	0xbdf1c7d4	-0.11805692
196	0x3da6274a	0.081129625
197	0x3e1068ed	0.14102526
198	0x3e32f668	0.17476809
199	0xbdf3b895	-0.119004406
200	0x3ea600ed	0.3242258
201	0x3e0ea6bb	0.1393079
202	0x3ee9001d	0.455079
203	0x3ff32640	1.8996048
204	0x3deb562a	0.11491044
205	0xbc236b21	-0.009974272
206	0x3ab68e73	0.0013927951
207	0xbc96bea7	-0.018401457
208	0x3d3a85f1	0.045537893
209	0x3da5ab9a	0.08089371
210	0x3ce1bb34	0.027555086
211	0x3d567e22	0.052366383
212	0xbe1deb07	-0.15421687
213	0x3e0002b0	0.12501025
214	0x3e192e47	0.1495906
215	0x3e113b84	0.1418286
216	0x3e01e325	0.12684305
217	0x3e97b42e	0.29629654
218	0x3f6b2cae	0.9186505
219	0x3f8e927c	1.1138453
220	0xbe8f53ec	-0.27993715
221	0x3eb501a8	0.35352826
222	0xbe2e5b64	-0.1702705
223	0x3d0a8aa0	0.03382361
224	0x3e5d29f1	0.2159803
225	0x3d29560e	0.041341834
226	0xbca69aab	-0.020337423
227	0x3ebc7dd2	0.36814743
228	0x3e60f7d0	0.21969533
229	0x3e3e733e	0.18598649
230	0xbcaf957e	-0.021433588
231	0xbe07be50	-0.13256192
232	0x3e9ee806	0.31036395
233	0xbc2564d3	-0.010094839
234	0x40cee9b4	6.466028
235	0x40cd9bac	6.425253
236	0x40b92dec	5.7868557
237	0xbfd7d3bb	-1.686149
238	0x3f1e2d7f	0.6178817
239	0xbf2bde35	-0.67135936
240	0xbec9d23a	-0.39418203
241	0x3ef1a40f	0.4719548
242	0x3d30a9f3	0.043130826
243	0xbdc294f9	-0.095010705
244	0xbdec839a	-0.115485385
245	0x4000da84	2.0133371
246	0xbf99d8a2	-1.2019236
247	0xbe877027	-0.26452753
248	0xbebfaebe	-0.37438005
249	0xbe64e38f	-0.22352432
250	0xbf062ac1	-0.5240899
251	0x3e856819	0.26055983
252	0xbe838671	-0.25688508
253	0xbe66261b	-0.22475474
254	0xbf8f46ff	-1.1193541
255	0xbdbdfd03	-0.09276774

encoder.weight_hh_l0 f4 [136, 34]
0	0xbb74c9c8	-0.0037351716
1	0xbeecdf18	-0.46263957
2	0xbf47872b	-0.77940625
3	0x3f808520	1.0040627
4	0xbebdb6c5	-0.37053505
5	0xbf218760	-0.6309719
6	0x3e791521	0.24324466
7	0x3f2ed294	0.68290067
8	0xbe7d0d6e	-0.24712154
9	0x3dad64a5	0.08466462
10	0x3fcb4639	1.5880805
11	0xbe87514b	-0.2642921
12	0x3fb1058b	1.3829817
13	0x3f0cb603	0.5496523
14	0x3f644835	0.8917268
15	0x3e9b897d	0.30378333
16	0x3deb3735	0.11485139
17	0x3e6b5af6	0.22983918
18	0x3e062959	0.1310171
19	0xbeb53370	-0.35390806
20	0x3efc6b3e	0.4930057
21	0x3fa1f432	1.2652647
22	0x3e34b4fa	0.17647162
23	0x3f67e482	0.9058305
24	0x3f044d72	0.5168067
25	0xbe676aee	-0.22599384
26	0x3f3f8e9c	0.7482698
27	0xbcd980fc	-0.026550762
28	0x3f103b05	0.56340057
29	0xbf559fdc	-0.8344705
30	0x3e90dd88	0.28294015
31	0x3f256a70	0.64615536
32	0x3f59e2b8	0.8511157
33	0x3db9c836	0.0907139
34	0xbf7d1151	-0.9885455
35	0x3e1d5109	0.15362944
36	0x3f60ad6d	0.87764627
37	0xbf4fc059	-0.81152874
38	0xbfa2a0c2	-1.2705309
39	0xbf9387d1	-1.1525823
40	0xbe152dd0	-0.14568257
41	0xbdf1cb41	-0.11806346
42	0xbf8708d4	-1.0549569
43	0x3faca734	1.3488526
44	0x3e9be32f	0.30446765
45	0x3fb65832	1.4245665
46	0xbe348c1b	-0.17631571
47	0xbf2dc6d8	-0.67881536
48	0x3e97e72c	0.29668558
49	0xbf480f78	-0.78148603
50	0x3fad3a86	1.3533485
51	0xbfa24143	-1.2676166
52	0xbf4702f6	-0.77738893
53	0x3f719492	0.94367325
54	0xbebef8c9	-0.37299183
55	0x3f43b3a6	0.76445997
56	0xbf5a2bd2	-0.85223114
57	0x3f131c6a	0.5746523
58	0xbf8ec540	-1.1153946
59	0x3f3eef15	0.7458356
60	0x3e0dc38c	0.13844126
61	0xbfa10db0	-1.2582302
62	0xbd4262f5	-0.047457654
63	0x3f14fd93	0.58199424
64	0x3ecfcb5c	0.40584838
65	0x3f06fd13	0.5272991
66	0xbe5b9818	-0.21444738
67	0x3f0159f5	0.5052789
68	0xbebbd05c	-0.36682403
69	0x3d2084f0	0.03918928
70	0x3e931554	0.2872721
71	0xbf32038b	-0.69536656
72	0x3d9e30f2	0.07724179
73	0xbc3f0640	-0.011659205
74	0xbeab1f2f	-0.3342223
75	0xbf3ad5f4	-0.72982717
76	0x3a97672b	0.0011551132
77	0x3da955f6	0.08268349
78	0xbef1621f	-0.47145173
79	0x3f0851ab	0.53249615
80	0xbe8cd360	-0.27505016
81	0xbd8727c7	-0.06599384
82	0xbdd5fdad	-0.104487754
83	0xbf203ab4	-0.62589574
84	0x3e818c77	0.2530248
85	0xbe3a80f6	-0.18213257
86	0xbf5de8af	-0.8668317
87	0x3ebea467	0.37234804
88	0xbf0dbc19	-0.5536514
89	0xbdad38d4	-0.08458105
90	0xbe0abf41	-0.1354952
91	0xb9821f93	-0.00024819057
92	0xbe90e87a	-0.28302366
93	0x3e8b1d7b	0.2717093
94	0xbf80b97b	-1.0056604
95	0x3cb01866	0.02149601
96	0xbf93aab0	-1.1536465
97	0x3f807193	1.003466
98	0x3f50e3ea	0.8159777
99	0xbed17170	-0.40906858
100	0xbf3f8ead	-0.7482708
101	0xbf19fa13	-0.6014721
102	0xbf99bc1b	-1.201053
103	0x3ffd859a	1.9806397
104	0x3fa8acdd	1.3177754
105	0xbf97aeb7	-1.1850194
106	0xbfbb4cc0	-1.4632797
107	0xbf6927f2	-0.91076577
108	0x3e97880b	0.2959598
109	0xbf875c70	-1.0575085
110	0xbfb2d18b	-1.3970197
111	0x3fd3712e	1.6518915
112	0x3f3796cd	0.7171448
113	0x3fe72ecd	1.8061157
114	0x3f75d2b1	0.96024615
115	0xbf9a7a34	-1.2068543
116	0x3fd71309	1.6802684
117	0xbf44984b	-0.7679488
118	0x3faa3b22	1.3299296
119	0xc003fc25	-2.0622647
120	0x3e514edd	0.2044024
121	0x3f3778c0	0.71668625
122	0xbf3a8ae3	-0.72868174
123	0x3f88125a	1.06306
124	0xbfd45356	-1.6587932
125	0x3ff3dd30	1.9051876
126	0xc00435cb	-2.0657833
127	0x3ff3c384	1.9044042
128	0xbe0e5069	-0.13897862
129	0xbfb8a010	-1.4423847
130	0xbed23555	-0.41056314
131	0x3df37123	0.118868135
132	0x3e84cf41	0.25939372
133	0x3f752510	0.9575968
134	0xbfd19955	-1.6374918
135	0x3fa6cc19	1.3031036
136	0xbf3427f0	-0.7037344
137	0x3f3e8230	0.744174
138	0xbe9ce25b	-0.30641446
139	0xbfb0fa3b	-1.3826364
140	0xbf2ec888	-0.68274736
141	0xbf3e8f3d	-0.74437314
142	0x3e8eaeb7	0.27867672
143	0xbea43631	-0.32072595
144	0xbf033c6e	-0.51264083
145	0x3eea8f25	0.45812336
146	0x3f6f167b	0.9339368
147	0xbe10bc43	-0.14134316
148	0xbe501309	-0.20319761
149	0x3d2312b4	0.03981276
150	0x3eb9457b	0.36185822
151	0xbfc6bb25	-1.5525862
152	0x3f32a5af	0.69784063
153	0xbed3bfa3	-0.41357145
154	0xbe4b322d	-0.1984336
155	0x3f1609c4	0.5860865
156	0xbf59482e	-0.8487576
157	0x3ee2812b	0.44239172
158	0xbf79ddef	-0.9760427
159	0x3e97d853	0.2965723
160	0xbdc5b009	-0.09652717
161	0x3e9acfd7	0.30236694
162	0xbf2a2554	-0.6646321
163	0xbf0a879a	-0.5411316
164	0x3f170a90	0.5900049
165	0x3f450a57	0.769689
166	0x3f14f898	0.58191824
167	0xbf607396	-0.8767637
168	0xbf5b293e	-0.85609806
169	0x3fb1bb0a	1.3885205
170	0xbe1531c1	-0.14569761
171	0x3eb0702f	0.3446059
172	0x3c705bfa	0.014670366
173	0xbf21f30e	-0.632615
174	0x3e46e880	0.19424629
175	0x3f0e1da6	0.5551399
176	0xbf3a5fb2	-0.7280227
177	0xbe0acb4b	-0.13554113
178	0x3ec5cb2c	0.3863157
179	0x3b713a0a	0.0036808276
180	0xbf8368b2	-1.0266325
181	0xbe8be581	-0.27323535
182	0xbeaee6d2	-0.34160477
183	0xbe422de8	-0.18962824
184	0xbf58b3df	-0.8464946
185	0xbe8ec37a	-0.27883512
186	0xbe3afbf9	-0.18260182
187	0x3e76ab7d	0.24088855
188	0x3ce20fe5	0.02759547
189	0x3e7ce9b4	0.24698526
190	0xbc8b8db7	-0.017035348
191	0xbf5b558f	-0.8567743
192	0xbdb739cd	-0.089465715
193	0xbf655a53	-0.8959095
194	0xbeaab59b	-0.3334168
195	0x3efe5fa1	0.49682334
196	0xbf4d2945	-0.801411
197	0x3f1c71b9	0.61111027
198	0xbf384f9b	-0.7199647
199	0xbbe0f3ac	-0.0068649855
200	0xbf4bdd85	-0.79634887
201	0xbf02131f	-0.50810426
202	0xbefab1d0	-0.48963785
203	0xbf62dea3	-0.88620967
204	0xbe028140	-0.12744617
205	0xbe1365d7	-0.14394318
206	0x3f37189e	0.7152194
207	0xbf096ce2	-0.53681767
208	0xbe1602f7	-0.14649568
209	0xbedd2963	-0.43195638
210	0xbf221174	-0.6330788
211	0xbea557ed	-0.32293645
212	0xbc613959	-0.013746583
213	0x3e02dfaa	0.12780634
214	0xbf378aac	-0.7169597
215	0xbe1b0490	-0.15138459
216	0xbf325426	-0.6965965
217	0xbea47760	-0.32122326
218	0xbefc924d	-0.4933037
219	0xbf6c838c	-0.92388225
220	0x3e39ac2c	0.18132085
221	0x3d4739da	0.048639156
222	0xbe5a6a69	-0.21329655
223	0x3d07ebea	0.03318397
224	0xbe914149	-0.2837012
225	0xbe8e2b6a	-0.27767497
226	0xbebb6cf5	-0.36606565
227	0xbeea92ef	-0.45815226
228	0xbe77a19f	-0.24182747
229	0x3e76640a	0.240616
230	0xbf1149ee	-0.5675343
231	0xbd6fb364	-0.05852069
232	0xbe31edcb	-0.17375867
233	0xbd5faf9d	-0.054610837
234	0x3cd9d491	0.026590617
235	0xbed14267	-0.40870973
236	0xbeeeff37	-0.46679088
237	0xbf631557	-0.88704437
238	0xbfbf1a6c	-1.4929938
239	0x3fb1b731	1.388403
240	0xbfaaaf41	-1.3334733
241	0xbe946a81	-0.28987506
242	0xc06146f7	-3.5199564
243	0x3f9e262d	1.23554
244	0x3f62a44a	0.88531935
245	0xc033771b	-2.8041446
246	0xbfe9363c	-1.8219676
247	0x405483d6	3.3205466
248	0x3f4b112d	0.79323083
249	0x403fba02	2.995728
250	0xbec510d0	-0.3848939
251	0x3f61eefd	0.8825529
252	0x3fa8cd91	1.3187734
253	0xbf067e4c	-0.52536464
254	0x404d28ed	3.205623
255	0xc050386e	-3.2534442

encoder.bias_ih_l0 f4 [136]
0	0x3f1b251a	0.6060349
1	0x3f54fec2	0.8320123
2	0xbef7e651	-0.48417905
3	0x3ec0c60f	0.37651107
4	0x3f9edc78	1.2411032
5	0xbecf6cb7	-0.4051263
6	0x3dfc8e19	0.123317905
7	0x3ecb8450	0.39749384
8	0x3e6bc225	0.23023279
9	0x3f8e6a23	1.112614
10	0xbde531da	-0.11191149
11	0x3d9ebc0c	0.07750711
12	0x3f211e27	0.62936634
13	0x3cddc7fa	0.027072895
14	0x3fb4ee5f	1.4135245
15	0x3f45ec11	0.77313334
16	0x3f85ae6d	1.0443856
17	0x3e3c94c7	0.18416129
18	0xbf3acc68	-0.7296815
19	0x3f2f392a	0.684466
20	0xbed8cd97	-0.42344353
21	0x3f39a8b9	0.72523075
22	0x3f30a0a6	0.6899513
23	0x3f0debaf	0.5543775
24	0xbdfa60c2	-0.12225486
25	0xbe479105	-0.19488914
26	0x3ea81327	0.32827112
27	0xbe406740	-0.18789387
28	0x3e2fb02b	0.17157046
29	0xbe9d67da	-0.30743295
30	0xbea52b1e	-0.32259458
31	0xbd034151	-0.032044712
32	0xbe49b85b	-0.19699232
33	0x3f606e78	0.8766856
34	0x3e0d777b	0.1381511
35	0x3fa5a1da	1.2940018
36	0xbf32e042	-0.6987344
37	0x3f903338	1.1265631
38	0x3f406139	0.7514835
39	0xbeb158cf	-0.34638068
40	0xbe02836c	-0.12745446
41	0x3e1b77ac	0.1518237
42	0xbefdda7b	-0.4958075
43	0x3f238689	0.6387716
44	0xbd976004	-0.073913604
45	0xbe62d30d	-0.22150822
46	0xbf7c0cdc	-0.9845712
47	0x3c081639	0.00830608
48	0xbf1f5b7d	-0.62248975
49	0xbea2282b	-0.3167127
50	0x3f9906c3	1.1955189
51	0xbf0949c2	-0.5362817
52	0x3e9ee547	0.310343
53	0x3e491faf	0.19640993
54	0xbd5ae780	-0.05344343
55	0xbf0d0049	-0.5507856
56	0x3cacf9bd	0.021115178
57	0xbee9004c	-0.4550804
58	0x3ecb5375	0.3971211
59	0x3f702d06	0.938187
60	0x3e261b15	0.16221268
61	0xbedcbd27	-0.43113062
62	0x3ee63a31	0.44966272
63	0xbf57ca0e	-0.84292686
64	0xbf8639c3	-1.0486377
65	0x3df4b4d9	0.119485565
66	0x3e23fca7	0.16014348
67	0x3e5e769b	0.21724932
68	0xbe210b2e	-0.15726921
69	0x3eb83498	0.35977626
70	0x3eb6bfff	0.35693356
71	0xbee7dd17	-0.45285866
72	0xbf44893d	-0.7677191
73	0xbd33dabc	-0.043909773
74	0x3c4836cc	0.012220096
75	0xbdb9f694	-0.09080234
76	0xbeee0725	-0.46489826
77	0x3fb5e521	1.421055
78	0x3e69bd92	0.22826222
79	0x3d66b288	0.056322604
80	0xbc52273b	-0.012826736
81	0xbe303d6e	-0.17210934
82	0x3f835ad6	1.0262096
83	0xbf112a8e	-0.5670556
84	0x3f166bbc	0.5875814
85	0xbe1be5bf	-0.1522436
86	0x3e4f1181	0.20221521
87	0x3d3e8f6c	0.046523497
88	0x3c13c116	0.009018203
89	0x3f081e68	0.53171396
90	0xbee9d095	-0.45666948
91	0x3f4fce6c	0.8117435
92	0xbe24f8a4	-0.16110474
93	0x3ecc7948	0.3993628
94	0x3cc74052	0.024322663
95	0xbe592873	-0.21206836
96	0x3e900bfc	0.28134143
97	0xbda77995	-0.08177487
98	0xbe824019	-0.25439528
99	0x3f15d9b9	0.58535343
100	0xbdf67d7b	-0.12035652
101	0x3f316e98	0.6930938
102	0x3f01e82f	0.5074491
103	0x3f035cad	0.51313287
104	0xbfbd69e0	-1.4797935
105	0x3eba3aea	0.36373073
106	0x3f177d91	0.59175974
107	0x3f11c6a1	0.5694371
108	0xbea180ce	-0.31543583
109	0x3e220e86	0.15825853
110	0xbf36e69c	-0.7144563
111	0x3f47c466	0.78034055
112	0x3e5c9f75	0.21545203
113	0x3e64ad4f	0.22331737
114	0x3f8ac394	1.0840936
115	0xbe2f9ac0	-0.17148876
116	0x3ebe309e	0.37146467
117	0x3f21e642	0.6324197
118	0x3f53bcca	0.82709944
119	0x3f02f556	0.511556
120	0x3dc6be2d	0.09704242
121	0x3f3964e9	0.724196
122	0x3ec7bb9f	0.3901033
123	0x3eda2f7d	0.42614356
124	0x3f65a9ad	0.8971203
125	0x3f60fc10	0.87884617
126	0xbe6ffe42	-0.23436835
127	0xbe6d3396	-0.2316421
128	0x3f3bf718	0.7342391
129	0x3e7c5273	0.24640827
130	0x3e642ccc	0.22282714
131	0x3e2e2fd1	0.17010428
132	0xbe970c3e	-0.29501528
133	0xbf5bb2b6	-0.85819566
134	0xbe3add30	-0.18248439
135	0x3e92eacb	0.28694758

encoder.bias_hh_l0 f4 [136]
0	0x3f04d04b	0.5188033
1	0x3f3ac0a8	0.7295022
2	0xbed74645	-0.420458
3	0x3eeae6a1	0.4587908
4	0x3fbb910d	1.4653641
5	0xbe1a1538	-0.15047157
6	0x3dc7167d	0.09721086
7	0x3eda3da1	0.42625144
8	0x3e7e340f	0.24824546
9	0x3f9d8b14	1.2308068
10	0xbec1a5c2	-0.37821776
11	0x3e85d2a4	0.2613727
12	0x3f4e6d79	0.8063579
13	0x3c3623d8	0.011116944
14	0x3fb84b7d	1.4398037
15	0x3f462897	0.77405685
16	0x3f8ef9f2	1.1170027
17	0x3e9d6850	0.30743647
18	0xbf83d54b	-1.0299467
19	0x3ee4477d	0.4458579
20	0xbef8547a	-0.4850195
21	0x3f15007b	0.5820386
22	0x3f405968	0.75136423
23	0x3ec7d745	0.39031425
24	0x3e0f1aad	0.1397502
25	0xbecdb0ea	-0.40174037
26	0x3e88afce	0.26696628
27	0xbe56585c	-0.20932144
28	0x3e232c5f	0.15934895
29	0xbe3e4e0a	-0.18584457
30	0xbec773af	-0.38955447
31	0xbea7fbb1	-0.32809213
32	0xbde3b8c1	-0.111192234
33	0x3f50f0fb	0.81617707
34	0xbe0953fa	-0.13410941
35	0x3f9b4748	1.2131128
36	0xbf2b3f00	-0.66893005
37	0x3f8f4a4c	1.1194549
38	0x3f277b5e	0.6542262
39	0xbeb079b9	-0.34467867
40	0xbe9c6484	-0.30545437
41	0x3e851a9f	0.25996873
42	0xbe6f52d1	-0.23371436
43	0x3f18b14e	0.59645545
44	0x3d9dc908	0.07704359
45	0xbe0d4370	-0.13795257
46	0xbf9895a8	-1.1920671
47	0x3e4fbb6d	0.20286341
48	0xbf22150c	-0.63313365
49	0xbc163ca1	-0.0091697285
50	0x3f9cf34f	1.2261752
51	0xbee72123	-0.4514247
52	0x3e9e1ecf	0.3088288
53	0x3eb61d93	0.35569438
54	0xbcce8b73	-0.025212979
55	0xbf4779e6	-0.7792038
56	0xbe0e28e3	-0.13882785
57	0xbea68b9c	-0.32528389
58	0x3eba1607	0.3634493
59	0x3f33924f	0.70145124
60	0xbdbb8dc6	-0.091579005
61	0xbe3a737a	-0.18208113
62	0x3eacb135	0.33728948
63	0xbf4ea3d9	-0.8071876
64	0xbf85604b	-1.0420011
65	0x3db8c470	0.090218425
66	0x3eaccf6e	0.33752006
67	0x3e953526	0.29142112
68	0xbeb6af40	-0.3568058
69	0x3daa620e	0.08319484
70	0x3eb182fb	0.34670243
71	0xbedc6e70	-0.43053007
72	0xbf1f0af9	-0.6212612
73	0xbc4f179d	-0.012639907
74	0x3ded7ee6	0.115964696
75	0xbdff9a62	-0.12480618
76	0xbf118c06	-0.56854284
77	0x3fb5efec	1.4213843
78	0x3e812f4e	0.25231403
79	0x3e7b80ef	0.24560903
80	0x3e719827	0.23593198
81	0xbec153ee	-0.37759346
82	0x3f8094c6	1.0045402
83	0xbe7ae7ae	-0.24502441
84	0x3f4e827b	0.8066785
85	0xbe9d00f6	-0.30664796
86	0xbc95fae9	-0.01830812
87	0x3e20c020	0.1569829
88	0x3bc25e56	0.005931656
89	0x3e74756e	0.23872921
90	0xbf15e10b	-0.58546513
91	0x3f4b56d5	0.7942937
92	0xbef823c0	-0.48464775
93	0x3e8ee4a0	0.27908802
94	0xbd5cb97f	-0.05388784
95	0xbd99cc68	-0.075096905
96	0x3ebf22dd	0.37331286
97	0x3d9befa9	0.07614071
98	0xbe6f4317	-0.23365436
99	0x3f100f5f	0.56273454
100	0xbe3d2f08	-0.18474972
101	0x3f0efa37	0.5585055
102	0x3f2df3f5	0.67950374
103	0x3ed85520	0.42252445
104	0xbf9af9ba	-1.210746
105	0x3ea0cb51	0.31405118
106	0x3eb6455e	0.35599798
107	0x3f138265	0.5762084
108	0xbf013acb	-0.50480336
109	0xbd34da0e	-0.044153266
110	0xbf1cbcbd	-0.6122549
111	0x3f350271	0.7070685
112	0x3e8ab166	0.2708847
113	0x3e67b129	0.22626175
114	0x3f5a688d	0.8531578
115	0xbe6b6e88	-0.22991383
116	0x3ed22116	0.41040868
117	0x3f19b2b2	0.6003829
118	0x3f7dc43a	0.9912754
119	0x3ecc2ff2	0.3988033
120	0xbe29e1b4	-0.16590005
121	0x3f360396	0.7109922
122	0x3eb50091	0.35351995
123	0x3f03f416	0.5154432
124	0x3f675f56	0.90379846
125	0x3f50869e	0.8145541
126	0xbe929987	-0.28632757
127	0xbe27eae1	-0.16398193
128	0x3f5bf20e	0.8591622
129	0x3e97ceca	0.29649955
130	0x3df3e978	0.11909765
131	0x3dcd9aaa	0.100392655
132	0xbe933eaf	-0.2875876
133	0xbf712f46	-0.9421276
134	0xbe857bd8	-0.26071048
135	0x3ecdf0e0	0.40222836

encoder.weight_ih_l1 f4 [136, 34]
0	0x3e4a2d2a	0.19743791
1	0x3e119a8f	0.14219116
2	0x3e9bc186	0.30421084
3	0x3e8dcc34	0.27694857
4	0x3f8765a6	1.0577896
5	0xbf6dd2c0	-0.92899704
6	0x3ec9f7ae	0.39446777
7	0x3fd088a5	1.6291701
8	0xbebf1f62	-0.3732863
9	0xbe2cc8f9	-0.1687354
10	0xbd1b4137	-0.03790399
11	0x3ddd7d15	0.10814873
12	0x3e7fab18	0.24967611
13	0x3eb4aaf4	0.35286677
14	0x3f66799c	0.9002931
15	0xbf715405	-0.9426883
16	0xc06eb04c	-3.7295103
17	0xbc7610d3	-0.01501866
18	0xbfee011f	-1.8594092
19	0xbfbccec6	-1.4750602
20	0xbdbf612e	-0.093447074
21	0x3f157ddd	0.5839518
22	0x3f8810a4	1.0630078
23	0xbf133601	-0.5750428
24	0x3f0c4cc1	0.5480462
25	0x3fb8094e	1.437784
26	0xbe3626e8	-0.17788279
27	0xbf769f11	-0.96336466
28	0xbe96dc6c	-0.29465044
29	0x3fa6dd5a	1.3036301
30	0x3ef522e6	0.47878188
31	0x3e48a139	0.19592752
32	0xbc762e52	-0.015025692
33	0x3f509381	0.81475073
34	0xbefcb5ba	-0.49357396
35	0xbeb8c21a	-0.36085588
36	0xbfa573ac	-1.2925925
37	0x3e2c519d	0.16828008
38	0xbf18bd88	-0.596642
39	0x3dd19d35	0.10235063
40	0xbe422135	-0.1895798
41	0xbf07cfe1	-0.53051573
42	0x3e413540	0.1886797
43	0x3f435a05	0.76309234
44	0xbe4ee505	-0.20204552
45	0x3eaf4de1	0.34239104
46	0xbc898a5f	-0.016789613
47	0x3de8ca60	0.11366725
48	0xbed61892	-0.4181562
49	0xbf1f1aed	-0.6215046
50	0x3eed7130	0.46375418
51	0xbed6ecc8	-0.41977525
52	0xbeb6b053	-0.356814
53	0xbdf5069c	-0.11964151
54	0xbe92bb1c	-0.28658378
55	0xbdb85cd7	-0.09002083
56	0x3e429c4e	0.19004938
57	0x3f4b9b64	0.7953398
58	0x3dcc771b	0.09983655
59	0x3ff71432	1.9303038
60	0xbf95b337	-1.1695317
61	0xbecf89bf	-0.4053478
62	0x3fa452be	1.2837751
63	0x3f791d1f	0.9731006
64	0x3fa9897d	1.3245083
65	0xbfb78c47	-1.4339684
66	0xbef8aff3	-0.4857174
67	0xbe8511b1	-0.2599006
68	0xbf51c790	-0.81945133
69	0x3fa567c6	1.2922294
70	0xbd4aac27	-0.049480584
71	0x3efc0ee8	0.49230123
72	0xbe8202e0	-0.25392818
73	0xbfb2f459	-1.3980819
74	0xbdfc3670	-0.12315071
75	0xbfd5f311	-1.6714803
76	0xbff50c16	-1.9144313
77	0xbe56d2f0	-0.20978904
78	0xbefc2433	-0.49246368
79	0xbeea9b27	-0.45821497
80	0xbe3fa7dd	-0.18716379
81	0xbebbc7de	-0.36675924
82	0x3f98d9e8	1.19415
83	0x3e163328	0.14667952
84	0xbe68dee8	-0.22741282
85	0xbd4a2b21	-0.049357537
86	0xbff92b99	-1.946643
87	0x3fd63339	1.6734382
88	0xc026a82a	-2.604014
89	0x3fd3daec	1.6551185
90	0x3ecfe454	0.40603888
91	0x3e29d6d2	0.16585854
92	0xbf08a4ac	-0.5337627
93	0x40222521	2.5335162
94	0x3f02ece0	0.5114269
95	0xc0812310	-4.03553
96	0xbf4c44cf	-0.79792494
97	0x3e72fb89	0.23728766
98	0xbda69771	-0.08134354
99	0x3e0b1b05	0.13584526
100	0x3ea2734c	0.3172859
101	0xbf05e1e1	-0.5229779
102	0xbfadb278	-1.3570089
103	0x3f7cedaf	0.98800176
104	0x3e4725c7	0.19448005
105	0xbf01578f	-0.5052423
106	0x3edcae92	0.43101937
107	0xbf33a0c3	-0.7016718
108	0x3fb6bf4c	1.4277129
109	0xc0406332	-3.0060544
110	0x3e7d6baa	0.24748102
111	0xbc920912	-0.01782659
112	0xbeaaa273	-0.33327064
113	0xbe88c743	-0.26714525
114	0xbefb2685	-0.49052826
115	0x3fb12690	1.3839893
116	0xbf57b7ab	-0.8426463
117	0x3feee9a4	1.8665051
118	0x3e145573	0.14485721
119	0x3dc29be0	0.09502387
120	0xbf18d2c4	-0.596966
121	0x3e88f8c3	0.2675229
122	0xbe723f57	-0.23656975
123	0xbec0b914	-0.37641203
124	0xc01bc6c0	-2.4340057
125	0xbfb07c91	-1.3788015
126	0x3e07808b	0.13232629
127	0xbf064f38	-0.5246463
128	0xbdf4dcae	-0.11956154
129	0x3e3afc83	0.18260388
130	0xbedf6b88	-0.43636727
131	0x3ef3696c	0.47541368
132	0x3f17b068	0.5925355
133	0xbf3fac44	-0.7487223
134	0xbf3c0fe6	-0.7346176
135	0xbf07e40e	-0.5308236
136	0xbe7d247b	-0.24720947
137	0xbe32d654	-0.17464572
138	0xbd290d81	-0.041272644
139	0x3f32d1ff	0.6985168
140	0xbf3b58af	-0.73182195
141	0xc017c268	-2.3712406
142	0xbe8fbca7	-0.28073618
143	0xbf481aad	-0.78165704
144	0xbee44f03	-0.4459153
145	0x3e3bd8af	0.18344377
146	0xbf6cbb1b	-0.92473
147	0x3e8d6785	0.27618042
148	0x3f0fdf59	0.56200176
149	0x3d8ee2c6	0.06976847
150	0x3c0ed56d	0.008717877
151	0xbfbbb8cd	-1.4665772
152	0x3eed426f	0.46339747
153	0xbe618d65	-0.22026594
154	0xc02447ea	-2.5668893
155	0x3eb90ddf	0.36143395
156	0xbd9c0e4d	-0.07619915
157	0x3ef6c206	0.48194903
158	0x3fc1b279	1.513259
159	0xbdcffbaf	-0.10155427
160	0xbec2ef72	-0.38073307
161	0x3f9018eb	1.1257604
162	0xbe92ce75	-0.2867314
163	0xbfbdbcd3	-1.482325
164	0xbf8c4092	-1.0957205
165	0x3fc8b0e9	1.5678989
166	0x3dc513d0	0.096229196
167	0x3eb8ee13	0.36119136
168	0x3ed545c7	0.41654798
169	0x3f987c57	1.1912946
170	0xbe135142	-0.14386466
171	0xbec53f8d	-0.38525048
172	0xbcc5c25a	-0.024140526
173	0x3e993875	0.29925886
174	0xbed0fb5a	-0.40816766
175	0xbf343bbd	-0.70403653
176	0x3e0ee0e7	0.13952981
177	0xbdfecd19	-0.12441463
178	0xbec37e82	-0.38182455
179	0x3f34d34f	0.7063493
180	0x3e05e735	0.1307648
181	0x3e26c55a	0.16286221
182	0x3e1db61b	0.15401499
183	0x3eb308f2	0.34967762
184	0xbdd48e6d	-0.10378728
185	0xbf3e6201	-0.7436829
186	0x3f276e4d	0.6540268
187	0xbe921a0b	-0.28535494
188	0xbffb496a	-1.9631779
189	0x3f20c1e4	0.62795854
190	0x3e799be6	0.24375877
191	0x3daf18ee	0.08549677
192	0x3ea782c1	0.32716945
193	0x3f0ed42d	0.55792505
194	0xbe7be168	-0.24597704
195	0xbe56e7cb	-0.2098686
196	0x3eb7510f	0.3580403
197	0xbfb8366d	-1.439161
198	0xbed3e529	-0.41385773
199	0x3f84b458	1.0367537
200	0x3f846cf1	1.0345746
201	0xbe9b5111	-0.30335286
202	0x3e42622b	0.1898276
203	0x3f53ed12	0.82783616
204	0x3cae5cef	0.021284549
205	0x3ef34a3c	0.47517574
206	0x3e906879	0.28204706
207	0xbea8c373	-0.32961616
208	0x3dbb124c	0.09134349
209	0xbf56f459	-0.83966595
210	0x3f2691e7	0.6506638
211	0x3df3b9f2	0.11900701
212	0x3de6e080	0.11273289
213	0x3e0ab446	0.13545331
214	0x3e853f3d	0.2602481
215	0x3f320757	0.6954245
216	0xbeab2426	-0.33426017
217	0x3f83f687	1.0309609
218	0x3dfd5e1d	0.12371466
219	0xbe7633ad	-0.2404315
220	0xbf832bca	-1.0247738
221	0xbf1276cf	-0.5721254
222	0xbf132ba8	-0.5748849
223	0x3fd492fe	1.6607358
224	0x3f7e4e50	0.99338245
225	0xbdc19d24	-0.094538
226	0xbeff6d47	-0.4988806
227	0x3edd5277	0.43226978
228	0x3f87bf66	1.0605285
229	0x3f91290a	1.1340649
230	0x3fdf95a7	1.7467545
231	0x3fd56e09	1.6674205
232	0x3da40f00	0.080106735
233	0xbd27fb09	-0.04101089
234	0xbba94de2	-0.005166755
235	0xbde5d4b8	-0.112222135
236	0xbeed7c62	-0.4638396
237	0xbdd1e0b5	-0.102479376
238	0x3d8a0cb4	0.06740704
239	0x3e98fa2d	0.2987837
240	0x3f01b1a5	0.5066169
241	0xbebf4943	-0.37360582
242	0xbf2288ef	-0.63490194
243	0xbf43b492	-0.76447403
244	0xbda52f69	-0.080656834
245	0x3eb876bb	0.36028084
246	0xbf0bd2c6	-0.5461849
247	0x3f0a6bec	0.54070926
248	0xbf0576f8	-0.52134657
249	0x3be933bd	0.0071167634
250	0x3eb10b56	0.3457896
251	0xbf17309e	-0.5905856
252	0xbe92b11b	-0.28650746
253	0xbf0fd4e8	-0.56184244
254	0xbf27d371	-0.6555701
255	0xbea77494	-0.3270613

encoder.weight_hh_l1 f4 [136, 34]
0	0x3f8458cc	1.0339599
1	0x3f498105	0.78712493
2	0xbe3d30a0	-0.1847558
3	0x3e380175	0.17969306
4	0xbec2b4b6	-0.38028497
5	0xbd884404	-0.06653598
6	0xbeb2e088	-0.3493693
7	0xbe341c4f	-0.17588924
8	0x3f460f0e	0.7736672
9	0x3e8ad497	0.27115318
10	0x3f34a999	0.70571285
11	0xbf37d4cf	-0.71809095
12	0x3f325d10	0.6967325
13	0xbe7dd728	-0.24789107
14	0x3dbc9556	0.09208171
15	0xbf22d3b5	-0.6360429
16	0x3fb26f51	1.3940221
17	0xbeee0c6a	-0.46493846
18	0xbecdbbed	-0.40182438
19	0xbd778fd6	-0.060439907
20	0xbdfb67ea	-0.122756794
21	0xbe4c38d4	-0.19943553
22	0x3d963d26	0.07335882
23	0x3f712e7d	0.9421156
24	0xbf59b09b	-0.85035104
25	0xbf1e0468	-0.61725473
26	0x3f9dbf20	1.2323952
27	0xbf38e32e	-0.7222165
28	0xbe096b87	-0.13419925
29	0x3d7f80ff	0.06237888
30	0xbf8cea80	-1.1009064
31	0xbea6af89	-0.32555798
32	0xbeb39830	-0.35077047
33	0xbe80c870	-0.25152922
34	0x3ec79107	0.38977835
35	0xbfd810c3	-1.6880115
36	0x3e5fbea3	0.21850066
37	0x3fa68f11	1.301241
38	0xbf652945	-0.895161
39	0xbf81fa7e	-1.0154569
40	0xbf0acd14	-0.54219174
41	0x3f614db6	0.880092
42	0xbf2eb707	-0.6824803
43	0xbdc33021	-0.09530664
44	0xbf05c23a	-0.5224949
45	0xbf120cb4	-0.57050633
46	0xbf4c9637	-0.7991671
47	0x3e075cfe	0.13219067
48	0xbe584053	-0.21118288
49	0x3f96c869	1.177991
50	0x3f1b0c64	0.6056578
51	0x3ebe787f	0.37201306
52	0x3f52541f	0.8215961
53	0x3e13c10c	0.1442911
54	0x3e1d809e	0.15381095
55	0x3f137444	0.5759928
56	0xbf8afb45	-1.0857931
57	0xbe6eb67d	-0.23311801
58	0x3fc1d830	1.51441
59	0xbd88f789	-0.066878386
60	0xbe98749f	-0.29776475
61	0xbf1bca72	-0.6085578
62	0x3f8ca2fc	1.0987239
63	0xbf5a9b9a	-0.8539368
64	0xbdee601e	-0.11639427
65	0xbe56d268	-0.20978701
66	0xbe0af8bb	-0.13571446
67	0x3ccacc1a	0.024755526
68	0xbedadf41	-0.42748454
69	0x3ea2bd70	0.31785154
70	0xbfade1c3	-1.3584522
71	0xbdc29261	-0.09500576
72	0xbee7b8e7	-0.45258257
73	0xbf8a5a3a	-1.0808785
74	0x3f721ae0	0.9457226
75	0xbebe7724	-0.37200272
76	0x3f04ba20	0.51846504
77	0xbf435376	-0.76299226
78	0x3f52613c	0.8217962
79	0xbefd9d6f	-0.49534175
80	0xbefe5181	-0.49671558
81	0x3f5dae3d	0.8659399
82	0x3e2f4dc6	0.17119512
83	0x3feb3365	1.8375059
84	0x3ec2edca	0.38072044
85	0xbf503538	-0.81331205
86	0xbf540d9a	-0.82833254
87	0xbeee4e27	-0.46544
88	0xbf8ae823	-1.0852093
89	0x3f6fae3e	0.9362525
90	0xbf07974b	-0.5296523
91	0x3ed16f90	0.40905428
92	0x3b8b33be	0.0042481115
93	0xbf21ce65	-0.6320556
94	0x3f46f11e	0.77711666
95	0x3f5e58d9	0.8685432
96	0xbeb59f8c	-0.35473287
97	0x3f2340d0	0.6377077
98	0xc005abfb	-2.0886219
99	0xbfd04a44	-1.6272664
100	0xbe47866c	-0.19484872
101	0x3f6a3693	0.91489524
102	0xbc61c0c6	-0.013778871
103	0x3e83110a	0.25598937
104	0x3f634050	0.8877001
105	0x3f045f03	0.51707476
106	0xbd325963	-0.043542277
107	0xbf9edfc9	-1.2412044
108	0x3ed02503	0.40653238
109	0x3fe4d4e0	1.7877464
110	0x3ecf7c45	0.40524498
111	0xbfa804c8	-1.3126459
112	0xbf044229	-0.5166345
113	0xbf06d3a3	-0.5266668
114	0xbf0b56e9	-0.5442949
115	0x3fdeaff1	1.7397443
116	0xbd5cdd33	-0.05392189
117	0x3f561ccf	0.8363771
118	0x3dc6e933	0.09712448
119	0xbeccb3b1	-0.39980844
120	0xbf83dfa5	-1.0302626
121	0x3f03ed19	0.5153366
122	0x3ecec0d8	0.40381503
123	0x3ebaa870	0.36456633
124	0xbcd31011	-0.025764497
125	0x3db60d97	0.08889311
126	0x3c72f017	0.01482775
127	0xbf46caf0	-0.7765341
128	0xbe1c7641	-0.15279485
129	0x3f51f20a	0.8200995
130	0x3f6f94d8	0.9358649
131	0x3fe9f808	1.8278818
132	0x3ef5795f	0.4794416
133	0xbf4f9357	-0.810842
134	0x3e3f537c	0.1868419
135	0x3f364d93	0.7121212
136	0xbcc4807c	-0.023987047
137	0x3f93fde8	1.1561861
138	0xbf833e61	-1.0253412
139	0xbec1aa34	-0.37825167
140	0x3e6a21bf	0.22864436
141	0xbf9178d0	-1.1364994
142	0xbfb23561	-1.392254
143	0x3e878acf	0.2647309
144	0xbe56e5d3	-0.20986108
145	0x3f9827db	1.1887163
146	0x3ddda68a	0.108227804
147	0x3f34ffa5	0.7070258
148	0x3e21944f	0.15779231
149	0x3eb71636	0.35759133
150	0x3e8f2c61	0.27963546
151	0xbe503951	-0.20334364
152	0xbea375d4	-0.31925833
153	0x3e85271d	0.26006404
154	0x3de664d7	0.112497024
155	0x3f1a5b18	0.6029525
156	0x3f28e1ab	0.6596934
157	0x3f417bab	0.7557933
158	0x3d84444c	0.06458339
159	0x3e9a603e	0.30151552
160	0x3ba64c2f	0.0050749998
161	0x3e988155	0.29786173
162	0x3f31e51f	0.69490236
163	0xbdb5a0df	-0.08868574
164	0x3e9282e9	0.28615502
165	0x3e8504c4	0.25980198
166	0xbd92dd54	-0.07171121
167	0x3e569410	0.20954919
168	0x3dbec9a6	0.09315805
169	0xbee924ea	-0.45535976
170	0x3ee8223a	0.45338613
171	0x3e9915f5	0.29899564
172	0xbf3a8c09	-0.72869927
173	0xbf073c58	-0.5282645
174	0xbe77a24a	-0.24183002
175	0xbed24a4a	-0.41072303
176	0x3f28bc3d	0.6591223
177	0xbf172a98	-0.5904937
178	0x3e936d56	0.28794354
179	0xbed09127	-0.40735742
180	0xbe651d85	-0.22374542
181	0xbef04307	-0.46926138
182	0xbe8d7838	-0.27630782
183	0x3ddb4658	0.107067764
184	0x3f85cb67	1.0452698
185	0xbe1b13aa	-0.1514422
186	0x3ebf1364	0.3731948
187	0x3d3919ba	0.04519055
188	0xbea91de1	-0.33030608
189	0x3e922236	0.28541726
190	0xbe0f5c69	-0.14000095
191	0x3f20d652	0.62827027
192	0x3dd08eaf	0.10183465
193	0xbf1a1a69	-0.6019655
194	0x3f1f2498	0.6216521
195	0xbe319f0f	-0.17345832
196	0x3cec635d	0.028855974
197	0x3f17aef8	0.59251356
198	0xbf577b22	-0.8417226
199	0x3f3629f1	0.7115775
200	0xbf1fce36	-0.6242403
201	0x3e5d0dd9	0.21587314
202	0x3e96e4d1	0.29471448
203	0x3e926f69	0.28600624
204	0x3fa28d50	1.2699375
205	0x3f7da554	0.99080396
206	0xbe084896	-0.1330894
207	0xbe5c5906	-0.21518335
208	0x3fe1a290	1.7627735
209	0xbfcc8f1a	-1.5981171
210	0x3ddeb2b4	0.10873929
211	0x3e11ca95	0.14237435
212	0x3f1d18e2	0.61366093
213	0xbf04ecd4	-0.5192387
214	0xbde9cd5a	-0.11416121
215	0x3f3cee81	0.7380143
216	0x3c772e54	0.015086729
217	0x3f95bef2	1.1698897
218	0xbe09a9d5	-0.13443692
219	0xbe700a0f	-0.23441337
220	0xbe0a3800	-0.13497925
221	0x3e273c39	0.16331567
222	0x3efb4291	0.49074224
223	0x3eac3bb6	0.33639306
224	0x3fc7b6b7	1.5602635
225	0xbed14af2	-0.4087749
226	0x3d8692e9	0.0657099
227	0xbe368cd0	-0.17827153
228	0xbea03dac	-0.31297052
229	0xbf9c96d8	-1.2233534
230	0xbf5b2747	-0.8560681
231	0xbeb6efeb	-0.35729918
232	0xbf40ed87	-0.7536244
233	0x3e7880fd	0.24267955
234	0xbe8944d2	-0.26810318
235	0xbe06837d	-0.13136096
236	0x3df54b6f	0.119772784
237	0x3e5d0f7e	0.21587941
238	0x3f8c5a47	1.096505
239	0xbf8a00c7	-1.0781487
240	0xbf9c0f27	-1.2192124
241	0xbe7742ed	-0.24146624
242	0xbfa0fef3	-1.2577804
243	0xbe3cdfa2	-0.18444684
244	0xbfbc63d5	-1.4717966
245	0xbf381d74	-0.7191994
246	0x3ffe9fb5	1.9892489
247	0xbd3a00d1	-0.045410935
248	0xc00e5f4b	-2.2245662
249	0x3ee8b8ff	0.4545364
250	0x3f9fcfcd	1.2485291
251	0xbf148735	-0.5801881
252	0x3f4c2a34	0.79751897
253	0xbe54ce9a	-0.20781937
254	0xbef657ab	-0.4811376
255	0xbf811464	-1.0084348

encoder.bias_ih_l1 f4 [136]
0	0xbe5d33ba	-0.21601763
1	0x3ef7144e	0.4825768
2	0xbe1c97e5	-0.15292318
3	0x3dce7dc5	0.100825824
4	0xbe79d8a1	-0.24399044
5	0x3e7da89c	0.2477135
6	0x3da6e2fe	0.08148764
7	0x3dcb6718	0.09931773
8	0xbcfe2950	-0.031025559
9	0xbecbce94	-0.39806044
10	0x3e2f2b12	0.17106274
11	0x3f855a0f	1.0418109
12	0xbd66119b	-0.056169134
13	0xbeb7b8d1	-0.3588319
14	0x3f09a38b	0.5376517
15	0x3f3154f9	0.69270283
16	0xbd9ed93d	-0.07756279
17	0xbe4a381b	-0.19747965
18	0xbec906bf	-0.3926296
19	0x3e8e7361	0.27822402
20	0x3eaa6e3c	0.33287227
21	0xbf17900c	-0.59204173
22	0xbf172d1c	-0.59053206
23	0x3f5ede6b	0.8705813
24	0xbebada9b	-0.36494908
25	0x3ef4b15b	0.4779156
26	0xbdefe29e	-0.11713146
27	0x3e7a5300	0.24445724
28	0xbf0f27a4	-0.5591986
29	0xbea3c314	-0.3198477
30	0xbe9e9de7	-0.30979845
31	0xbe97adcc	-0.29624784
32	0x3e2bb942	0.16769889
33	0xbe219528	-0.15779555
34	0x3f095ccd	0.5365723
35	0xbe6b40f5	-0.22973998
36	0x3da27d83	0.07934096
37	0xbe8dd26e	-0.27699608
38	0x3e6cad0b	0.23112886
39	0xbe698b0c	-0.22806948
40	0x3d04ccab	0.03242175
41	0xbd0b6fe5	-0.034042258
42	0x3e9ca4d4	0.30594504
43	0xbb0fc541	-0.002193764
44	0xbd6bccd8	-0.0575684
45	0x3e92844b	0.28616557
46	0xbe24e299	-0.16102065
47	0x3e0edf56	0.13952383
48	0xbf0262bc	-0.50931907
49	0xbe14f7ec	-0.145477
50	0x3ebea55a	0.37235528
51	0xbceab88a	-0.028652448
52	0x3dc1b525	0.09458379
53	0x3f0a82b2	0.54105675
54	0xbe95fadf	-0.29292962
55	0xbdc9ece2	-0.09859635
56	0xbd484f02	-0.048903473
57	0x3db4284e	0.0879675
58	0x3e688b0e	0.22709295
59	0xbf23964e	-0.6390122
60	0x3f0f0e67	0.5588135
61	0xbea9fb34	-0.33199465
62	0xbe3a2198	-0.18176877
63	0x3f1f617f	0.6225814
64	0x3e6976ac	0.22799176
65	0x3e1afd61	0.15135719
66	0x3dd64c07	0.1046372
67	0xbeac27bd	-0.33624068
68	0x3e862a93	0.26204357
69	0xbcbbe85b	-0.022937944
70	0xbe2dd94d	-0.16977425
71	0x3da5a0c7	0.080873065
72	0x3d8606a3	0.065442346
73	0x3c3778ae	0.011198206
74	0x3e5d0c7a	0.2158679
75	0xbe720463	-0.23634486
76	0xbee390cd	-0.44446412
77	0xbd884b87	-0.06655031
78	0xbf1affb2	-0.6054641
79	0x3f1d78e0	0.61512566
80	0x3eeb089e	0.45905012
81	0xbe44f4a2	-0.19233945
82	0x3e15c430	0.14625621
83	0xbe61a297	-0.2203468
84	0xbe2c9e10	-0.16857171
85	0xbe840bb0	-0.25790167
86	0x3de1291b	0.10994168
87	0xbf220d80	-0.6330185
88	0xbdaaa819	-0.08332843
89	0xbe7f120c	-0.24909228
90	0xbda3382e	-0.079697
91	0x3ed701bc	0.4199351
92	0x3e90adcf	0.28257605
93	0x3e99b7c7	0.30023023
94	0xbd659ee2	-0.056059726
95	0x3c7364cc	0.014855575
96	0xbe13e836	-0.1444405
97	0x3e2676f1	0.1625631
98	0xbea44304	-0.3208238
99	0x3ea9fac8	0.33199143
100	0xbf4ab842	-0.79187405
101	0x3f0a1696	0.53940713
102	0xbe67a323	-0.22620825
103	0x3ebe9e9f	0.37230393
104	0x3eaf3e01	0.34226993
105	0x3e2d7934	0.16940767
106	0x3f1da378	0.6157756
107	0xbf08b77a	-0.53404963
108	0xbe2b080d	-0.1670229
109	0xbe8cf132	-0.27527767
110	0x3e7f8191	0.2495177
111	0x3e02cc67	0.12773286
112	0x3ede3d07	0.43405935
113	0x3f850209	1.0391246
114	0xbe6db726	-0.23214397
115	0xbf0a1794	-0.5394223
116	0x3eab3051	0.334353
117	0x3ee0749b	0.43838963
118	0x3d9effa9	0.07763607
119	0x3dc3a47d	0.09552858
120	0xbc970650	-0.018435627
121	0xbeb64f21	-0.35607246
122	0x3e91409a	0.283696
123	0xbf080db3	-0.53145903
124	0xbd9900e4	-0.07470873
125	0x3f171289	0.5901266
126	0x3e488596	0.19582209
127	0x3f71ad48	0.9440503
128	0x3d0512ed	0.032488752
129	0xbdcdb9d6	-0.10045211
130	0xbecf03ec	-0.4043268
131	0x3e27b3de	0.16377208
132	0xbf0921c4	-0.5356715
133	0x3e20220d	0.1563799
134	0x3e26ec5e	0.16301104
135	0xbc82933a	-0.015939344

encoder.bias_hh_l1 f4 [136]
0	0xbe2b3566	-0.16719589
1	0x3f23370d	0.63755876
2	0xbdc9a3e5	-0.098457135
3	0x3e6374e7	0.22212563
4	0xbe8b0101	-0.27149203
5	0x3e40b79a	0.18820038
6	0x3e941515	0.28922334
7	0x3e8bee7a	0.2733038
8	0x3df8ec92	0.12154497
9	0xbea371ab	-0.3192266
10	0x3e116ecb	0.1420242
11	0x3f7316b8	0.9495654
12	0xbdc137aa	-0.09434445
13	0xbe91c7f6	-0.2847287
14	0x3ecde7d4	0.40215933
15	0x3f46a85a	0.77600634
16	0xbe9e358d	-0.3090023
17	0xbeb4bf58	-0.35302234
18	0xbec2ea77	-0.38069507
19	0x3e4024c7	0.1876403
20	0x3de69443	0.112587474
21	0xbf0baa1f	-0.5455646
22	0xbed75cba	-0.42062932
23	0x3f447edc	0.7675607
24	0xbebd54f7	-0.36978886
25	0x3e8b10d5	0.2716128
26	0xbd914b33	-0.07094421
27	0x3e80d97b	0.25165924
28	0xbf032941	-0.51234823
29	0xbe819fb0	-0.25317144
30	0xbe9209c2	-0.2852307
31	0xbe73fcad	-0.23826857
32	0xbba669b3	-0.0050785183
33	0xbe622d90	-0.22087693
34	0x3e937e46	0.28807276
35	0xbe3b073f	-0.18264483
36	0x3eadd283	0.3394967
37	0xbe6acd01	-0.22929765
38	0x3eb180c2	0.34668547
39	0xbe9a3209	-0.301163
40	0x3dc59108	0.09646803
41	0x3ded740f	0.11594402
42	0x3e93b415	0.2884833
43	0xbcd14d6e	-0.025549617
44	0x3afa8942	0.0019114392
45	0x3d842684	0.06452659
46	0xbdba7ac9	-0.09105451
47	0x3dbf1b5f	0.093313925
48	0xbefa5a5f	-0.48897073
49	0xbe8b3f23	-0.27196607
50	0x3e8853bd	0.26626387
51	0x3c6d52c9	0.01448507
52	0xbe04342e	-0.1291053
53	0x3eaf369b	0.34221348
54	0xbf032386	-0.5122608
55	0xbd2cd5a7	-0.042195942
56	0xbe592983	-0.21207242
57	0xbe2e8535	-0.17043002
58	0x3eb29b44	0.34884083
59	0xbf085522	-0.532549
60	0x3ee962ca	0.45583183
61	0xbe241187	-0.16022311
62	0xbe145b00	-0.14487839
63	0x3ee40efd	0.44542685
64	0x3e438f92	0.19097736
65	0x3e8b04f5	0.2715222
66	0xbd0734ee	-0.033009462
67	0xbe25f9cc	-0.16208571
68	0x3e89889a	0.2686203
69	0xbe0919c7	-0.1338874
70	0xbebc56f3	-0.36785087
71	0xbbcb4796	-0.006203602
72	0xbd4b520c	-0.049638793
73	0x3e0d37fe	0.1379089
74	0x3dfd0c2c	0.12355837
75	0xbebb3735	-0.36565557
76	0xbebede4f	-0.37278983
77	0x3d0a237e	0.033725254
78	0xbf1cc754	-0.6124165
79	0x3f05200d	0.5200203
80	0x3e42d700	0.19027328
81	0xbd0d32ba	-0.034472205
82	0x3e67833e	0.22608659
83	0x3b1001ff	0.0021973846
84	0xbe75d8eb	-0.24008529
85	0xbe165aa2	-0.14683011
86	0x3e7adf5d	0.24499269
87	0xbf05040c	-0.519593
88	0xbe7cc3ee	-0.24684116
89	0xbd0e8c42	-0.03480173
90	0xbe966128	-0.29371
91	0x3dc72d23	0.09725406
92	0x3ec297e6	0.38006514
93	0x3e582ee7	0.21111642
94	0xbd75a968	-0.05997601
95	0x3e00e275	0.12586387
96	0xbe27e20c	-0.16394824
97	0xbd3776b9	-0.044790957
98	0xbead30d0	-0.33826303
99	0x3df19985	0.1179686
100	0xbf38eba2	-0.7223455
101	0x3f0c35ba	0.5476948
102	0xbcf222e1	-0.029557647
103	0x3efd5447	0.4947836
104	0x3db29654	0.08720079
105	0x3d7ab792	0.061210223
106	0x3f28b0b2	0.65894616
107	0xbec0fa42	-0.37690932
108	0xbed575e4	-0.41691506
109	0xbea635d3	-0.3246294
110	0x3ebf1a26	0.37324637
111	0x3d47050f	0.04858881
112	0x3f0ce782	0.5504075
113	0x3f8a3bd4	1.0799508
114	0xbe616ff1	-0.22015359
115	0xbed170d4	-0.40906394
116	0x3e2bbbf0	0.16770911
117	0x3f0d8797	0.5528502
118	0x3dede3aa	0.11615689
119	0xbdf13f46	-0.117796466
120	0x3d9d369f	0.07676434
121	0xbec2c065	-0.3803741
122	0x3e4ffe10	0.20311761
123	0xbf37b47a	-0.7175976
124	0xbe0ca123	-0.13733344
125	0x3ed76bc5	0.4207441
126	0x3e3723c8	0.17884743
127	0x3f5843ab	0.84478253
128	0x3ddede99	0.10882301
129	0xbe371c75	-0.17881949
130	0xbf09b137	-0.53786033
131	0x3e9927c2	0.29913145
132	0xbea1c3a8	-0.31594586
133	0x3e1ee925	0.15518625
134	0x3e96aebd	0.2943019
135	0x3e83595e	0.2565412

lstm.weight_ih_l0 f4 [136, 34]
0	0x3e97e1cb	0.29664454
1	0x3f19d70f	0.6009378
2	0xbf1904eb	-0.5977313
3	0x3f2da2cc	0.67826533
4	0xbecff6a8	-0.4061787
5	0xbf3dbc02	-0.74115
6	0xbf12198a	-0.5707022
7	0xbf82765e	-1.0192373
8	0x3ee99590	0.4562192
9	0xbf33852a	-0.7012507
10	0x3ea35dc3	0.31907472
11	0x3e38e90a	0.18057647
12	0xbe2f377d	-0.17111011
13	0x3ee63925	0.44965473
14	0x3eb72c5f	0.3577604
15	0xbf0247d7	-0.5089087
16	0x3fa5a659	1.294139
17	0xbefd541a	-0.49478227
18	0xbe853443	-0.26016435
19	0x3edace0e	0.42735332
20	0x3bdb8a32	0.006699824
21	0x39879cea	0.00025866117
22	0x3efac850	0.4898095
23	0x3e802f0b	0.2503589
24	0xbe632591	-0.22182299
25	0xbf3e20b1	-0.74268633
26	0x3c01885a	0.007906044
27	0x3ee99f46	0.45629328
28	0x3ed79cb1	0.42111734
29	0x3f900a3f	1.1253127
30	0x3e16db62	0.14732125
31	0xbeff0fdd	-0.4981679
32	0x3e71daa0	0.23618555
33	0x3f15e8a9	0.58558136
34	0x40451012	3.0791059
35	0x3efe34c8	0.49649644
36	0x3b5d53b2	0.003377181
37	0xbfc9ff23	-1.5780987
38	0x3e985e0e	0.29759258
39	0xbf90e5d8	-1.1320143
40	0x3f41070c	0.7540138
41	0x3f1f1104	0.6213534
42	0x3f5960e8	0.8491349
43	0x3eafa050	0.34301996
44	0xbef8b843	-0.4857808
45	0xbe951a46	-0.29121608
46	0xbe9cf8cb	-0.30658564
47	0x3f5c1f25	0.8598502
48	0xbdab06ff	-0.08350944
49	0x3dd8ca4d	0.10585461
50	0xbf801b56	-1.0008342
51	0xbf1c4c90	-0.61054325
52	0xbf942574	-1.157393
53	0xbe88ea49	-0.26741245
54	0x3f471e46	0.7778057
55	0xbe8a5eef	-0.27025554
56	0xbc33fa60	-0.010984987
57	0x3ee1573e	0.44011873
58	0xbe4cabd1	-0.19987418
59	0x3d489d69	0.048978243
60	0xbfc7f982	-1.5623019
61	0x3e05cb48	0.13065827
62	0x3d055ca1	0.03255904
63	0x3f1ee2ee	0.6206502
64	0xbfd36700	-1.6515808
65	0xbf001695	-0.5003446
66	0x3f33c0f3	0.7021629
67	0x3e2f717e	0.17133138
68	0x3f22c3e5	0.6358016
69	0x3e834bc6	0.25643748
70	0xbe1127e0	-0.14175367
71	0xbe201154	-0.1563161
72	0xbf4dfbcc	-0.80462337
73	0xbe7ceb62	-0.24699166
74	0x3f132f94	0.57494473
75	0xbf151fa1	-0.58251387
76	0x3ebd2f51	0.36950162
77	0xbf150fa7	-0.5822701
78	0xbeab21dc	-0.3342427
79	0xbe0878ca	-0.13327327
80	0x3ef4e9be	0.4783458
81	0x3d9ca4cc	0.0764862
82	0x3f2f9448	0.68585634
83	0x3e5bb9d6	0.2145761
84	0x3f632c98	0.8873992
85	0x3d0709c6	0.032968305
86	0xbf83fbc2	-1.0311205
87	0x3d64d70b	0.055869143
88	0x3d6bfbd1	0.057613198
89	0xbd6c7ac6	-0.057734273
90	0xbed5a948	-0.41730714
91	0x3d02de66	0.031950377
92	0x3f054f66	0.5207428
93	0xbc189763	-0.009313437
94	0x3be41e0b	0.006961589
95	0x3f9c05eb	1.2189306
96	0xbdb24200	-0.08703995
97	0x3f83e217	1.0303372
98	0xc011358b	-2.268893
99	0xbf0b31aa	-0.54372656
100	0x3c819c3d	0.01582157
101	0x3dc31f83	0.09527495
102	0xbe1cfbac	-0.1533038
103	0xbfb24664	-1.3927732
104	0xbf1c8e45	-0.61154586
105	0x3f6cb17c	0.9245832
106	0x3e3e53c7	0.18586646
107	0x3f76ff56	0.9648336
108	0xbfa11115	-1.2583338
109	0x3ee50060	0.4472685
110	0x3f0db5c6	0.5535549
111	0xbf280c7d	-0.65644056
112	0xbf5b3dfa	-0.85641444
113	0xbf13e08a	-0.57764494
114	0x3dd17569	0.10227472
115	0xbed9cadd	-0.42537585
116	0x3efe926a	0.4972108
117	0x3e63e2f8	0.2225455
118	0x3db5fb91	0.08885873
119	0x3e98a0d4	0.29810202
120	0xbf8dc459	-1.1075546
121	0xbec883dd	-0.39163104
122	0x3e35f90c	0.17770785
123	0xbf11c5b6	-0.5694231
124	0x3e33e625	0.17568262
125	0xbfa303f2	-1.2735579
126	0x3fd9949b	1.6998476
127	0x3f809116	1.0044277
128	0xbeee0dc4	-0.46494877
129	0x3edbc42b	0.42923102
130	0x3f88177e	1.0632169
131	0x3e723eb5	0.23656733
132	0xbf86f519	-1.0543548
133	0xbee35505	-0.44400802
134	0xbf0de619	-0.55429226
135	0xbe5a507f	-0.2131977
136	0xbdbdfdd0	-0.092769265
137	0xbeb3dcbb	-0.3512934
138	0x3dac911f	0.08426117
139	0xbe9a2251	-0.30104306
140	0xbf94c30e	-1.1622026
141	0x3ec51fe7	0.38500902
142	0x3f137d35	0.57612926
143	0x3f76fab5	0.964763
144	0x3da06485	0.078316726
145	0x3ecfe3aa	0.4060338
146	0xbf2710cb	-0.6526
147	0xbf018e52	-0.5060779
148	0x3dac95ec	0.08427033
149	0xbc876b03	-0.01653052
150	0xbd87f88c	-0.066392034
151	0x3e9528bc	0.2913264
152	0xbea41256	-0.3204524
153	0xbda776c0	-0.08176947
154	0x3ebc507c	0.36780155
155	0x3edc3401	0.43008426
156	0xbf88178a	-1.0632184
157	0xbf05bedd	-0.5224436
158	0x3e4c0d77	0.19927011
159	0x3ec8a05c	0.39184844
160	0x3f62a6c3	0.8853571
161	0x3f432c3c	0.7623937
162	0x3f28e562	0.6597501
163	0x3fd2ac90	1.6458912
164	0x3f649b97	0.8929991
165	0xbe28adb9	-0.1647252
166	0xbd4717f8	-0.048606843
167	0x3ec9246b	0.39285597
168	0x3f0c5658	0.5481925
169	0x3ebbf0d0	0.36707163
170	0x401a585f	2.4116437
171	0xc02abd74	-2.6678133
172	0xbe1382f3	-0.14405422
173	0x3fe7df15	1.8114954
174	0xc0272a5e	-2.611961
175	0x3dd46c02	0.10372163
176	0xbf0f04ac	-0.55866504
177	0xbf71cf7c	-0.9445722
178	0x3ed9a235	0.42506567
179	0xbf4a682b	-0.790652
180	0xbf22b057	-0.63550323
181	0xbe93e353	-0.28884372
182	0x3f1feb0f	0.62468046
183	0x3e1004f3	0.14064388
184	0xbe8422e9	-0.25807884
185	0x3f00da4e	0.50333107
186	0xbb8347eb	-0.004006376
187	0xbe889749	-0.2667792
188	0xbd0ae30f	-0.033907946
189	0xbf59d20c	-0.8508613
190	0xbfcf1d6a	-1.6180851
191	0x3d4521bf	0.048127886
192	0x3ee10d84	0.43955624
193	0x3f87e8ec	1.0617957
194	0x3fda8309	1.7071239
195	0x3e46fd36	0.1943253
196	0xbf15af75	-0.5847085
197	0x3ffb65b8	1.9640417
198	0x3eadc5be	0.33939928
199	0x3f93b28b	1.1538862
200	0xbf4c3752	-0.7977191
201	0xbe3f8e1d	-0.18706556
202	0xc01b96eb	-2.4310863
203	0x3f05ebc1	0.52312857
204	0x3f26805c	0.6503961
205	0xbd4a0732	-0.04932327
206	0xbdb251c3	-0.08707001
207	0xbdbdda88	-0.09270197
208	0x3f42355f	0.7586269
209	0x3f803a80	1.0017853
210	0xbd65f605	-0.056142826
211	0x3e166410	0.14686608
212	0x3e189506	0.14900598
213	0x3e5b135e	0.21394107
214	0x3f17a0e4	0.59229875
215	0xbeea0319	-0.45705488
216	0xbe50faf4	-0.20408231
217	0x3e827e9d	0.25487223
218	0xbea2bf7d	-0.3178672
219	0x3e2e5751	0.17025496
220	0xbe96208d	-0.2932171
221	0x3e2f7feb	0.1713864
222	0xbcc9c492	-0.024629865
223	0xbe960dff	-0.29307553
224	0xbe880022	-0.265626
225	0x3e34adb7	0.17644392
226	0xbf8f334c	-1.118753
227	0x3f350c46	0.7072185
228	0xbf462268	-0.7739625
229	0xbd5450d8	-0.05183491
230	0x3e4dd2cd	0.20099945
231	0x3e9aa00f	0.3020024
232	0x3eb364bf	0.350378
233	0xbed1ddc8	-0.40989518
234	0xbe84bcf5	-0.25925413
235	0x3f2922b3	0.6606857
236	0x3ded44a9	0.115853615
237	0xbed4fb77	-0.41598102
238	0x3e96750a	0.2938617
239	0xbf82840c	-1.0196548
240	0xbffff948	-1.999795
241	0x3f6c936b	0.9241244
242	0xbe7e2c7f	-0.24821661
243	0xbe4d39b7	-0.20041548
244	0xbee91e1c	-0.45530784
245	0xbf79bea6	-0.9755653
246	0x3d015c2c	0.031582043
247	0x3dddc89a	0.10829277
248	0x3e829397	0.25503227
249	0xbebbbde5	-0.36668316
250	0xbed7ae78	-0.42125297
251	0xbf3b7ae5	-0.732344
252	0x3de3d4b0	0.11124551
253	0xbe8795ab	-0.26481375
254	0x3f982ff1	1.188963
255	0xbcaad4d0	-0.02085343
