weights/1/model.pt (torch_old, 146631 bytes, 18 tensors)

encoder.weight_ih_l0 f4 [136, 17]
0.8152363 0.02069141 -0.39017722 0.2441018 -0.19012482 0.41411555 3.2214348 2.4402266
2.1413798 -0.43853307 -0.71368736 0.99353045 0.7736135 0.6324571 0.068768874 0.05767396
0.0044236667 -0.07690736 0.87940115 0.009051824 -0.14115082 -0.13204984 0.10942201 0.11572229
1.0446787 0.10784123 0.20023958 0.39000574 0.35952315 0.4585627 0.5376331 0.3277841
0.28798702 -0.0986046 -0.11512583 -0.034223314 0.17381229 0.023316044 0.123533964 -0.06568218
0.17428511 -0.064781785 0.14131229 0.017368942 -0.07392895 0.11249933 -0.07544503 -0.37628505
-0.13049275 -0.064642906 -0.47766402 -0.062210735 0.06698439 -0.013739693 0.14595096 0.16526544
-0.00718083 -0.11378799 0.10512056 0.05407415 -0.1102207 0.111838795 0.104559936 0.15274063
1.1248896 0.54308844 0.5715628 1.0661705 -0.6117869 -0.74373794 0.11278016 -0.16495596
0.12708136 0.26881656 0.6014683 -2.0577788 0.7712066 0.15326603 -0.06287462 -1.0335519
0.6226732 -1.0014957 0.29918224 0.23147492 -0.16627519 -0.043648463 -0.098133564 0.18281545
0.026524376 0.14763395 0.05514206 -0.08596825 0.029953418 0.04110677 -0.11514911 -0.103914864
0.019844463 0.030783625 -1.005157 0.25414532 0.4520398 0.35821152 0.1389242 0.13821308
-0.047248434 -0.079811215 0.22922695 0.008948848 0.11773651 0.035720665 0.05520795 0.12807274
0.16290268 -0.1100876 0.021523828 0.6731481 0.30322248 0.28518146 0.2060805 0.06373851
0.018748056 0.025206873 0.95456827 -0.035311352 0.35856786 -0.22963029 -0.17047709 0.017210182
0.21393481 -0.035697963 -0.14344767 -0.03796152 0.31460747 0.6012929 0.61243683 -0.047013786
0.10847567 0.044297457 -0.11727418 -0.1440174 -0.07858419 -0.019970313 -0.105120435 0.06274338
0.05307673 -0.038833335 0.0659139 0.05542572 0.10470657 3.0997918 0.42683074 0.6943492
0.69794816 0.06548723 -0.38129008 0.23890713 -0.2036217 0.18184595 0.65430975 -0.43015274
1.2793201 0.9339797 -0.15160733 0.6364074 1.5972371 0.6214794 0.551437 0.27519727
0.18708959 0.73440033 -0.052522764 0.07333885 0.031330973 0.042362973 0.17117362 0.16714723
0.11697011 0.0054611266 -0.11864124 0.1340278 -0.042885527 -0.01386486 -0.14774585 -1.9159552
-0.27782908 -0.011531681 -1.1545864 -0.13368061 -0.0103472825 -0.09453361 0.0562041 -0.06828437
-0.08055075 0.009713277 0.12414746 -0.12063617 0.0805368 0.1101778 0.16775686 -0.12003715
1.8328891 0.37886366 0.6147708 0.19185545 0.10330264 0.005106036 -0.0133570265 -0.005472189
0.029153626 0.08084376 0.027504921 0.052316487 -0.1542672 0.12494315 0.14952342 0.14176174
0.12677564 0.37544376 0.74222356 0.9301995 0.95599484 0.1304123 0.30757937 -0.10609821
0.69624907 0.018247241 -0.09163698 0.56051904 0.5888596 0.51429105 -0.05916181 0.04238464
0.6957161 0.3394801 0.8668031 0.8978977 0.7691905 0.86367947 1.9017208 -0.5579773
-0.17174692 -0.8911912 0.08215967 0.32582843 -0.7881537 -0.40698442 -0.098892316 0.6943245
-0.8838412 -0.3763423 1.1570952 -0.8086709 0.34844422 0.41123718 0.5105825 -0.13864201
00000000: 53b3 503f 0881 a93c 4fc5 c7be d2f5 793e
00000010: 15b0 42be f406 d43e fd2b 4e40 ac2c 1c40
00000020: 5e0c 0940 6887 e0be 37b4 36bf 0358 7e3f
00000030: 890b 463f b5e8 213f b2d6 8c3d 883b 6c3d
00000040: 68f4 903b 9b81 9dbd 6f20 613f 1a4e 143c
00000050: d789 10be 1338 07be a618 e03d cfff ec3d
00000060: 08b8 853f dddb dc3d 9b0b 4d3e d5ae c73e
00000070: 6b13 b83e bbc8 ea3e 53a2 093f 51d3 a73e
00000080: 0973 933e 35f1 c9bd 17c7 ebbd bf2d 0cbd
00000090: d9fb 313e 4a01 bf3c 60ff fc3d 6184 86bd
000000a0: cc77 323e 50ac 84bd 2bb4 103e 5049 8e3c
000000b0: 1068 97bd 0c66 e63d ed82 9abd 6fa8 c0be
000000c0: e49f 05be 8063 84bd 6190 f4be afd0 7ebd
000000d0: 1d2f 893d 731c 61bc 2b74 153e 583b 293e
000000e0: 2b4d ebbb ad09 e9bd 7349 d73d db7c 5d3d
000000f0: 64bb e1bd bd0b e53d 8523 d63d 0a68 1c3e
00000100: 62fc 8f3f d807 0b3f f151 123f 4678 883f
00000110: 119e 1cbf 9c65 3ebf 49f9 e63d 37ea 28be
00000120: 9e21 023e 53a2 893e d4f9 193f a6b2 03c0
00000130: cc6d 453f c5f1 1c3e 69c4 80bd 6e4b 84bf
00000140: 8367 1f3f 0331 80bf 6a2e 993e c307 6d3e
00000150: 0b44 2abe bbc8 32bd 40fa c8bd f933 3b3e
00000160: a649 d93c 5b2d 173e a4dc 613d 1f10 b0bd
00000170: df60 f53c 935f 283d 4cd3 ebbd 51d1 d4bd
00000180: db90 a23c f12d fc3c fca8 80bf 561f 823e
00000190: c371 e73e 8067 b73e 2542 0e3e bb87 0d3e
000001a0: 9387 41bd 1074 a3bd 78ba 6a3e 309e 123c
000001b0: d71f f13d d54f 123d bb21 623d 8025 033e
000001c0: f6cf 263e 9c75 e1bd bd52 b03c 6f53 2c3f
000001d0: fa3f 9b3e 4e03 923e c406 533e 5689 823d
000001e0: 8695 993c a57e ce3c 965e 743f a3a2 10bd
000001f0: 3596 b73e 3424 6bbe 8c91 2ebe 5efc 8c3c
00000200: ba11 5b3e 0738 12bd f2e3 12be 8a7d 1bbd
00000210: 3b14 a13e 55ee 193f a9c8 1c3f 8791 40bd
00000220: 7e28 de3d 4071 353d 722d f0bd 4c79 13be
00000230: bff0 a0bd c898 a3bc 6249 d7bd 9a7f 803d
00000240: fc66 593d b40f 1fbd defd 863d 1406 633d
00000250: 6670 d63d fd62 4640 8f89 da3e dfc0 313f
00000260: bbac 323f 2b1e 863d 7438 c3be 12a4 743e
00000270: 3582 50be d335 3a3e d880 273f fb3c dcbe
00000280: c3c0 a33f 4b19 6f3f f43e 1bbe 98eb 223f
00000290: 4472 cc3f 4619 1f3f fa2a 0d3f a8e6 8c3e
000002a0: 6a94 3f3e a901 3c3f 1c22 57bd ae32 963d
000002b0: e854 003d cc84 2d3d 2348 2f3e a528 2b3e
000002c0: 068e ef3d 40f3 b23b 2efa f2bd 953e 093e
000002d0: bca8 2fbd 7029 63bc b04a 17be 053e f5bf
000002e0: 9d3f 8ebe 60ef 3cbc 7dc9 93bf 92e3 08be
000002f0: a687 29bc d69a c1bd 4536 663d add8 8bbd
00000300: cbf7 a4bd 7024 1f3c 0641 fe3d 1910 f7bd
00000310: 7af0 a43d e6a4 e13d 74c8 2b3e 0ad6 f5bd
00000320: 1c9c ea3f 6bfa c13e 9f61 1d3f c175 443e
00000330: 5690 d33d 8950 a73b 6ed7 5abc 0c50 b3bb
00000340: 96d3 ee3c 6a91 a53d 0052 e13c d049 563d
00000350: 39f8 1dbe 32e2 ff3d ab1c 193e fd29 113e
00000360: 79d1 013e 2a3a c03e 5d02 3e3f 8e21 6e3f
00000370: 14bc 743f cd8a 053e 0b7b 9d3e 054a d9bd
00000380: 613d 323f 3d7b 953c 2bac bbbd 2d7e 0f3f
00000390: 81bf 163f 94a8 033f a753 72bd 849b 2d3d
000003a0: 731a 323f 56d0 ad3e cfe6 5d3f a0dc 653f
000003b0: abe9 443f 191a 5d3f 966b f33f 9ad7 0ebf
000003c0: 6dde 2fbe 1b25 64bf 5443 a83d fcd2 a63e
000003d0: 71c4 49bf 4360 d0be 0e88 cabd 40bf 313f
000003e0: 6b43 62bf f0af c0be b21b 943f 0e05 4fbf
000003f0: 4867 b23e ae8d d23e 89b5 023f 2cf8 0dbe

encoder.weight_hh_l0 f4 [136, 34]
0.21231449 -0.38681886 0.3528871 -0.22026107 -0.06796032 0.39769205 -0.43616134 1.6932839
0.02083422 0.05578046 -0.16957684 0.019283133 -0.19369534 -0.26365027 -0.3010285 0.18949345
-0.09094738 0.40694115 -0.004323824 -0.10884052 0.44076487 -0.35428607 0.5110246 -0.2920462
-0.28852284 -0.20103252 -0.093436204 0.95127517 -0.18542509 0.106876254 -0.7766036 0.32700163
0.8702931 -0.140546 -0.020401645 0.569229 0.14022805 -0.6880708 0.19394894 -0.20804895
0.35656583 -0.32260793 0.20754215 0.07175309 -0.4893646 0.2924156 -0.018640986 0.63587624
-0.06970976 -0.06074754 0.27075344 -0.23567715 -0.17965657 0.2615375 0.042596735 0.11067912
-0.6602999 -0.26505435 -0.09938051 0.13711022 -0.39663297 -0.16889064 -0.2793921 -0.18803371
0.052564986 -0.07110857 -0.7058101 -0.37733486 -0.7054867 0.5227795 1.1404264 -0.6118168
-0.12754048 -0.6974292 0.6019767 0.15011136 -0.57927155 0.57649547 -0.11323283 0.35142434
0.48118374 0.5074523 0.7923648 -0.39139438 0.59841603 -0.5996809 -0.6882141 0.075715356
-0.8936842 0.78015053 -0.32227403 0.5850667 -0.82792187 0.4222731 -0.6754488 -0.6168225
-1.0277618 0.53915524 0.75084233 0.407876 -0.14490636 -0.9272372 0.25848284 0.67733485
0.29492438 -0.7929699 0.07510049 0.14498457 0.09733617 -0.37371966 0.018958893 0.013727951
-0.6304775 -0.09663111 0.2117821 0.12616642 -0.009845566 -0.407013 -0.12123227 -0.045798823
0.21645337 0.45123562 0.08872094 -0.11230273 -0.59569 -0.12215812 -0.26182058 -0.16162081
-0.8460392 -0.066747084 -0.6888768 0.13275787 -0.07069813 -0.32061747 -0.59952587 0.097630404
0.33666015 -0.2428789 -0.4991167 -0.44004783 -0.2126134 -0.6698682 0.11529155 -0.020658072
-0.43359283 -0.09855242 -0.15552142 1.0169066 0.91039854 -0.16722319 -0.27769554 0.52342916
1.102977 -1.5639313 -0.67115206 0.59123665 -0.049588855 0.44467592 -0.23266868 0.6441589
0.11550524 0.8460101 -0.2526603 -0.31718603 -0.4586218 -0.9461946 0.34297213 0.09476152
-0.083769254 0.009245922 -0.2692061 0.45452732 0.58898324 -0.43263745 0.123386905 -0.38975793
0.5451157 -0.3015591 -0.083601594 0.049478795 -0.1296704 0.6513586 0.19459316 0.49192578
0.29967198 -0.34431487 0.33981246 -0.5195515 -0.40195453 0.51863 -0.38431904 0.1021026
-0.6889286 0.073376164 -0.52743375 0.39658895 -0.3732024 -0.37319076 -0.5458224 0.64959705
0.10563704 0.06469678 -0.62376076 -0.21235861 -0.44021097 0.058298104 0.049712583 0.02868281
-0.31796947 -0.23726052 0.7006723 0.11156138 -0.7094206 0.54457825 -0.005486363 0.48677644
0.35190663 0.28466648 0.45163596 -0.045110658 0.72036475 -0.561174 -0.5468093 0.41621545
-0.03875857 0.5216118 -0.28540003 0.09701751 -0.092740856 0.62960875 0.07863649 -0.4775841
0.09460821 -0.12351848 0.31588563 0.06206582 -0.18832567 -0.028483039 0.7379415 0.18093802
0.34274587 -1.1778913 0.14702319 1.0141187 -0.49178004 0.48213008 -0.29189056 0.052021034
-0.58635503 -0.4021929 -0.45853457 0.6813602 -0.8492071 0.04579956 -0.46626347 0.6056342
00000000: f868 593e 1f0d c6be 9ead b43e 1e8c 61be
00000010: c82e 8bbd 4b9e cb3e 8a50 dfbe 87bd d83f
00000020: 87ac aa3c 0d7a 643d 8da5 2dbe a9f7 9d3c
00000030: 1258 46be 2bfd 86be 6820 9abe 920a 423e
00000040: 9f42 babd 975a d03e ddae 8dbb c7e7 debd
00000050: efab e13e fc64 b5be 82d2 023f 1487 95be
00000060: 44b9 93be 78db 4dbe 7b5b bfbd c586 733f
00000070: 13e0 3dbe f0e1 da3d 7ecf 46bf c26c a73e
00000080: 87cb 5e3f 4aeb 0fbe 5a21 a7bc feb8 113f
00000090: f197 0f3e 6825 30bf 8d9a 463e c90a 55be
000000a0: cc8f b63e de2c a5be ee85 543e 49f3 923d
000000b0: ff8d fabe 7fb7 953e fbb4 98bc c9c8 223f
000000c0: fec3 8ebd 6ad2 78bd 32a0 8a3e 5a55 71be
000000d0: e4f7 37be 3ee8 853e ea79 2e3d bcab e23d
000000e0: 6a09 29bf 34b5 87be 0288 cbbd 9f66 0c3e
000000f0: 7a13 cbbe abf1 2cbe 7b0c 8fbe e98b 40be
00000100: 624e 573d 5fa1 91bd f9af 34bf 0932 c1be
00000110: c79a 34bf e1d4 053f 7ef9 913f 07a0 1cbf
00000120: f999 02be b88a 32bf 251b 1a3f cbb6 193e
00000130: 244b 14bf 3595 133f 9de6 e7bd e4ed b33e
00000140: b75d f63e 65e8 013f 6bd8 4a3f d864 c8be
00000150: cb31 193f b084 19bf cd2e 30bf a710 9b3d
00000160: 7dc8 64bf f2b7 473f 1a01 a5be eec6 153f
00000170: b0f2 53bf 2e34 d83e 36ea 2cbf 14e8 1dbf
00000180: b38d 83bf 1406 0a3f 3437 403f 20d5 d03e
00000190: 5562 14be 6b5f 6dbf dd57 843e d165 2d3f
000001a0: 5400 973e 1300 4bbf 49ce 993d d676 143e
000001b0: 3058 c73d 2f58 bfbe ae4f 9b3c 33eb 603c
000001c0: f966 21bf 88e6 c5bd 68dd 583e c531 013e
000001d0: 4c4f 21bc 0264 d0be a048 f8bd 8c97 3bbd
000001e0: f4a5 5d3e 5b08 e73e 53b3 b53d f9fe e5bd
000001f0: 247f 18bf 092e fabd 590d 86be ed7f 25be
00000200: 0696 58bf b2b2 88bd 3b5a 30bf aef1 073e
00000210: 2eca 90bd f927 a4be 877a 19bf 73f2 c73d
00000220: b85e ac3e 3fb5 78be 398c ffbe f34d e1be
00000230: 54b7 59be 7b7c 2bbf fa1d ec3d 1e3b a9bc
00000240: e1ff ddbe dad5 c9bd 0241 1fbe ff29 823f
00000250: e10f 693f 8e3c 2bbe 1c2e 8ebe 74ff 053f
00000260: 5a2e 8d3f e72e c8bf 9fd0 2bbf 495b 173f
00000270: af1d 4bbd 90ac e33e b340 6ebe 99e7 243f
00000280: 038e ec3d 1e94 583f b15c 81be 3566 a2be
00000290: 7ad0 eabe cf39 72bf 0b9a af3e 5412 c23d
000002a0: 378f abbd 357c 173c 62d5 89be ceb7 e83e
000002b0: 9bc7 163f a882 ddbe 46b2 fc3d 5a8e c7be
000002c0: b48c 0b3f f465 9abe 5037 abbd 47aa 4a3d
000002d0: 51c8 04be 70bf 263f 6e43 473e b2dd fb3e
000002e0: 9b6e 993e 0a4a b0be e6fb ad3e 5401 05bf
000002f0: fccc cdbe f0c4 043f 77c5 c4be 2b1b d13d
00000300: a05d 30bf 3e46 963d e605 07bf b50d cb3e
00000310: 6314 bfbe dc12 bfbe 04bb 0bbf fe4b 263f
00000320: 3c58 d83d bf7f 843d c9ae 1fbf 8974 59be
00000330: 5563 e1be fec9 6e3d 6c9f 4b3d 36f8 ea3c
00000340: e5cc a2be 6cf4 72be 435f 333f 4b7a e43d
00000350: 979c 35bf 7b69 0b3f f3c6 b3bb c33a f93e
00000360: 1b2d b43e cebf 913e d43c e73e f4c5 38bd
00000370: d369 383f 19a9 0fbf b2fb 0bbf 311a d53e
00000380: 4ec1 1ebd 5a88 053f f41f 92be 1eb1 c63d
00000390: ebee bdbd 0a2e 213f 2b0c a13d e785 f4be
000003a0: f3c1 c13d 42f7 fcbd c3bb a13e bb38 7e3d
000003b0: 72d8 40be 4355 e9bc bce9 3c3f d147 393e
000003c0: 637c af3e 24c5 96bf 3f8d 163e a4ce 813f
000003d0: 98ca fbbe c1d9 f63e ae72 95be 0214 553d
000003e0: 5d1b 16bf 3aec cdbe 0bc5 eabe 9f6d 2e3f
000003f0: a365 59bf 5298 3b3d 16ba eebe d80a 1b3f

encoder.bias_ih_l0 f4 [136]
0.13367134 0.4079822 0.38593823 0.60885286 0.9651551 0.59490234 0.12268928 0.25945514
0.65205306 0.30538988 0.66679054 0.24536917 0.105008066 0.75938493 0.35670233 0.16486065
0.33765757 0.14757554 0.80584985 0.44522184 0.27344 0.7038546 0.37269443 1.2125896
-0.1374498 0.65901905 0.72000295 -0.046275813 0.2766558 0.62733155 0.4163581 0.48701108
0.267482 0.46237737 -0.15351863 0.1052996 0.15372092 0.22193773 -0.3938331 0.05502997
0.13958584 -0.206706 -0.8068504 -0.42988372 -0.26548246 0.12438486 0.14920728 -0.105842344
-0.100353606 0.06104032 0.4895231 0.14840052 0.27533776 -0.056884665 0.11238448 0.10407177
0.062668845 -0.2067356 0.06848292 0.23405512 0.13146342 -0.10424624 0.25387645 0.18723604
-0.13446173 0.16766605 -0.28760198 0.23088227 -0.21863514 0.016049083 0.14824863 0.1428915
-0.5849165 -0.4299804 0.038095765 0.09762309 -0.17968775 0.013686395 0.26104116 0.027021252
-0.10125226 0.004513975 0.42926964 -0.13244545 0.20883846 -0.110230856 -0.15864092 -0.14542682
-0.06875596 0.77041304 0.10710033 0.6130821 0.05890516 0.49527392 0.22473806 -0.03573961
-0.07146406 -0.030521264 0.68362546 0.29273027 0.19628221 0.03572863 0.6017048 0.33149654
0.17623226 0.43330315 0.49007517 0.732825 0.17173892 0.33992574 0.9322895 0.6087078
0.50590897 0.45735985 0.3914408 0.77740306 0.1508446 0.29669613 0.22695202 0.34203482
0.63404244 0.4502919 0.07854104 0.29020128 0.49062076 1.2997878 -0.012612009 0.11768587
0.6392203 0.17218955 0.41701737 0.857772 0.48041746 0.3694376 0.31107378 0.3187903
00000000: 24e1 083e 0be3 d03e b299 c53e c8dd 1b3f
00000010: 6814 773f 854b 183f 8444 fb3d 4ed7 843e
00000020: f3ec 263f 105c 9c3e c9b2 2a3f 0e42 7b3e
00000030: 780e d73d 0d67 423f b0a1 b63e 3bd1 283e
00000040: 74e1 ac3e 0b1e 173e 2d4c 4e3f 1ef4 e33e
00000050: 5400 8c3e d12f 343f ced1 be3e 2336 9b3f
00000060: a4bf 0cbe 79b5 283f 1d52 383f b58b 3dbd
00000070: d4a5 8d3e cd98 203f e42c d53e 8459 f93e
00000080: 67f3 883e babc ec3e fd33 1dbe 51a7 d73d
00000090: 0469 1d3e a543 633e 7ea4 c9be 1b67 613d
000000a0: 97ef 0e3e bdaa 53be bf8d 4ebf b819 dcbe
000000b0: 51ed 87be 7dbd fe3d cbc9 183e dfc3 d8bd
000000c0: 3186 cdbd 6a05 7a3d c6a2 fa3e 4ef6 173e
000000d0: 12f9 8c3e e5ff 68bd d629 e63d 9523 d53d
000000e0: 8658 803d 7fb2 53be c640 8c3d 25ac 6f3e
000000f0: 599e 063e 0d7f d5bd 18fc 813e ceba 3f3e
00000100: 56b0 09be a6b0 2b3e 9140 93be 676c 6c3e
00000110: e4e1 5fbe 5e79 833c 7dce 173e 2652 123e
00000120: 16bd 15bf 6426 dcbe 4e0a 1c3d 9dee c73d
00000130: 1100 38be e73c 603c 30a7 853e ac5b dd3c
00000140: 585d cfbd f7e9 933b 3bc9 db3e c89f 07be
00000150: c0d9 553e b7c0 e1bd c472 22be c5ea 14be
00000160: edcf 8cbd ca39 453f 6b57 db3d f3f2 1c3f
00000170: 8946 713d 8b94 fd3e bc21 663e b363 12bd
00000180: c05b 92bd bb07 fabc 1402 2f3f bee0 953e
00000190: 34fe 483e 2f58 123d 5309 1a3f eab9 a93e
000001a0: 3b76 343e e9d9 dd3e 22eb fa3e 6b9a 3b3f
000001b0: 54dc 2f3e bf0a ae3e 86aa 6e3f 46d4 1b3f
000001c0: 4083 013f 122b ea3e ee6a c83e e303 473f
000001d0: 0277 1a3e 8ee8 973e 1c66 683e 301f af3e
000001e0: 9b50 223f a98c e63e 20da a03d 4395 943e
000001f0: a532 fb3e 725f a63f 9aa2 4ebc 4a05 f13d
00000200: f1a3 233f 7552 303e 4d83 d53e f296 5b3f
00000210: 47f9 f53e ed26 bd3e 1045 9f3e 7b38 a33e

encoder.bias_hh_l0 f4 [136]
0.046442635 0.30547535 0.44965833 0.6911353 1.1894314 0.8495508 0.09658306 0.28821138
0.6700658 0.4235878 0.40049025 0.4292362 0.28200325 0.7434307 0.38297865 0.16578518
0.4102729 0.270828 0.50556964 0.2066056 0.21187142 0.5606588 0.4341095 1.0485444
0.1245502 0.45217457 0.65869963 -0.06770357 0.2644337 0.7489205 0.34940132 0.19097191
0.35328123 0.4018646 -0.42577887 0.024406416 0.1835227 0.2148275 -0.4910817 0.0567314
-0.038414247 -0.09856889 -0.54475117 -0.47219726 -0.11451538 0.20794226 -0.05827812 0.08871887
-0.11099809 0.3685815 0.52016354 0.23325282 0.2738228 0.10238257 0.14061794 -0.12433656
-0.097278155 -0.07694297 0.03481154 -0.0026660962 -0.12231755 0.1447976 0.1415006 0.22297324
-0.12782514 0.1383986 -0.11022408 0.3050567 -0.41816118 -0.2605436 0.13801885 0.16521809
-0.43847287 -0.39871112 0.1418407 0.06362221 -0.28333363 0.014015974 0.28509134 0.21631336
0.14749865 -0.20094569 0.40760642 0.18957262 0.42790464 -0.2646059 -0.37916398 -0.034963693
-0.0718419 0.4774086 -0.021696223 0.595634 -0.2646322 0.37499115 0.14652681 0.101227485
0.020499097 0.12739658 0.7043608 0.270108 0.131889 -0.09885631 0.77376586 0.24087201
0.44528213 0.3836236 0.254306 0.73959506 -0.01765173 0.13751827 1.0344856 0.53544456
0.5613415 0.4603031 0.16055639 0.71897435 0.18979111 0.26466075 0.3911043 0.22928141
0.3710999 0.43708956 0.04195441 0.3794934 0.4973012 1.2355014 -0.064567745 0.18534324
0.7641429 0.22227944 0.3132829 0.7880588 0.48784772 0.28549713 0.23284018 0.43406373
00000000: a23a 3e3d 4467 9c3e 9e39 e63e 3eee 303f
00000010: 4a3f 983f 297c 593f 57cd c53d 7190 933e
00000020: 6f89 2b3f 80e0 d83e 0f0d cd3e d9c4 db3e
00000030: bb62 903e 7951 3e3f c715 c43e 97c3 293e
00000040: 4a0f d23e f8a9 8a3e 036d 013f 6b90 533e
00000050: d2f4 583e 5687 0f3f 9a43 de3e b436 863f
00000060: 2d14 ff3d 6d83 e73e 8aa0 283f 2ba8 8abd
00000070: db63 873e 41b9 3f3f bbe4 b23e 248e 433e
00000080: 47e1 b43e 32c1 cd3e b0ff d9be f7ef c73c
00000090: 60ed 3b3e bdfb 5b3e 106f fbbe 2f5f 683d
000000a0: 4258 1dbd 7cde c9bd d074 0bbf d7c3 f1be
000000b0: 0a87 eabd d1ee 543e 0ab5 6ebd 3db2 b53d
000000c0: f752 e3bd b7b6 bc3e 7029 053f d4d9 6e3e
000000d0: 8132 8c3e f4ad d13d 26fe 0f3e 2ba4 febd
000000e0: c539 c7bd 4794 9dbd 8c96 0e3d acb9 2ebb
000000f0: a081 fabd d245 143e 89e5 103e 1953 643e
00000100: 98e4 02be 5db8 0d3e 2abd e1bd 6430 9c3e
00000110: 3919 d6be f965 85be d054 0d3e ee2e 293e
00000120: 847f e0be dd23 ccbe b03e 113e 5c4c 823d
00000130: 1b11 91be 41a3 653c 7ef7 913e 4081 5d3e
00000140: e309 173e b5c4 4dbe cab1 d03e 531f 423e
00000150: 5116 db3e 6d7a 87be c821 c2be 1736 0fbd
00000160: d921 93bd e66e f43e 47bc b1bc 787b 183f
00000170: df7d 87be d7fe bf3e 200b 163e 5b50 cf3d
00000180: b9ed a73c 4074 023e fd50 343f 994b 8a3e
00000190: e90d 073e 2d75 cabd 8515 463f 27a7 763e
000001a0: 05fc e33e 506a c43e 6534 823e 1a56 3d3f
000001b0: 5c9a 90bc 97d1 0c3e 066a 843f e512 093f
000001c0: 14b4 0f3f d9ac eb3e e568 243e b40e 383f
000001d0: 9a58 423e 9d81 873e d33e c83e bfc8 6a3e
000001e0: ce00 be3e 34ca df3e 63d8 2b3d f54c c23e
000001f0: 439e fe3e e924 9e3f 183c 84bd 9eca 3d3e
00000200: de9e 433f 399d 633e 9e66 a03e 39be 493f
00000210: 2dc7 f93e ae2c 923e a86d 6e3e 9a3d de3e

encoder.weight_ih_l1 f4 [136, 34]
0.021248858 0.046015713 0.29529932 -0.288204 0.28951818 -0.20557483 0.3227069 -0.10525038
-0.063074134 0.2198678 -0.2998874 -0.18246968 0.09331486 0.2004309 -0.0024937592 0.15269847
0.17139792 0.017807163 -0.40609956 0.2350323 0.07544622 0.36692223 -0.21803257 -0.25585184
-0.046371397 0.48640522 -0.10061442 -0.38605455 -0.06584503 0.5330783 -0.24073195 0.7684895
-0.35347903 0.2576033 -1.0702639 -0.14514397 0.37542862 -0.43666652 0.008514623 -0.32129738
0.01077544 -0.013065307 -0.34443414 -0.45915198 0.16117764 -0.29708153 0.3589639 0.2871335
0.8937047 0.099660814 0.59440774 -0.28858083 -0.45429987 -0.043993678 -0.090837985 0.90461975
-0.0009386413 0.7992736 -0.23181677 2.3459446 -0.31736153 -0.115531474 -0.057715964 0.51978165
0.09296533 0.62877095 -0.3361014 0.15826458 -0.5802005 -0.32081726 0.19544329 -1.0236052
-0.6345128 -0.5643929 0.30531478 -0.06367206 -0.33413854 -0.33349192 0.2640791 0.9570571
1.562603 -0.01823363 -0.22592439 0.085837394 0.8038354 -1.2437911 -0.9991963 1.3692844
-0.16597255 0.39502943 -0.10045427 0.87757885 -0.15087934 0.41113964 0.012836929 -0.06823747
0.57565737 -0.02688648 0.042617828 -0.24048826 -0.45031044 0.37397993 -0.87382734 -0.14053348
0.39447665 -1.0493225 -0.18858585 -0.36750013 0.088664286 0.15495631 -0.18992747 -0.5076069
-0.06903355 -0.67832106 1.1882133 0.08811911 0.47324836 -0.39312464 0.29855922 -0.68325967
-0.22579825 0.38251793 0.11898715 0.3382223 0.35029167 0.43755087 -0.29129502 0.097940065
-0.22802098 -0.13549426 0.76448965 0.4766695 0.11583993 -1.2537413 -0.20281346 0.70054257
-0.6293698 -0.32680136 0.11341818 0.013247678 -1.1926938 -0.68892556 0.10046568 -0.27299908
-0.1228916 0.9613317 -0.35933602 0.1980999 0.59104 0.3267029 -0.52021575 0.072360955
0.18835376 -0.539136 -0.37642998 0.3004901 -0.06712484 0.35817152 -0.07369427 0.10908198
0.023348931 0.6791832 -0.28231058 -0.27513504 -0.1146661 0.9674672 0.13332066 0.5210187
-0.42729577 0.21894315 -0.68508214 -0.43223938 0.043129135 -0.34742045 -0.75156313 -0.13300419
-0.046933208 0.035796948 -0.9736108 2.0368083 0.02396796 0.65558016 0.51254183 0.09149188
0.15299793 0.0025436417 0.34303868 -0.6351881 -0.4776484 -0.1419576 0.044857442 0.5999425
0.08904867 0.7273426 -0.364436 0.5459953 0.33094656 -0.031782974 -0.49665937 0.5528963
0.40000474 0.571825 -0.056751978 -0.00094752776 0.09897342 -0.22341962 0.19926517 0.03357157
0.24376601 -0.49409822 0.25101274 0.106201194 0.249031 -0.7829652 -0.5536224 0.44676304
-0.3479362 0.18399653 -0.90482426 0.4525038 0.100603804 -0.14995156 -0.2979441 0.16439451
0.07903354 -0.21107888 -0.065936044 -0.13849038 -0.2820609 0.78185815 0.06152543 -0.0011586086
0.024092183 0.22853012 -0.61202997 0.36995727 -0.5432629 -0.04355472 -0.50017107 0.016156903
0.40313432 0.30777916 1.9804572 0.44127655 0.034610488 0.07210294 0.7311724 -1.4813545
-0.39167148 0.07833427 0.3942992 -0.11131854 -0.28631946 0.18060778 -0.14912584 -0.277889
00000000: 1612 ae3c f97a 3c3d 7931 973e 7a8f 93be
00000010: ba3b 943e 3582 52be d739 a53e 838d d7bd
00000020: 032d 81bd 0625 613e d78a 99be 55d9 3abe
00000030: dc1b bf3d c23d 4d3e 566e 23bb fd5c 1c3e
00000040: f082 2f3e 54e0 913c 48ec cfbe 4fac 703e
00000050: 8c83 9a3d 3bdd bb3e ee43 5fbe 03ff 82be
00000060: efef 3dbd 1b0a f93e ef0e cebd f1a8 c5be
00000070: c2d9 86bd d277 083f 7082 76be babb 443f
00000080: 34fb b4be 94e4 833e 68fe 88bf 9fa0 14be
00000090: 2e38 c03e c192 dfbe eb80 0b3c 1781 a4be
000000a0: 798b 303c df0f 56bc ac59 b0be f815 ebbe
000000b0: c00b 253e 121b 98be 1eca b73e 2a03 933e
000000c0: d5c9 643f f81a cc3d 1b2b 183f dec0 93be
000000d0: fe99 e8be b732 34bd 4409 babd 2995 673f
000000e0: 270f 76ba 329d 4c3f 6061 6dbe f523 1640
000000f0: 367d a2be c49b ecbd 9367 6cbd 6910 053f
00000100: 9b64 be3d 22f7 203f 7c15 acbe 1c10 223e
00000110: 0588 14bf 2942 a4be 4922 483e 7f05 83bf
00000120: 6e6f 22bf 0e7c 10bf 3852 9c3e 7f66 82bd
00000130: 3514 abbe 74bf aabe 6035 873e b201 753f
00000140: 6003 c83f b25e 95bc b958 67be 84cb af3d
00000150: 28c8 4d3f 8c34 9fbf 54cb 7fbf b644 af3f
00000160: b5f4 29be 4c41 ca3e f8ba cdbd 02a9 603f
00000170: 1d80 1abe e580 d23e fc51 523c 16c0 8bbd
00000180: 485e 133f 0941 dcbc 0890 2e3d 8e42 76be
00000190: 178f e6be 4c7a bf3e 26b3 5fbf 02e8 0fbe
000001a0: d8f8 c93e 3350 86bf a61c 41be fa28 bcbe
000001b0: 9f95 b53d deac 1e3e 597c 42be 87f2 01bf
000001c0: 7661 8dbd 73a6 2dbf 6017 983f cb77 b43d
000001d0: 9c4d f23e a247 c9be c1dc 983e 1bea 2ebf
000001e0: a837 67be 64d9 c33e 89af f33d 792b ad3e
000001f0: 6e59 b33e ab06 e03e 9f24 95be cd94 c83d
00000200: 557e 69be 02bf 0abe 98b5 433f 060e f43e
00000210: 7c3d ed3d 987a a0bf 55ae 4fbe c256 333f
00000220: 611e 21bf 8252 a7be ca47 e83d ca0c 593c
00000230: 31aa 98bf 6d5d 30bf f3c0 cd3d 89c6 8bbe
00000240: 97ae fbbd d619 763f e4fa b7be b3da 4a3e
00000250: 664e 173f 9a45 a73e dc2c 05bf fb31 943d
00000260: cfdf 403e d104 0abf 6ebb c0be d7d9 993e
00000270: c078 89bd 4262 b73e 05ed 96bd 6066 df3d
00000280: 4246 bf3c f3de 2d3f 038b 90be 80de 8cbe
00000290: 0fd6 eabd eeab 773f 3685 083e 7b61 053f
000002a0: 83c6 dabe a232 603e 8b61 2fbf 7b4e ddbe
000002b0: 2da8 303d 18e1 b1be 7166 40bf 4032 08be
000002c0: 093d 40bd d29f 123d 8f3e 79bf 115b 0240
000002d0: 7558 c43c 1ad4 273f f135 033f 1860 bb3d
000002e0: 7dab 1c3e 3ab3 263b c4a2 af3e b09b 22bf
000002f0: 558e f4be 555d 11be 70bc 373d d595 193f
00000300: 265f b63d 2033 3a3f 5b97 babe 59c6 0b3f
00000310: d471 a93e dd2e 02bd 234a febe 9d8a 0d3f
00000320: 6ccd cc3e 2063 123f c374 68bd 8363 78ba
00000330: 94b2 ca3d 1dc8 64be 2b0c 4c3e 5882 093d
00000340: cc9d 793e 71fa fcbe be84 803e 0380 d93d
00000350: fc01 7f3e 6870 48bf 33ba 0dbf 20be e43e
00000360: b224 b2be 9669 3c3e 90a2 67bf 94ae e73e
00000370: 5e09 ce3d e78c 19be 218c 98be 0957 283e
00000380: 56dc a13d 1025 58be 7a09 87bd 6cd0 0dbe
00000390: 496a 90be db27 483f 1702 7c3d 74dc 97ba
000003a0: f85c c53c cd03 6a3e ffad 1cbf 0a6b bd3e
000003b0: 4713 0bbf 6f66 32bd 360b 00bf 7b5b 843c
000003c0: 9f67 ce3e 3b95 9d3e 9f7f fd3f 00ef e13e
000003d0: bac3 0d3d b5aa 933d 1d2e 3b3f 069d bdbf
000003e0: 2a89 c8be b86d a03d 96e1 c93e fafa e3bd
000003f0: 7798 92be 3ff1 383e 72b4 18be 7847 8ebe

encoder.weight_hh_l1 f4 [136, 34]
0.011476676 -0.09171458 0.107352935 0.06749917 0.40086693 -0.046237644 -0.47104874 -0.7142772
0.5254583 -0.534371 -0.121296905 -0.084438436 0.1908289 0.95742136 -0.48913017 -0.31791055
0.29268405 -0.2862468 -0.26289502 -0.2022661 -0.4136481 -0.09709871 -0.0798918 0.85608035
0.03608096 -0.042681325 0.16571365 -0.17760257 -0.3792869 0.24359338 -0.1282684 -0.4810026
0.118698806 0.015669037 0.16718063 0.15340927 0.22426553 0.51503074 0.09548605 -0.11934224
0.061207317 -0.45000637 0.22766796 -0.54625154 0.2619987 -0.42719996 0.30956373 0.33914042
-0.22160526 0.35116044 0.15755771 0.16561024 -0.30689326 0.0226949 -0.6992128 -0.16963875
-0.1881955 0.00726228 0.35925242 0.3847588 0.19421127 0.06106522 -0.23437288 0.25137532
-0.33287475 0.026576139 -0.061948042 0.090297036 -0.12213665 -0.11140345 -0.1819218 -0.16109426
-0.44580343 0.0866568 0.08408433 0.047918934 -0.21668704 0.002572259 0.14707495 -0.0632587
0.21208146 -0.07987199 -0.11213944 0.76171845 0.08828189 -0.37280816 -0.095299765 0.10480033
0.1824184 0.4406986 -0.48594752 0.23676509 0.07956156 0.12685296 -0.20949717 -0.10137807
0.16940121 0.1111888 -0.018230142 0.07552857 -0.33057395 0.31174007 0.8224087 -0.070727855
0.54439336 0.0062193424 -0.116969734 0.5557155 -0.020848231 -0.3751404 0.24766377 -0.5635861
-0.02491317 -0.26819855 0.0762206 0.37480745 -0.09083434 0.017183412 -0.35175288 0.1991495
-0.42552614 0.30080613 -0.050016537 0.24182934 0.17056873 0.58506036 -0.039822143 0.539387
0.15589237 0.2546359 0.51855403 0.1260882 -0.20590636 -0.1659479 -0.70860744 0.05091325
-0.20726144 0.48370957 -0.6197432 -0.031795546 0.078507945 -0.33286646 -0.1699874 -0.083179146
0.42935422 -0.19563481 -0.43191 0.35079548 0.29217708 0.33873105 0.18231283 -0.50505716
0.23291686 -0.17113142 -0.36109394 0.25450674 0.46471253 -0.06230203 -0.34283996 0.3303648
-0.14223474 -0.20123273 0.03606453 -0.52890587 -0.7236105 0.2789867 -0.0917142 -0.027493676
0.22845985 -0.5078741 -0.4401753 0.5370097 0.18265247 -0.15508613 0.33157694 0.16504687
0.6412922 0.17021738 -0.11985444 0.1971396 0.08365727 -0.23630707 -0.6497971 -0.3674019
0.3089957 -0.56021833 -0.48870143 -0.37604073 0.31064147 0.3639338 -0.37958708 -0.18498662
0.16718094 -0.74351054 0.06764756 -0.14371578 -0.14000861 0.42282093 -0.9905623 0.2367756
0.25262976 0.25469506 0.71553063 0.18633766 0.80512655 -0.30386093 -0.13298827 -0.14018244
0.02302177 0.41026616 -0.14778194 0.07393475 0.15687583 -0.13305067 -0.31026146 -0.1602293
0.064674444 0.11998599 -0.0034141284 0.11623346 -0.36234552 -0.2819003 -0.31118548 -0.11611974
-0.113940015 -0.06912849 -0.4886434 -0.43170762 0.030810693 0.024471058 0.07998502 0.3275304
0.38815963 0.17823832 -0.19210614 -0.29530865 -0.34507892 0.50825405 0.6131874 -0.31823188
0.4743315 0.11750712 -0.014934351 0.05086081 -0.40426767 -0.16002707 -0.16471754 -0.14623956
0.03887669 0.3127861 -0.079931945 -0.027807027 0.24664886 0.39824107 0.4171787 0.54334253
00000000: ab08 3c3c dbd4 bbbd dbdb db3d 013d 8a3d
00000010: 6e3e cd3e af63 3dbd 4d2d f1be dfda 36bf
00000020: 6f84 063f 8acc 08bf 836a f8bd 0fee acbd
00000030: a768 433e 9119 753f 456f fabe 2cc5 a2be
00000040: afda 953e f18e 92be 2d9a 86be d81e 4fbe
00000050: afc9 d3be b0db c6bd 509e a3bd 1528 5b3f
00000060: a1c9 133d 9dd2 2ebd d7b0 293e 73dd 35be
00000070: e431 c2be 8b70 793e cb58 03be f945 f6be
00000080: 5c18 f33d 5a5c 803c 6631 2b3e 5217 1d3e
00000090: dda5 653e 0ed9 033f 318e c33d b469 f4bd
000000a0: 86b4 7a3d 3c67 e6be ca21 693e 24d7 0bbf
000000b0: b224 863e f4b9 dabe 237f 9e3e d0a3 ad3e
000000c0: 7dec 62be 4dcb b33e cf56 213e bb95 293e
000000d0: 1d21 9dbe a8ea b93c 9cff 32bf c8b5 2dbe
000000e0: 52b6 40be 6cf8 ed3b efef b73e 1bff c43e
000000f0: 52df 463e 861f 7a3d 72ff 6fbe 44b4 803e
00000100: 8f6e aabe 34b6 d93c 3bbd 7dbd a7ed b83d
00000110: c822 fabd 7e27 e4bd b549 3abe e5f5 24be
00000120: 5940 e4be 1f79 b13d 6834 ac3d a546 443d
00000130: 35e3 5dbe 5893 283b d19a 163e c78d 81bd
00000140: e22b 593e ed93 a3bd 5da9 e5bd fbff 423f
00000150: 23cd b43d b6e0 bebe 862c c3bd 8ea1 d63d
00000160: e4cb 3a3e 3fa3 e13e 1dce f8be 8c72 723e
00000170: 2cf1 a23d bee5 013e 6d86 56be 4e9f cfbd
00000180: 8377 2d3e f4b6 e33d 6157 95bc b9ae 9a3d
00000190: fd40 a9be 659c 9f3e 6089 523f c4d9 90bd
000001a0: 5d5d 0b3f a0cb cb3b d48d efbd 5f43 0e3f
000001b0: e9c9 aabc 6712 c0be 929b 7d3e 2e47 10bf
000001c0: b416 ccbc 5251 89be 8c19 9c3d c3e6 bf3e
000001d0: 5b07 babd 3ac4 8c3c f418 b4be d9ed 4b3e
000001e0: 90de d9be 4303 9a3e 24de 4cbd 1ca2 773e
000001f0: 92a9 2e3e 84c6 153f 8b1c 23bd 4415 0a3f
00000200: 40a2 1f3e a35f 823e f5bf 043f 441d 013e
00000210: 1ed9 52be 3fee 29be 4c67 35bf 698a 503d
00000220: 583c 54be c8a8 f73e 7ea7 1ebf 0c3c 02bd
00000230: c6c8 a03d 796d aabe 2d11 2ebe d459 aabd
00000240: 51d4 db3e 7e54 48be 4f23 ddbe 779b b33e
00000250: 3c98 953e 286e ad3e 37b0 3a3e 6d4b 01bf
00000260: c281 6e3e 133d 2fbe 4ee1 b8be b54e 823e
00000270: cdee ed3e 6a30 7fbd b888 afbe 9325 a93e
00000280: fca5 11be f40f 4ebe 67b8 133d 6066 07bf
00000290: 8a3e 39bf 58d7 8e3e a8d4 bbbd 6b3a e1bc
000002a0: 61f1 693e 0904 02bf a85e e1be 7879 093f
000002b0: 4009 3b3e e6ce 1ebe 74c4 a93e 0c02 293e
000002c0: ba2b 243f 774d 2e3e 3f76 f5bd f7de 493e
000002d0: 8154 ab3d 7bfa 71be 1a59 26bf 1a1c bcbe
000002e0: af34 9e3e 786a 0fbf 1337 fabe 6988 c0be
000002f0: 660c 9f3e 8855 ba3e 3d59 c2be 226d 3dbe
00000300: 7b31 2b3e b556 3ebf ce8a 8a3d 3b2a 13be
00000310: 6b5e 0fbe fc7b d83e 7e95 7dbf 4e75 723e
00000320: b058 813e 6467 823e 042d 373f 4dcf 3e3e
00000330: c61c 4e3f a993 9bbe 142e 08be fc8b 0fbe
00000340: 2798 bc3c 680e d23e 2654 17be 1a6b 973d
00000350: 0fa4 203e 6f3e 08be 97da 9ebe 2613 24be
00000360: 0974 843d 37bb f53d 92bf 5fbb cf0b ee3d
00000370: 5a85 b9be 3c55 90be b453 9fbe 30d0 edbd
00000380: 6259 e9bd 3d93 8dbd 782f fabe c808 ddbe
00000390: b566 fc3c 8777 c83c 30cf a33d 11b2 a73e
000003a0: dcbc c63e 1b84 363e 79b7 44be b232 97be
000003b0: 2fae b0be f01c 023f d9f9 1c3f 4aef a2be
000003c0: 94db f23e 93a7 f03d 35af 74bc 6d53 503d
000003d0: 2cfc cebe 23de 23be b7ab 28be d3bf 15be
000003e0: 2a3d 1f3d 8025 a03e 5cb3 a3bd 90cb e3bc
000003f0: 8591 7c3e 41e6 cb3e 7298 d53e 7f18 0b3f

encoder.bias_ih_l1 f4 [136]
-0.2415072 0.14786355 0.17239614 0.069169916 0.05928421 -0.037774906 -0.25844353 -0.096089326
0.040333845 -0.0790726 0.011492572 0.18862297 0.03525152 0.018025873 0.075319745 0.2258819
0.43347454 -0.10077284 -0.11805907 0.0015172862 0.4373805 0.2648654 0.14158106 0.031339206
0.005721638 0.13282962 0.065691 0.7204432 0.06738365 0.10834541 0.21182336 0.48913962
0.36667776 0.03927389 0.06830527 -0.02650193 -0.047019552 -0.16402057 -0.1518735 -0.025745105
0.14683867 -0.0039611803 0.25963357 -0.07145993 0.17811741 0.03162559 0.43227163 0.013113892
-0.07080455 -0.0039742673 0.12564318 0.26869017 0.21329644 0.14358538 -0.059786156 -0.06554393
0.09490728 0.16383633 -0.116395175 0.074538685 -0.20044465 0.12359954 -0.113054276 0.40386248
0.4333222 0.34381887 -0.06967517 -0.1964485 0.05449532 -0.021811204 0.01555227 0.23063706
0.08622326 0.07154816 0.16168556 0.08583993 0.04832802 0.01730169 0.027052524 -0.0075349
0.04158034 -0.19530922 -0.049304545 -0.032609366 0.023452578 -0.10484747 0.024039092 0.08714846
-0.12009706 -0.077703245 -0.013095675 0.15183935 -0.04885462 0.033675715 -0.01628734 -0.029357413
0.20806172 -0.06577457 0.08743069 0.18075126 0.20593822 0.35347432 -0.08541979 0.06350962
0.47857314 0.37657544 0.2794324 -0.19272587 0.04715525 -0.06308516 0.035454243 0.252148
0.005865861 0.39508066 -0.25191343 -0.12190363 0.09319646 -0.012929203 0.22936301 0.110411026
-0.07383969 -0.23219231 0.103469305 0.42002934 0.25439742 -0.06436609 0.3845453 0.11230697
0.14419185 -0.18848915 0.29401195 -0.15314467 -0.31854102 0.257813 0.26156065 0.050748233
00000000: aa4d 77be 8b69 173e 9d88 303e f5a8 8d3d
00000010: 00d4 723d dcb9 1abd b652 84be 7bca c4bd
00000020: 1a35 253d d1f0 a1bd 574b 3c3c 6126 413e
00000030: e663 103d ffaa 933c 3d41 9a3d 964d 673e
00000040: 60f0 dd3e fe61 cebd f4c8 f1bd addf c63a
00000050: 56f0 df3e 709c 873e a0fa 103e 8a5d 003d
00000060: 947c bb3b 7d04 083e 0189 863d f76e 383f
00000070: 7000 8a3d 33e4 dd3d 39e8 583e 8270 fa3e
00000080: 30bd bb3e a9dd 203d a2e3 8b3d 931a d9bc
00000090: 9397 40bd 02f5 27be ba84 1bbe 66e7 d2bc
000000a0: e05c 163e cacc 81bb b1ee 843e 9559 92bd
000000b0: 6964 363e d689 013d b552 dd3e a6db 563c
000000c0: fa01 91bd 923a 82bb 9ba8 003e c291 893e
000000d0: 626a 5a3e 0c08 133e 54e2 74bd e53b 86bd
000000e0: bf5e c23d b6c4 273e 9860 eebd bda7 983d
000000f0: 5d41 4dbe c121 fd3d 0089 e7bd 10c7 ce3e
00000100: 68dc dd3e 0709 b03e dbb1 8ebd cc29 49be
00000110: 7c36 5f3d 69ad b2bc f3ce 7e3c 1f2c 6c3e
00000120: d295 b03d d787 923d e690 253e d8cc af3d
00000130: 9af3 453d 46bc 8d3c 419d dd3c 53e7 f6bb
00000140: 2650 2a3d 24ff 47be 90f3 49bd 6691 05bd
00000150: 9f1f c03c 45ba d6bd a1ed c43c e47a b23d
00000160: 73f5 f5bd e122 9fbd 3e8f 56bc c67b 1b3e
00000170: c81b 48bd 8cef 093d 076d 85bc f57e f0bc
00000180: 220e 553e d1b4 86bd dd0e b33d dc16 393e
00000190: 78e1 523e 96fa b43e 92f0 aebd 5511 823d
000001a0: 8a07 f53e 7fce c03e c311 8f3e ee59 45be
000001b0: dd25 413d cb32 81bd 7838 113d 8b19 813e
000001c0: 6936 c03b 0348 ca3e ccfa 80be 9ca8 f9bd
000001d0: c9dd be3d 02d5 53bc 23de 6a3e 2d1f e23d
000001e0: 4339 97bd d2c3 6dbe b7e7 d33d 160e d73e
000001f0: 6140 823e 5ed2 83bd 1fe3 c43e 3201 e63d
00000200: 07a7 133e 4d03 41be bc88 963e f5d1 1cbe
00000210: cf17 a3be 1100 843e 47eb 853e 61dd 4f3d

encoder.bias_hh_l1 f4 [136]
-0.1926823 0.30283663 0.22686036 0.19047636 0.031783916 -0.09728923 -0.050706368 0.07790458
0.19290087 -0.0002383813 -0.017548112 0.09636235 -0.0029268244 0.09213089 -0.060174517 0.30918002
0.20202401 -0.25630152 -0.10612535 -0.08906767 0.21709026 0.3113464 0.31148344 -0.071677
0.0008815849 -0.07346307 0.11188148 0.72764504 0.11423687 0.17501956 0.23639058 0.5471207
0.1939014 -0.023806553 -0.18020537 0.020592973 0.21313433 -0.11632451 -0.036324773 -0.09883405
0.21088266 0.14603037 0.24217333 -0.0948182 0.23760152 -0.1900123 0.5022402 -0.033099186
-0.050457608 -0.13046339 0.019552002 0.3118258 -0.010395248 -0.05525917 -0.2791276 -0.0091438405
-0.0682581 -0.09456975 0.0053497017 0.18099515 -0.30342296 0.29537442 -0.07616444 0.2267137
0.39631733 0.46397093 -0.20731995 -0.022293363 0.061071593 -0.13275824 -0.18251683 0.14355716
-0.028855717 0.19825391 0.06937726 -0.043466028 0.12000033 0.11757483 0.020097293 -0.102643065
-0.22718184 -0.037439406 0.030524537 0.18993342 -0.04805953 0.006226613 0.15909314 0.20058419
-0.28360885 0.13658586 -0.22710468 -0.17082602 0.04864375 -0.055433087 -0.02020345 0.08164835
0.18855238 -0.27313173 0.069985874 -0.033265665 0.27545896 0.36175466 0.11123441 0.18598193
0.2235052 0.26837564 0.32259762 -0.035583638 -0.20273817 -0.1124425 0.15918098 0.17299955
0.12221871 0.4359036 -0.23992433 0.008463985 -0.07345578 0.101537205 0.26788592 -0.10290961
0.02135773 -0.25649425 0.022884926 0.23388998 0.19177447 -0.23374678 0.36756754 0.013043924
0.22052468 -0.26685742 0.16047803 -0.017780554 -0.098787576 0.25661978 0.39284962 0.3232281
00000000: 824e 45be 670d 9b3e 154e 683e 3c0c 433e
00000010: da2f 023d 933f c7bd 7bb1 4fbd 708c 9f3d
00000020: ce87 453e fef5 79b9 0fc1 8fbc a059 c53d
00000030: f7cf 3fbb 1faf bc3d 8e79 76bd d84c 9e3e
00000040: 62df 4e3e f439 83be 3f58 d9bd 1c69 b6bd
00000050: e94c 5e3e cc68 9f3e c27a 9f3e 64cb 92bd
00000060: 291a 673a ce73 96bd 1e22 e53d f246 3a3f
00000070: 05f5 e93d 5438 333e 5f10 723e 1a10 0c3f
00000080: 178e 463e f605 c3bc c287 38be 98b2 a83c
00000090: e33f 5a3e 8b3b eebd 49c9 14bd 8269 cabd
000000a0: a0f1 573e fc88 153e 49fc 773e 0b30 c2bd
000000b0: d04d 733e 9692 42be d092 003f 0393 07bd
000000c0: a3ac 4ebd 3298 05be 852b a03c a2a7 9f3e
000000d0: d550 2abc 7057 62bd d0e9 8ebe 0cd0 15bc
000000e0: e7ca 8bbd c9ad c1bd 8d4c af3b cb56 393e
000000f0: 415a 9bbe 513b 973e 1afc 9bbd a327 683e
00000100: 1bea ca3e 998d ed3e ae4b 54be 92a0 b6bc
00000110: 3526 7a3d c7f1 07be b1e5 3abe a600 133e
00000120: d362 ecbc 1303 4b3e aa15 8e3d 6f09 32bd
00000130: bcc2 f53d 13cb f03d 14a3 a43c 8736 d2bd
00000140: 5ba2 68be 105a 19bd 980e fa3c e87d 423e
00000150: 12da 44bd 9e08 cc3b 50e9 223e f165 4d3e
00000160: 2e35 91be 2add 0b3e 218e 68be 04ed 2ebe
00000170: ab3e 473d ce0d 63bd b581 a5bc 4037 a73d
00000180: e013 413e ecd7 8bbe c154 8f3d 9441 08bd
00000190: f508 8d3e e837 b93e dece e33d 0c72 3e3e
000001a0: 8cde 643e 8868 893e 842b a53e 26c0 11bd
000001b0: 989a 4fbe 4148 e6bd 5700 233e cb26 313e
000001c0: ce4d fa3d c22e df3e b9ae 75be 87ac 0a3c
000001d0: fc6f 96bd bdf2 cf3d 5828 893e 46c2 d2bd
000001e0: 68f6 ae3c 3753 83be 2b79 bb3c db80 6f3e
000001f0: 8760 443e 515b 6fbe d031 bc3e 2fb6 553c
00000200: 39d1 613e 89a1 88be 5a54 243e 86a8 91bc
00000210: 2451 cabd ab63 833e 9623 c93e 277e a53e

lstm.weight_ih_l0 f4 [136, 34]
0.28286943 -0.26169807 -0.5422899 0.43287972 -0.45970303 0.21237671 -0.33750856 -0.07717538
0.14297478 -0.073609084 -0.45739916 -0.055068232 0.5497399 0.5512971 -0.6380553 0.6068201
0.114541516 -0.21383362 -0.28632006 -0.47979486 0.62880427 0.5837989 -0.1887521 -0.17838636
0.6452715 0.27217287 -0.094474256 0.6787111 0.048564155 0.6159353 -0.3204245 -0.24039876
-0.6097269 -0.25743017 -0.2808639 -0.06174565 0.5284643 -1.0465828 -0.14672625 0.5320624
0.18449295 0.1306665 0.03477518 0.5137802 0.041335676 -0.59392625 -0.07135071 0.31999907
0.13037279 0.18683688 -1.0693375 -0.41313794 0.17291342 -0.5433312 0.43986595 0.5485512
-0.012067892 -0.093070365 0.36840588 -0.03547077 -0.6337191 -0.088316984 -0.011897362 -0.58274055
0.03307382 0.28047374 -0.35062334 -0.22304723 0.47903052 0.8780465 0.37727106 0.33880782
-0.067766085 0.18926176 -0.3654247 -0.20325013 0.63559115 -0.5626628 0.0056227795 0.22776653
0.28294855 0.9561524 -0.1953047 -0.30607036 0.016985921 -0.20358743 -0.42993134 -1.0461117
-1.6041447 0.5491459 -0.34157446 0.71258384 0.45616218 0.26392326 0.24839139 1.0791205
0.0150182275 -0.32663375 -0.24693494 0.057918523 -0.95770735 0.1722509 -0.08033655 -0.25604898
-0.63163584 0.307816 -0.37347898 -0.014310274 -0.8080293 0.18848307 -0.20334898 -0.10651095
-0.006801332 -0.6951757 0.049024347 -0.09653814 0.13687985 0.23168676 -0.4850674 -0.16246876
-0.10264895 -0.6704079 0.31685454 0.065745726 -0.8754612 0.34733477 -0.13021712 -0.12694596
-0.078479685 0.15379241 0.6417612 0.15113416 -0.116239294 0.01804795 -0.06441941 0.43068093
-0.079529256 -0.07870631 0.020916542 -0.11148371 0.044235338 0.30534953 0.38318625 0.2392788
0.31324434 -0.050916158 0.17144488 -0.6575321 -0.060292657 0.04335979 0.2177706 0.07456869
-0.5464349 -0.032359608 0.068058796 -0.18804029 0.19365074 -0.06308022 -0.20548859 0.28151494
0.022506488 -0.08974799 -0.20578213 -0.054724704 -0.19144696 -0.14034612 0.09868094 0.2668981
0.2669825 -0.052216172 -0.003923376 -0.9197572 0.117500596 -0.18599744 -0.4653051 1.0116329
-0.15612999 0.38866186 0.38380098 -0.17015809 -0.02986369 -0.4677986 0.2039057 -0.012261967
-0.16482274 0.27082938 -1.1666967 -0.2569182 -0.041796345 -0.72305995 -0.18256687 0.7094633
0.07295013 0.29612276 0.092883795 0.5459624 0.23655362 0.16175209 0.42864355 -0.46380013
-0.1595263 -0.11692629 0.08876886 -0.0035330846 0.35506383 -0.035053764 -0.34533766 0.21094887
-0.030059386 -0.18193644 -0.6317588 -0.30075094 0.31637636 -0.5456708 -0.27665251 -0.14111036
0.28889427 0.5462672 -0.5946545 0.6030731 -0.26746327 0.13928121 -0.4193939 -0.26675504
-0.35342 0.24089931 -0.6484381 0.26300922 0.33763897 0.1231475 -0.166914 0.035127927
0.1650266 0.33777007 -0.21401992 -0.06610746 -0.5458394 -0.20746228 0.09184023 -0.043457396
-0.36139235 0.032031428 -0.30077875 1.2523482 0.23187873 0.30543235 -0.006717386 0.2703821
-0.38761958 -0.15370588 -0.023153754 -0.045668144 -0.28158984 0.07577903 -0.3868493 -0.7933931
00000000: 43d4 903e 4afd 85be 83d3 0abf 69a2 dd3e
00000010: 325e ebbe 4879 593e eccd acbe 200e 9ebd
00000020: fb67 123e 5cc0 96bd 3930 eabe 3a8f 61bd
00000030: c1bb 0c3f cf21 0d3f 9857 23bf 9058 1b3f
00000040: be94 ea3d 33f7 5abe 8b98 92be aca7 f5be
00000050: 51f9 203f d873 153f 3b48 41be eaaa 36be
00000060: 8330 253f 3e5a 8b3e b87b c1bd 03c0 2d3f
00000070: 35eb 463d f0ad 1d3f ae0e a4be 182b 76be
00000080: 1017 1cbf e3cd 83be 65cd 8fbe 02e9 7cbd
00000090: 7049 073f 6df6 85bf 683f 16be 3e35 083f
000000a0: b8eb 3c3e 70cd 053e 6b70 0e3d 1987 033f
000000b0: 994f 293d 8d0b 18bf 5220 92bd ebd6 a33e
000000c0: 7280 053e 2b52 3f3e 0de0 88bf d186 d3be
000000d0: 3710 313e c117 0bbf 1c36 e13e da6d 0c3f
000000e0: 68b8 45bc ad9b bebd b29f bc3e cc49 11bd
000000f0: 6a3b 22bf 89df b4bd 27ed 42bc 7c2e 15bf
00000100: 6a78 073d 419a 8f3e e784 b3be 7e66 64be
00000110: 7d43 f53e a8c7 603f ac29 c13e 3878 ad3e
00000120: f2c8 8abd d6cd 413e f218 bbbe cd20 50be
00000130: 1ab6 223f ab0a 10bf 4b3f b83b a13b 693e
00000140: a2de 903e 67c6 743f f5fd 47be 41b5 9cbe
00000150: 0f26 8b3c 3979 50be f61f dcbe fde6 85bf
00000160: 9d54 cdbf d394 0c3f d9e2 aebe e56b 363f
00000170: 178e e93e f320 873e 505a 7e3e 9f20 8a3f
00000180: 030f 763c 8a3c a7be 83dc 7cbe f93b 6d3d
00000190: 4f2c 75bf 8a62 303e 7d87 a4bd da18 83be
000001a0: e3b2 21bf 0f9a 9d3e a338 bfbe a475 6abc
000001b0: 02db 4ebf b501 413e b73a 50be 6a22 dabd
000001c0: b5dd debb 09f7 31bf c1cd 483d cab5 c5bd
000001d0: 3b2a 0c3e 4b3f 6d3e c15a f8be 365e 26be
000001e0: 9d39 d2bd da9f 2bbf c23a a23e b2a5 863d
000001f0: 3a1e 60bf ddd5 b13e a357 05be 1ffe 01be
00000200: f5b9 a0bd c27b 1d3e 764a 243f eac2 1a3e
00000210: de0e eebd 4bd9 933c 53ee 83bd 3682 dc3e
00000220: 3ce0 a2bd c630 a1bd 2b59 ab3c 9251 e4bd
00000230: 1d30 353d c656 9c3e fd30 c43e 8005 753e
00000240: 9061 a03e 768d 50bd 3f8f 2f3e 0654 28bf
00000250: 6ff5 76bd 099a 313d 42ff 5e3e 78b7 983d
00000260: 28e3 0bbf 828b 04bd 6962 8b3d a28d 40be
00000270: 614c 463e 3430 81bd 9a6b 52be ba22 903e
00000280: 875f b83c cbcd b7bd 8db8 52be 0327 60bd
00000290: ac0a 44be e5b6 0fbe 3c19 ca3d dea6 883e
000002a0: eeb1 883e a0e0 55bd aa8f 80bb 3575 6bbf
000002b0: 27a4 f03d 1d76 3ebe 783c eebe 307d 813f
000002c0: 8ae0 1fbe b0fe c63e 9081 c43e ec3d 2ebe
000002d0: b2a4 f4bc 4c83 efbe a8cc 503e 6be6 48bc
000002e0: 4bc7 28be 26aa 8a3e 5156 95bf c88a 83be
000002f0: a532 2bbd 751a 39bf cff2 3abe 639f 353f
00000300: e166 953d 679d 973e dc39 be3d 31c4 0b3f
00000310: 1d3b 723e 57a2 253e 2b77 db3e 3677 edbe
00000320: dd5a 23be 0d77 efbd 73cc b53d 538b 67bb
00000330: edca b53e 8994 0fbd 19d0 b0be fb02 583e
00000340: 1a3f f6bc 8c4d 3abe f2ba 21bf 07fc 99be
00000350: 15fc a13e 15b1 0bbf 66a5 8dbe 3c7f 10be
00000360: f3e9 933e 2bd8 0b3f 473b 18bf 0063 1a3f
00000370: f2f0 88be bc9f 0e3e ccba d6be 1e94 88be
00000380: 77f3 b4be 4fae 763e 0a00 26bf 25a9 863e
00000390: 04df ac3e c234 fc3d 81eb 2abe 4de2 0f3d
000003a0: bcfc 283e 33f0 ac3e 0a28 5bbe 5963 87bd
000003b0: 22bc 0bbf fe70 54be bb16 bc3d 6200 32bd
000003c0: 6b08 b9be 6333 033d acff 99be f24c a03f
000003d0: 9e71 6d3e a161 9c3e 851d dcbb 866f 8a3e
000003e0: 1376 c6be 1365 1dbe f1ac bdbc 850e 3bbd
000003f0: 8b2c 90be 0932 9b3d 1d11 c6be cf1b 4bbf

lstm.weight_hh_l0 f4 [136, 34]
0.81081766 -0.36528048 -0.15850665 -0.42751998 -0.23857407 -0.1926746 0.13922675 -0.14656177
-0.18197936 0.50751656 0.6579729 -0.37309504 -0.090180516 0.43317232 0.1980225 -0.10753945
-0.57963324 0.110856384 -0.91186476 0.0073229657 0.005259162 -0.10516166 0.32707304 0.44753918
-0.43747592 0.5067276 -0.92051476 -0.3894873 0.5329059 0.37696004 -0.2909271 0.086975306
-0.35447362 0.26962596 -0.55140877 0.77599955 0.008677005 0.030688666 -0.2569556 0.104381464
0.68152034 0.033654574 0.11743122 -0.4010888 -0.1271522 -0.37774184 0.70765525 -0.4617411
0.36101744 -0.47747436 0.35557878 -0.57486707 0.1880339 -0.5003233 -0.17918472 0.02802449
0.40413186 0.40384376 0.13306624 0.1563734 0.401821 0.089558765 0.27686548 -0.26891997
0.25798896 -0.50317746 0.13159049 0.4220748 -0.33666316 -0.4227784 0.7649208 -0.39818934
0.3177407 0.14028853 -0.46621603 -0.059891008 -0.3112452 -0.38748768 -0.5505667 0.40061462
-0.17845225 0.2753597 -0.44793588 0.11482333 -0.001733883 -0.117795296 -0.3915655 -0.35050738
-0.3323647 -0.04928063 0.71569806 0.10101416 -0.24460396 0.33860198 0.28938738 0.28043368
0.3402385 0.10023743 -0.37741372 -0.5876037 -0.48745874 -0.24434298 -0.14012958 -0.3058733
-0.034060717 0.3602369 -0.6496663 0.2060704 -0.24231859 -0.15657414 0.12343797 -0.7294149
-0.20444173 -0.14742865 -0.047691416 -0.47719756 0.5419145 -0.52324796 0.03478163 -0.46987584
0.34710404 -0.42374808 0.1744791 -0.03311817 0.22766902 0.38927126 0.334391 0.014661728
0.32218835 -0.5672258 0.8007759 0.09697038 -0.14578778 -0.12648687 -0.069736905 0.16583084
0.06350704 0.155345 -0.3222176 0.26990744 -0.119313926 0.2120654 0.46297264 -0.06889816
0.13068728 -0.29196364 -0.29461634 0.11932073 0.22493544 0.20320065 0.08854586 -0.5643419
0.041687347 -0.1543257 0.2635134 -0.07947175 -0.1758045 -0.18898548 0.32707033 0.75857747
0.13803399 0.21398686 0.08980039 -0.066311345 0.3488785 0.4189561 -0.20215204 -0.11667175
-0.1976261 0.282849 -0.4008882 0.20680948 -0.32479432 0.3584946 -0.0821551 0.4759585
0.54445267 -0.4186702 0.4767561 0.19931927 0.15499426 0.074423745 0.22865912 -0.13828816
-0.31913924 -0.33222848 -0.06411845 -0.54957205 -0.10509371 0.35957026 -0.08959406 0.024513816
0.56684285 0.7576913 -0.3944499 0.19290246 -0.033637173 0.41703025 0.51849097 0.474454
-0.2173506 -0.32390618 0.0074202972 -0.19868702 0.34418523 0.1054355 0.0033879054 0.011306646
-0.08135116 0.284577 -0.34946796 -0.4094469 -0.25481954 -0.18431135 0.023314808 0.071831144
-0.18528561 -0.072738044 0.32546005 -0.12655379 -0.23233582 0.06893967 -0.51136553 -0.50453496
0.16918898 -0.366026 0.17305906 0.03574419 -0.48557842 0.04884294 -0.10341059 0.024007445
1.0485449 -0.3545096 -0.20717552 -0.42887044 -0.15867543 -0.0293105 -0.08743227 -0.1330875
0.12727752 0.13769908 -0.5100926 0.107623585 -0.47188026 0.5120796 0.084246784 0.30164677
0.27480596 0.5417643 -0.21013597 0.030376742 -0.6423483 -0.27352938 0.08406551 -0.26404753
00000000: bf91 4f3f 0b06 bbbe 914f 22be e6e3 dabe
00000010: c34c 74be 7e4c 45be 7591 0e3e 4a14 16be
00000020: cc58 3abe 9bec 013f e970 283f 5006 bfbe
00000030: 90b0 b8bd c3c8 dd3e 69c6 4a3e a53d dcbd
00000040: d862 14bf ac08 e33d f86f 69bf 7df5 ef3b
00000050: 0c55 ac3b ff5e d7bd 1e76 a73e db23 e53e
00000060: d8fc dfbe e6b8 013f dba6 6bbf e16a c7be
00000070: 856c 083f e800 c13e 66f4 94be 1c20 b23d
00000080: 917d b5be 6a0c 8a3e 2029 0dbf e8a7 463f
00000090: ff29 0e3c cc66 fb3c af8f 83be f3c5 d53d
000000a0: 1e78 2e3f 61d9 093d c87f f03d 835b cdbe
000000b0: 3034 02be 6167 c1be e528 353f 5469 ecbe
000000c0: 47d7 b83e 8577 f4be 6c0e b63e 7d2a 13bf
000000d0: f58b 403e 3015 00bf 337c 37be 9e93 e53c
000000e0: 5fea ce3e 9cc4 ce3e 8442 083e 5920 203e
000000f0: 7bbb cd3e 966a b73d 50c1 8d3e e1af 89be
00000100: 2117 843e 3dd0 00bf a8bf 063e 301a d83e
00000110: 1d5f acbe 6976 d8be d9d1 433f 79df cbbe
00000120: e9ae a23e cca7 0f3e deb3 eebe 4650 75bd
00000130: 885b 9fbe c964 c6be f0f1 0cbf 5c1d cd3e
00000140: 30bc 36be f2fb 8c3e da57 e5be 7e28 eb3d
00000150: 7643 e3ba a93e f1bd 467b c8be b475 b3be
00000160: b52b aabe 7cda 49bd fd37 373f 83e0 ce3d
00000170: 7679 7abe 3d5d ad3e 952a 943e 0195 8f3e
00000180: be33 ae3e 4849 cd3d 5f3c c1be 326d 16bf
00000190: 3194 f9be 0c35 7abe 217e 0fbe 6d9b 9cbe
000001a0: 4083 0bbd f970 b83e 8850 26bf 1e04 533e
000001b0: 5d22 78be f954 20be 0ccd fc3d efba 3abf
000001c0: 2c59 51be 89f7 16be 1358 43bd 3d53 f4be
000001d0: e9ba 0a3f 94f3 05bf 2f77 0e3d 9193 f0be
000001e0: 9fb7 b13e 82f5 d8be a6aa 323e eba6 07bd
000001f0: 1122 693e 904e c73e 4c35 ab3e bf37 703c
00000200: dff5 a43e b635 11bf a6ff 4c3f 6898 c63d
00000210: 6449 15be c685 01be 39d2 8ebd 8fcf 293e
00000220: fb0f 823d c212 1f3e b5f9 a4be 4f31 8a3e
00000230: dc5a f4bd ac27 593e c00a ed3e 7a1a 8dbd
00000240: e3d2 053e 427c 95be f4d7 96be 6d5e f43d
00000250: 7a55 663e d513 503e 8857 b53d b678 10bf
00000260: 5ac0 2a3d 8e07 1ebe 3aeb 863e 16c2 a2bd
00000270: 1806 34be 6985 41be c375 a73e 2232 423f
00000280: c858 0d3e 5f1f 5b3e 44e9 b73d 3ece 87bd
00000290: 34a0 b23e 6a81 d63e f200 4fbe 99f1 eebd
000002a0: 7f5e 4abe 96d1 903e 3841 cdbe ddc5 533e
000002b0: 714b a6be 9b8c b73e ef40 a8bd d5b0 f33e
000002c0: 4061 0b3f f15b d6be 6019 f43e 5a1a 4c3e
000002d0: d1b6 1e3e 7a6b 983d 9e25 6a3e 699b 0dbe
000002e0: 3866 a3be da19 aabe 8950 83bd c1b0 0cbf
000002f0: 5f3b d7bd 9819 b83e 177d b7bd 33d1 c83c
00000300: 9d1c 113f 0ff8 413f 56f5 c9be 3988 453e
00000310: 22c7 09bd fd84 d53e d3bb 043f a2eb f23e
00000320: 2891 5ebe 08d7 a5be f725 f33b 9c74 4bbe
00000330: 0c39 b03e 91ee d73d 9f07 5e3b 833f 393c
00000340: 709b a6bd 14b4 913e 77ed b2be 06a3 d1be
00000350: b577 82be 1dbc 3cbe b2fe be3c 351c 933d
00000360: 83bb 3dbe aff7 94bd b3a2 a63e 5197 01be
00000370: 71e9 6dbe 3e30 8d3d dae8 02bf 3429 01bf
00000380: e03f 2d3e c367 bbbe 6536 313e 8068 123d
00000390: bc9d f8be 890f 483d eec8 d3bd 43ab c43c
000003a0: b836 863f 4882 b5be d225 54be e894 dbbe
000003b0: d07b 22be 931c f0bc b10f b3bd 1748 08be
000003c0: 0a55 023e fd00 0d3e 6e95 02bf c169 dc3d
000003d0: 4a9a f1be a617 033f 9489 ac3d 7271 9a3e
000003e0: 5eb3 8c3e 11b1 0a3f e22d 57be a5d8 f83c
000003f0: f070 24bf 0b0c 8cbe 8a2a ac3d 3d31 87be
