weights/3/model.pt (torch_old, 357315 bytes, 14 tensors)

encoder.weight_ih_l0 f4 [256, 17]
00000000: f6cd 04be abc1 afbc 7353 f2bd 1147 0dbe
00000010: 5602 5abd 6f03 1dbf 9a04 023e 76cc dbbd
00000020: b823 33bf ec70 773e f0bd 263f 5adf acbd
00000030: afbc 13bf 2fc9 be3e 4679 b8bd c46d acbc
00000040: aff9 973c 9e60 2b3f 88f2 043f 3568 183f
00000050: 4889 023f 2aea cc3e ae11 8ebe 096c d5bd
00000060: e1f4 e03e fcbf 813e 0fe0 d1bd 3153 603e
00000070: 7980 a73e 4744 a8be 36b3 253f 5b8b a03e
00000080: a78e 943e 1f68 c73e 1982 a23e 8e94 4f3e
00000090: f7a1 6d3e 9920 7c3e 12b5 af3c 7bda 03bf
000000a0: 777b 7f3f 53b5 593e cb37 0fbe 83b0 9dbd
000000b0: 393f d73e d5e0 a6bd f093 663e 7cb2 c83e
000000c0: bf8d 2b3e c20f 663e 09a5 d33e 299c 003c
000000d0: cc5f 9d3e 8a56 573e c8e9 3b3e 011d 103d
000000e0: 01ed 8bbe 6a2d cdb9 45a0 3c3e 33fe 43bd
000000f0: 2bed 683e bfee 433e b123 cfbd b2f6 c73e
00000100: 9f3f 57bd ec95 983e 355e 783e b672 da3d
00000110: 3f0d bb3d 3623 1b3f 6e65 8f3e b788 b73e
00000120: 2986 393e 835d debe 682a 253e 33da 323f
00000130: 6ab7 a33e e21f 32be d33d f43d 7d0e 8c3e
00000140: b4dc b6be 1c7d 133f 1579 a83e 0765 a63e
00000150: 5143 d83e 754e 8a3e ef9f 123f 49d8 adbc
00000160: 92fb c83e 239b 093e b0be c93e 8cf3 80be
00000170: 9395 f0bd 4562 81be bb96 ab3e b882 e83e
00000180: 2cd8 f63e 6756 2d3f b978 ae3d b87a a33e
00000190: de7b b23e d05f 13bc 5bb1 923e 1729 b33e
000001a0: 2b4b 943e 9e81 aa3e ad56 903e 53b0 d43e
000001b0: d14a 023f 18df 85bd 1e51 63be 6d54 203f
000001c0: 880f 2b3f f770 83be f95a 2e3f 83fb 023e
000001d0: 3043 d03e cbf3 c93e a8a9 97bd ab18 d0bc
000001e0: f2a5 013f 082d 8d3e f29b d13e cf73 1f3e
000001f0: c749 053f 2708 1e3f 9f7c 063f 9568 e43b
00000200: 9904 613e a6d5 3a3e 524b 623e 93d9 97be
00000210: 3ba7 253c b4c0 4d3e 013e af3e b277 b23d
00000220: 938d bebb 2fcc 1a3f 2cf5 783e 553d c03e
00000230: 276c 173d c0a1 3c3f 62f4 033f dd04 2ebe
00000240: 9b58 883e b1b8 a73e 49c2 5dbe 7ebe ac3b
00000250: 35e8 92be 4b7c 953e d0a2 1f3f b720 fe3e
00000260: 0f56 b93e 8dcf 753e 076b 64bd e333 593e
00000270: 9d89 4e3e 2ef0 003e 472a 27bd d431 213f
00000280: 1f4e 2f3d 7a33 1bbd ce06 61bf f56b a2be
00000290: de0e ac3d 28d1 5f3e d90a 24bd 60e4 363e
000002a0: 46c7 893e da8d 883e 40d9 a93e 3aed 0b3c
000002b0: ea0e 1e3e d2cd 883e 97a1 423e a168 05bf
000002c0: cc84 e63e 6d93 87be 8f66 26bf e69c 3cbe
000002d0: e5f7 21be 3fef 983c d5c2 433e 4193 1e3e
000002e0: a37b c43e e9a2 2b3e 23ff 65bd a28f 0d3f
000002f0: 1af8 55be 6d46 10bc ff76 54bd 6650 99bc
00000300: c16f e93e d23b fbbe 8403 2e3e 0620 e8be
00000310: 51d1 aa3e 8ba3 0d3f ac46 cd3e 24ee f83e
00000320: 2bd3 b5be e4f6 563e b068 3f3c f0e1 1a3e
00000330: 511c 0a3f a521 3f3e 8b9e dc3e 22c1 b73e
00000340: bf94 0c3f d840 bf3e 32a4 be3e c15f 91bd
00000350: 2c41 fcbc 24ec bab9 9f71 c63e 405b 803d
00000360: 4199 0b3c a549 113f 72e8 413f 9d9a 3f3f
00000370: 2533 4d3d 40ee a83e 4336 113e 75f7 2b3e
00000380: 7c67 993e 549e 2c3e 0ae1 51be a552 70be
00000390: a2e8 0a3f c954 25be 0a8c dbbe 23cf 2f3f
000003a0: 7f07 483f a596 413f 25a5 793e ccee 323e
000003b0: 51b2 2d3e db10 c83e de17 663f 3673 053f
000003c0: f728 2c3f 6133 fc3e 71a2 2d3f 292a 303f
000003d0: 9674 563d 9263 9f3e 87c7 113f 5a6e 953e
000003e0: 4549 243f f425 a13e 4ad5 223e 80e1 5e3c
000003f0: d575 b23e 3d5d b13e db93 203e 903a db3e
-0.12969193 -0.021454653 -0.11832323 -0.13796641 -0.053224884 -0.61333364 0.12697068 -0.10732357
-0.6997638 0.2416417 0.6513357 -0.084410384 -0.57709783 0.37262866 -0.09007506 -0.021048434
0.018551676 0.669443 0.51932573 0.5953401 0.50990725 0.40022403 -0.27747864 -0.10420997
0.43936828 0.25341785 -0.10247814 0.21906735 0.32715204 -0.3286459 0.6472658 0.3135632
0.29015085 0.38946626 0.31739882 0.20271513 0.23206316 0.2462181 0.021448646 -0.5150525
0.9979777 0.21260576 -0.13986127 -0.076996826 0.42040423 -0.08148352 0.22517371 0.39198673
0.1675329 0.22466949 0.4133685 0.0078497315 0.3073715 0.21029106 0.18350899 0.03518391
-0.27329257 -0.00039134483 0.18420513 -0.047849845 0.22746722 0.19134043 -0.101142295 0.390554
-0.05255091 0.2980188 0.24254687 0.106664106 0.09133386 0.606006 0.28007072 0.35846493
0.18117584 -0.4343072 0.16129458 0.69864196 0.3197587 -0.17394975 0.119258545 0.27354804
-0.35715258 0.57612777 0.32904878 0.32498953 0.42238858 0.27012983 0.5727529 -0.021221297
0.39254433 0.13438086 0.39403296 -0.25185812 -0.11747279 -0.25270286 0.33513436 0.4541223
0.482118 0.67709965 0.0851912 0.31929564 0.34860128 -0.008995011 0.28650936 0.34992287
0.289636 0.33302015 0.28191128 0.41540775 0.5089541 -0.065366924 -0.22198913 0.62628824
0.66820574 -0.25672123 0.68107563 0.12791257 0.4067626 0.39443812 -0.07405406 -0.025402388
0.5064384 0.2757342 0.4093929 0.15571521 0.520657 0.6173119 0.52533907 0.006970475
0.2197441 0.18245563 0.22099045 -0.29658183 0.010110672 0.20093042 0.34226993 0.08714236
-0.005815217 0.6046781 0.24312276 0.37546793 0.036968376 0.7368431 0.51544774 -0.16994043
0.266301 0.32758096 -0.21656145 0.005271732 -0.28692785 0.2919639 0.6235781 0.49634334
0.3619847 0.24004956 -0.05576613 0.212112 0.20169683 0.12591621 -0.040811803 0.62966657
0.04279911 -0.03789089 -0.8790101 -0.3172299 0.08401273 0.2185713 -0.040049408 0.17860556
0.26909846 0.26670724 0.3317356 0.008540446 0.15435377 0.26719528 0.19006954 -0.52112776
0.4502319 -0.26479664 -0.6500024 -0.18419227 -0.1581722 0.018668769 0.19117291 0.1548586
0.38375577 0.16761364 -0.05615152 0.5529729 -0.20895424 -0.008805853 -0.051871296 -0.018715095
0.45593074 -0.49069077 0.16993529 -0.45336932 0.3336282 0.5532767 0.4009298 0.48619187
-0.3551267 0.20992619 0.011682674 0.15125251 0.5394946 0.18665178 0.4308971 0.35889536
0.5491447 0.3735416 0.37234646 -0.07098342 -0.030792795 -0.00035652623 0.3875856 0.062674046
0.008520425 0.56753 0.7574531 0.74845296 0.050097603 0.3299427 0.14180855 0.16793616
0.29961765 0.16857272 -0.20496002 -0.23469026 0.5426122 -0.16145624 -0.4288028 0.6867544
0.7813644 0.7562049 0.24379404 0.17473906 0.16962554 0.3907536 0.8988017 0.5212892
0.6725001 0.4925795 0.6782599 0.6881433 0.05235728 0.31130654 0.5694508 0.29185754
0.641743 0.31474268 0.15901676 0.013603568 0.34855524 0.34641448 0.15681402 0.42818117

encoder.weight_hh_l0 f4 [256, 64]
00000000: 3a11 9abb 3af3 103e 1c55 c13e b5d9 293e
00000010: 5119 b4be 0ce0 80be 9568 5bbd 3137 d63d
00000020: f057 19bd 1d15 c93d 6375 b23d 2f73 8bbc
00000030: e1c7 96be a22b cdbd eb80 903e 6849 f2bd
00000040: 37fb 363e ddad 2c3d 47a9 7fbe c1a2 c1bd
00000050: fd2f fa3c d5ba bcbc 98ae 4fbe 5824 373e
00000060: 423e f2bd bd78 c03d 56da 983d 4eec 8abd
00000070: 9ac5 ac3d 446a 0b3e d283 5d3e cb03 12be
00000080: 268e 5e3e 8945 a93d 5ad3 13bd 0130 353e
00000090: 8541 963d 3dc8 a83e 8c63 c53d 2107 4e3d
000000a0: 8666 7b3d c529 e73d 5ae1 90be bf0b 0f3e
000000b0: 85d8 303e e84c 73be 27cc f83c f3d8 40bc
000000c0: ab89 873c 858e a83d d995 46be b46e abbc
000000d0: 5294 d7bd caf9 95be 0a94 a93e 9c12 263d
000000e0: f5a4 e93e 70cb a2bd 1517 40be a9e3 243e
000000f0: 778b 1bbe 9d15 60bd 22e9 66bd e466 63be
00000100: 802d 923e 4836 27be 6635 93be d510 d03d
00000110: cdc5 3a3e 7315 2c3e f13c a8bd fa5f aa3e
00000120: e46d dc3c 4252 00bc c428 dfbd 2b64 193e
00000130: 2540 293e d10b 773e f850 ab3b ed0a 21bc
00000140: 3605 43be f455 f0bc 6fc6 793e b4c7 c43e
00000150: 31d5 39bd e107 69be 3350 573c a25d dd3d
00000160: b009 323e 76a9 94be 4e79 933d ee55 a6bc
00000170: 26cf 3fbd 47f0 343d 0990 84be 009b a13e
00000180: 91dc 6ebd 9d5b 19be f489 26be 4dfa b1bd
00000190: 9af1 babd ba0e afbe 5e0b a13e d99f 60bd
000001a0: 0026 dabe a0c9 803e cf8b 483e fe21 2fbe
000001b0: 4213 a9bd 66a2 263e aa44 cfb9 8424 35be
000001c0: 732a 8dbe 7149 003e bf84 7fbc 4e12 d63e
000001d0: 92b8 393e 657e 883d 0fca 06bf daac 82be
000001e0: fe0d 2d3d 6e19 88bd 05c6 0ebd 066b b8bd
000001f0: d91d cd3d eb03 a8bd 9ae8 6a3e b87e 863e
00000200: 4048 9b3c 269e 30bc fd9d 38be 2687 c3bc
00000210: 5d07 e3bd 98ad b7bd b165 eabd d26b 9e3d
00000220: 4bda 9ebe d172 023e 8e35 953c 8a24 54be
00000230: ba47 d3bd d932 713d ae80 39be e1c5 883e
00000240: 2da1 743c e278 5dbd 2ec8 a2bc e4a1 a23a
00000250: 7e20 f4bd a201 193e 6b00 4d3e 1d6e b1bd
00000260: 8b78 823e 181d ddbd a6a8 48be 1e4d 0c3e
00000270: 7475 5abd aee1 fa3d fde3 163e 266c 823e
00000280: 6afb 3ebd 6e39 96be f945 a23d 321d c13d
00000290: 7758 80bd ef80 5bbe 97f2 353d baf8 35be
000002a0: 5c9e 4fbd 2324 fe3d e05a 0fbe a8b5 0bbe
000002b0: ad49 9bbe 345f 92bd 2639 4cbe 1f69 a6bd
000002c0: 45bd 633e 59c6 04be d0f0 0fbe 4f5b 943d
000002d0: f581 1a3d c371 a43d 1ccb 303e c725 f7bd
000002e0: ac9a cd3e b9f1 38bd 7e49 863d bdca 62be
000002f0: 3abc 0b3e 374b 9fbe 5070 60bc c23d fb3d
00000300: 7b58 bbbe f826 213e 778e 553e 22f8 bdbe
00000310: da81 40be 0504 98bd cd58 42be 9681 153e
00000320: d1e4 ee3e 9570 8f3e b140 0e3e a4d6 42be
00000330: ecc1 3dbd 2d5b 6cbe 36d9 233f ecf2 983e
00000340: 0cab c4be 1cfe e63c 6ba8 a9bc ebd5 2cbe
00000350: bc2f 6cbe af07 883c d8cb 023d b23a 2a3c
00000360: 5076 29bf a9a9 96bd 0b7b 723e 781e 83be
00000370: 81f1 233f 7499 2dbe 57a7 e1bd 12c5 e5be
00000380: 1db1 fb3d 0ce4 e23c 5d10 e3be b9ac 5b3e
00000390: 9f33 003e 29b6 ce3e ab90 e53d 0d72 1dbe
000003a0: 324d 223f 99e3 423e 7a38 8ebe e8d9 f9be
000003b0: 6607 d7be db33 e33e 5479 83be e9b2 903d
000003c0: f9b1 483e 4e4f e1bd ca39 5ebe 4055 08bd
000003d0: 1fb0 613d 5c1d 32bd bfba e9bc 7c7f 3e3e
000003e0: ceb5 e4bd c60e 793e de0f 38be 084f e33e
000003f0: 8a8b 95be a6a4 a83e 9ae9 1e3d e0c2 a7be
-0.0047017606 0.14155284 0.37760246 0.16586955 -0.35175565 -0.25170934 -0.053566534 0.10459746
-0.03743738 0.0981848 0.08713796 -0.017022697 -0.2944937 -0.10018088 0.28223357 -0.118304074
0.17869268 0.042157996 -0.24966918 -0.09454871 0.03054046 -0.023038307 -0.20281446 0.17884958
-0.11828281 0.09398029 0.07463519 -0.06783353 0.08436127 0.13614756 0.21632317 -0.1425926
0.21733913 0.08265216 -0.036090232 0.17694093 0.073367156 0.3296527 0.09638128 0.050299767
0.06137707 0.11287264 -0.2829693 0.13969325 0.17270096 -0.23759806 0.030370785 -0.011770475
0.016545137 0.082303084 -0.193931 -0.02092681 -0.10526337 -0.29292136 0.33120757 0.04054509
0.45633665 -0.07948959 -0.18758805 0.1610247 -0.1518992 -0.054708112 -0.056374677 -0.22207218
0.2855034 -0.163293 -0.28751677 0.101594605 0.18239518 0.16805057 -0.08214749 0.3327635
0.026907869 -0.007832112 -0.10896447 0.14979617 0.16528375 0.24125601 0.005228158 -0.009829265
-0.19044957 -0.02933786 0.24392103 0.3843361 -0.04536933 -0.22756912 0.01314168 0.10808875
0.17386508 -0.29035538 0.072008714 -0.020304646 -0.04682841 0.04417446 -0.2589114 0.31563568
-0.058315817 -0.14976354 -0.16263562 -0.08690319 -0.09128113 -0.34190923 0.31453985 -0.054839943
-0.42607117 0.25153828 0.19584583 -0.1710281 -0.08255626 0.16272888 -0.00039533275 -0.17689711
-0.2757145 0.12528016 -0.015595614 0.4181084 0.18136814 0.06664733 -0.52652067 -0.255225
0.042249672 -0.06645475 -0.034856815 -0.09004788 0.100154586 -0.08203872 0.22940293 0.26268554
0.01895535 -0.010779893 -0.18029018 -0.023868155 -0.11085389 -0.08968657 -0.11445177 0.07735409
-0.3102592 0.12739111 0.018214013 -0.20717064 -0.10316415 0.058886383 -0.18115494 0.2671347
0.014931005 -0.05407036 -0.019870844 0.0012407866 -0.1192026 0.14942029 0.2001969 -0.086635806
0.25482592 -0.10796565 -0.19595584 0.13701293 -0.05333467 0.12250076 0.14735408 0.25473136
-0.046626486 -0.2934069 0.079235025 0.09429397 -0.06266873 -0.21435903 0.044420805 -0.17770663
-0.050688133 0.12409236 -0.1399951 -0.13643515 -0.30329648 -0.07147065 -0.19943675 -0.08125519
0.2224017 -0.12966289 -0.14056706 0.07243978 0.037721593 0.08029511 0.1726498 -0.12067752
0.40157068 -0.0451524 0.06556986 -0.22147651 0.13646021 -0.31112072 -0.013698652 0.12267639
-0.36590943 0.15737522 0.20855127 -0.37103373 -0.18799534 -0.07422642 -0.18979187 0.14600214
0.46658948 0.2801558 0.13891865 -0.19027191 -0.046327516 -0.23081656 0.6400331 0.29872835
-0.38411748 0.02819734 -0.02071019 -0.16878478 -0.23065084 0.016605226 0.03193268 0.010389971
-0.66196156 -0.07356579 0.2367975 -0.25609183 0.6404038 -0.16953069 -0.11018246 -0.44876915
0.12289641 0.027696632 -0.44348422 0.21452607 0.12519692 0.40373352 0.11209234 -0.15375538
0.6339904 0.19032134 -0.27777463 -0.48799062 -0.41997832 0.443755 -0.25678504 0.070653744
0.19599141 -0.11001454 -0.21701732 -0.033284426 0.055099603 -0.04348503 -0.02853143 0.18603319
-0.11167489 0.24322042 -0.17974803 0.44396234 -0.29208022 0.32938117 0.038797 -0.32765865

encoder.bias_ih_l0 f4 [256]
00000000: 0f22 37be bb3f 5f3e 982c a2bd 5988 b23d
00000010: c8ff 08bd 5234 603c 1a26 6d3c d250 923e
00000020: 1258 5c3d 6303 423d db69 dd3d 772a 52be
00000030: e43c cb3e 489a 003e 7cb8 063e 7908 863d
00000040: 9e6a 803e 8997 303d 8ef0 a33e f897 fbbc
00000050: 613d 673e 9176 f83d b357 a43d 7e3d 4b3e
00000060: 2a73 b13d dddd 57bd d6f5 fa3c 8cf7 593e
00000070: 2f9e 783e 723a a73d e2c4 0e3e e29c b73d
00000080: 6c2f 383e 5403 8ebd ba6c 293e 9462 8c39
00000090: 6fb0 c63d 25dc 5a3e c70d 26be e1c3 d6bc
000000a0: c1a1 b53d 26ce 20be 11a8 a1bd c408 a83d
000000b0: ed3e 533d 3569 9abd 70d7 bd3d c020 2cbe
000000c0: 5e97 863e bba5 dd3d 3ff8 aa3d 7be3 9c3e
000000d0: 78b7 493e 38af 813e 5f30 3f3e 2b64 8ebc
000000e0: ed30 603e 2e34 b23d 7c2e edbc 864e d83d
000000f0: 3a2a 073e e402 8b3b f6b5 e1bd 1f46 cabc
00000100: 64e1 eebc 7e6c 17bd 156c 0fbe cc81 653a
00000110: a819 6abd eafd 873d e53e e7bd d560 233b
00000120: 9916 4cbe 5f91 fbbc 288e b03d c732 c73c
00000130: eeb0 abbe b4a1 403c a963 13be 4791 0abe
00000140: 5acf c2bb c4d7 2cbe 4827 6f3e 5b62 25be
00000150: 64d7 efbb 2c77 063e c8c2 de3d bf30 c4bd
00000160: 65af 2a3d a722 02bc 13cb 0dbd e10f 8abe
00000170: a515 863d b8b7 4abe c697 d0bd 2287 6d3e
00000180: f5ea f1bd 32fe 973c 5cea a3bc d9e5 b63d
00000190: bae9 03be 4d00 153c ae60 073e 1374 a23d
000001a0: 490d 6dbe fdbd 80bd f0e9 9c3c c511 2fbe
000001b0: 5e85 e6bd d48e 943c c316 063e afe5 11be
000001c0: 4b83 90bb 529b cfbd ecb7 59bc 0907 e53d
000001d0: 6430 9b3d 8594 b9bd 0fcf aebe 8306 08be
000001e0: 3765 1bbe 94e7 6d3d 6034 253c 62ec 8dbc
000001f0: 4b51 483c c902 c5bc df1e 5ebe b62a 19be
00000200: ca55 04bd 7740 cebd 8a6f 7bbd a312 52bd
00000210: aa29 1fbd a28c 683d dadd 4d3d 6fc5 0fbe
00000220: 77bd bdbd 66ee b33d 27a1 1abc 05bc bc3d
00000230: 9bc3 d4bc 4cee cabd 4f19 1b3d 63fe d5bd
00000240: 86f1 42bd 3bb8 a6bc 86f9 34be 7d77 c43b
00000250: e469 b0bd e784 b03c 98e1 ba3d c729 2bbd
00000260: 5a92 013e 5571 3d3c 322b 913d e578 033d
00000270: bd13 953d 5330 26bc 0a64 0ebd efcc 9fbc
00000280: 4269 b73b db5a f3bc e4e1 7cbd 1712 04be
00000290: 3041 9ebd 72e3 973d 4c57 e5bd 4ae4 153e
000002a0: 89e9 c6bc 74bf 0abe 2ec0 c7bd d798 cc3d
000002b0: 0211 87bd 0e9d 1bbb ea2c 033e 936c 0ebc
000002c0: 85ae 5f3b 8234 3dbd 4e59 203d dce7 65bd
000002d0: aa4c 933d 21e2 babd 0a09 c9bb 0d40 9fbd
000002e0: 540c 2a3d 4608 48bd b7c6 b2bc b44f 383c
000002f0: c617 d2bd 7f78 9e3d 167b c5bd 0a72 20bd
00000300: b4cf a0bd 3412 2b3e 59cd c13d deee f43d
00000310: 9930 9e3d b8b3 373d 6910 303e 939d 8d3e
00000320: 7872 d33c 9e75 893d 882b af3d fa99 49bd
00000330: 36c0 c93e cf28 0a3e c58c 8f3e 141d 0b3b
00000340: e2cb 0f3e 301d fa3d 2263 873e 18e9 0d3e
00000350: da50 813e 782f 203e 2eb1 38ba 2a2e 743e
00000360: ba30 f83d 2cfa 163d 8b3f 7ebd 5947 5d3e
00000370: 2980 133f 7d1c 2c3e 1225 f03d 57ad e93d
00000380: 4ed5 2a3d 1841 50bd b822 363e d9aa d13c
00000390: 1a52 58bd 3d19 9f3e d614 f9bd 38bd 4a3d
000003a0: c9db 8c3d d3ac a03d 666d 5339 fc93 673e
000003b0: 316e c93d 089a b5bc d41a 2bbd 17c3 acbd
000003c0: 192b 723e 52f3 da3d 4f6a f63d de20 813e
000003d0: 8390 873e cbe7 823e f031 fa3a acfd 09be
000003e0: 62f6 583e 84b0 723e 0dcc 0d3e 4a33 3d3e
000003f0: 4515 06be 9eea c3ba 7672 02be de7f bc3d
-0.17884086 0.21801655 -0.07918662 0.087174125 -0.033447057 0.013684349 0.014474416 0.28577286
0.053794928 0.04736651 0.10811206 -0.20524012 0.39694893 0.12558854 0.13156313 0.06544585
0.25081342 0.043113265 0.32019466 -0.030712113 0.22582008 0.1213199 0.0802454 0.19847676
0.08664544 -0.05270182 0.030634802 0.21285838 0.24279092 0.081654444 0.13942292 0.0896547
0.1798684 -0.069342285 0.16545382 0.00026776327 0.09701621 0.21373041 -0.16216193 -0.02621645
0.08868743 -0.1570364 -0.07893384 0.08204797 0.051573683 -0.07539598 0.09269607 -0.16809368
0.2628736 0.10822626 0.083481304 0.30642304 0.19698894 0.25328994 0.18670796 -0.017381748
0.21893664 0.08701359 -0.02895283 0.10561852 0.13199702 0.004242288 -0.110210344 -0.02469164
-0.029160209 -0.0369687 -0.14006074 0.0008754998 -0.057153374 0.06640227 -0.11291293 0.0024929543
-0.19930495 -0.030708967 0.08620864 0.024316205 -0.33533424 0.011757303 -0.14393486 -0.13531981
-0.0059451284 -0.16879183 0.23354828 -0.16150801 -0.0073193777 0.13131398 0.10876995 -0.0957961
0.041671176 -0.007942832 -0.034617495 -0.2696524 0.06547097 -0.19796646 -0.101851985 0.2319608
-0.118123926 0.018553827 -0.020009212 0.08930559 -0.12882128 0.00909431 0.13220474 0.07932296
-0.23149599 -0.062862374 0.019154519 -0.17096622 -0.112559065 0.018134512 0.1309462 -0.14247774
-0.0044101826 -0.10137047 -0.013288479 0.111829825 0.07577589 -0.09061531 -0.34142348 -0.13283734
-0.15175329 0.05808218 0.010083288 -0.01732463 0.012226413 -0.02404918 -0.21691464 -0.14957699
-0.032308377 -0.100708894 -0.06138567 -0.051287305 -0.038858093 0.056774743 0.050260402 -0.14040159
-0.09264653 0.08785705 -0.009437836 0.092155494 -0.025972178 -0.09908733 0.037865933 -0.10448911
-0.047593616 -0.02035152 -0.1767331 0.0059956894 -0.08613947 0.021547748 0.0912506 -0.04178789
0.12653485 0.011562665 0.07088317 0.032097716 0.072791554 -0.010143357 -0.034763373 -0.0195069
0.0055972645 -0.02970641 -0.061738864 -0.12897526 -0.07727277 0.074164286 -0.11198291 0.14637867
-0.02428128 -0.13549596 -0.09753452 0.099900894 -0.06595041 -0.0023744735 0.12810102 -0.008692878
0.0034131121 -0.046192653 0.039147668 -0.05612932 0.07192357 -0.09125162 -0.0061351107 -0.077758886
0.041515663 -0.048836015 -0.02182327 0.011249471 -0.10258441 0.077378266 -0.096426174 -0.039171256
-0.07852116 0.16706163 0.09462995 0.11959623 0.07724113 0.044849128 0.1719376 0.27659282
0.025811419 0.06711887 0.08553225 -0.04921911 0.39404458 0.1349213 0.28037086 0.0021227049
0.14042619 0.12212598 0.2644282 0.1385845 0.25256997 0.15643108 -0.0007045445 0.23845735
0.12118669 0.036859676 -0.062072318 0.21609248 0.5761743 0.16807742 0.117258206 0.11410015
0.04170733 -0.05084333 0.17786682 0.025594162 -0.052812673 0.31073943 -0.12162177 0.04949686
0.06877858 0.078454636 0.00020163282 0.22615045 0.098354705 -0.022168174 -0.041773632 -0.08435648
0.23649253 0.10690941 0.120319955 0.25220388 0.2647744 0.2556747 0.0019088369 -0.13475674
0.21187738 0.23700148 0.1384737 0.18476596 -0.13094051 -0.0014947241 -0.12738976 0.09204076

encoder.bias_hh_l0 f4 [256]
00000000: ba23 adbc f98f c63d edba c03d a262 083e
00000010: e9c6 913c e186 3bbd bfcd c63b d7a1 433e
00000020: 8cf5 193e b670 3b3e 581c 1c3e 3e1c 71bd
00000030: ddc4 bc3e c34f ec3d ba45 873e ff79 553d
00000040: 84c8 ee3d 9fe4 053d 2d4c 803e d00b 71bd
00000050: f229 0d3e 6d3b 323e 2206 9a3d 0e0f 013e
00000060: 1783 ff3d a404 71be a800 ffbd a990 5f3e
00000070: d26e 3d3e e216 b83d 21d0 403d 1174 653e
00000080: d391 3d3e 68c6 01be 9b06 903d 82c2 5d3c
00000090: e118 be3d 8c8a 843e 3cd5 3dbe bf93 123e
000000a0: 8647 81bd f8c4 05be 71f6 0bbe b4ed 363e
000000b0: 61de 973d 165e eebd 107a ee3d 93de 6fbd
000000c0: ef6d 1c3e a933 ba3d eb22 a43d edf6 8d3e
000000d0: 5df6 743e 1127 b43d 6670 173e 9474 813d
000000e0: 881e 3f3e de49 3c3e 8085 0f3e 0699 bb3d
000000f0: 71dc 543d 671d 69bd f60c 89bc 8052 75bd
00000100: a3fe 1dbe ddb9 fb3d ee71 f7bd 14ef e73d
00000110: 09f0 bbbd 8fbf 9b3d 7c42 e8bc 32a2 f3bd
00000120: 9fc7 8bbc 0c2a 05be 5f79 513d 245f 43bd
00000130: 6323 68be 325e 8abd 8aa6 98bd c196 0fbe
00000140: 4b16 31bd bdba 63be 119c 0d3e ee3e 01be
00000150: eef2 1c3e 3e37 53bd 33bd 3e3e d25c 3abe
00000160: c517 eb3d 230a f53c 5d44 aa3d 1d14 83be
00000170: 8f54 6e3d e573 13be 7653 4bbd 9549 d73d
00000180: 57d5 87bd 9677 04be 6a5a eebd 1061 bdbd
00000190: e214 513c 7beb 33bd 451e 883d 4684 4dbd
000001a0: 899c 2dbe 1e1f e53d 1aa9 223d ada1 09be
000001b0: 68ac 5dbb 522a da3d 265c b43d ea2e 8fbd
000001c0: 91b3 173d 6966 09be aea9 d63d c175 89bc
000001d0: 038a d13d 2fb6 38be b448 6abe 26cb c6bb
000001e0: 34cd c93c d8fe b3bd 1ef2 34bb 71cf cd3d
000001f0: bbd9 483d f212 253c 27e0 f2bd eb3e 18be
00000200: 8338 8d3d 9c61 c5bd c506 653d 0a05 68bd
00000210: 7c67 c83d 35f6 443d cc17 5dbd 824d e23c
00000220: abcd 87bd e713 6bba 6670 c53d 379b ebbb
00000230: c1bd ac3c 4663 acbc d4b5 8abd 6782 723d
00000240: 7c2e 0b3d 0e4c 063e dd13 443d ad7f 813d
00000250: 740e 723d 9e3d 56ba 50c2 5cbc 4a2f 81bd
00000260: f59c e83a b73d 813b f518 173d 0304 1c3d
00000270: 9bcc 70bd 00e1 6bbc 6254 b93d 3b57 10be
00000280: 2280 c83d 728d fa3d ca76 99bd 3480 e43d
00000290: 2c58 753d 2c5b 243d 3062 5ebd 5ef5 683c
000002a0: 9437 873c 24b7 433d 097b ca3d 30b9 8039
000002b0: de32 29bd a1c7 0f3d d21e 1d3e 11da 053e
000002c0: 60fa fc3d 95e8 673d 8865 983d 3236 143c
000002d0: 4eb2 c6bd ff25 4d3c e656 e63d 7acb 9fbc
000002e0: 1e4e da3d 0675 b53d 25a3 003e 1d62 69bc
000002f0: f6f9 2dbd 9d3a 04be 2eb1 d13d 692b 95bc
00000300: 5699 91bd b744 7d3e de8e 123e 431c d93d
00000310: 85d5 873e a9a3 d13d 2ec0 123e b927 733e
00000320: 8bdc 8a3d bd6c 6f3e 7f4c a63d 0a54 bb3d
00000330: f5cf d93e e8ed 213d 470b c43e cbe8 1ebc
00000340: 4af3 213e c991 ccbc 82bf d43e 14e1 5bbd
00000350: 88c1 763d 636d cd3d 76b7 d1bd e792 223e
00000360: d36c e2bc 5492 16be 24fd c2bc ac85 153e
00000370: 0e53 e83e 10b8 8a3d 86e8 433e a342 5c3e
00000380: 44db 09bd bae4 86bd f96a 8d3d a467 513e
00000390: 993d a43d ac14 fa3d cb23 dcbc ac1c de3d
000003a0: 3d69 293d cf8c 96bd 1e22 b3bd 4207 953d
000003b0: f588 783e afe1 18be bb54 e03d d39d 5cbe
000003c0: 266e 563e 6655 e73d 907a a13d c071 db3e
000003d0: 3d57 603e 738c ac3e 7e7e 1b3e 8322 09bd
000003e0: 722b 9d3e a4db 553e 6c7a a93d c9a2 acbb
000003f0: ac18 92bd 5416 bbbd c5cc c8bd 86c7 353e
-0.0211352 0.09695429 0.09410653 0.13318875 0.017795043 -0.045782927 0.0060670073 0.19104706
0.15035075 0.18304715 0.15245187 -0.058864824 0.36868945 0.11538651 0.26420385 0.052118298
0.11659339 0.032688733 0.25058118 -0.058849156 0.13785532 0.17405482 0.07520701 0.12603399
0.12476175 -0.23536927 -0.12451297 0.21832527 0.18499306 0.089887396 0.047073487 0.22407557
0.18512659 -0.12673342 0.0703251 0.013535144 0.09282089 0.25886953 -0.18538374 0.14314173
-0.0631247 -0.13063419 -0.13668229 0.17864114 0.07415462 -0.11639039 0.11644375 -0.058561873
0.15276311 0.09091885 0.080144726 0.27727452 0.23922105 0.08796514 0.1478897 0.06321064
0.1866399 0.18387553 0.1401577 0.09160046 0.05196804 -0.056912806 -0.016729813 -0.05989313
-0.15429167 0.1229131 -0.12082277 0.113248974 -0.091766424 0.07604896 -0.028352015 -0.11896171
-0.01706296 -0.13004321 0.05114114 -0.047698155 -0.22669749 -0.067562476 -0.0745364 -0.14022352
-0.04323415 -0.22239204 0.13829066 -0.12621662 0.15327045 -0.051566355 0.18626861 -0.1819947
0.11479143 0.02991206 0.083138205 -0.25601283 0.05818611 -0.14399679 -0.04964014 0.105120815
-0.06632488 -0.12936243 -0.11638339 -0.09247029 0.0127613265 -0.043925744 0.066463985 -0.050174974
-0.16954245 0.11187576 0.03971205 -0.1344058 -0.0033824686 0.10652603 0.088066384 -0.0699137
0.037036482 -0.13417973 0.104815826 -0.016779782 0.10231402 -0.18038248 -0.22879297 -0.0060666976
0.024633981 -0.08788842 -0.0027610133 0.10049332 0.04903577 0.010075318 -0.1185916 -0.14867751
0.068955444 -0.09637758 0.05591466 -0.05664543 0.09785363 0.048086364 -0.053977773 0.02762485
-0.06631025 -0.0008967504 0.09640579 -0.007190134 0.021086575 -0.021043431 -0.06772962 0.059206393
0.033979878 0.1311495 0.047870506 0.0632318 0.059095815 -0.0008172634 -0.013474062 -0.06307848
0.0017746972 0.0039441246 0.036889035 0.038089763 -0.058788877 -0.014396906 0.09049298 -0.14095776
0.097900644 0.1223401 -0.0749336 0.11157265 0.05989854 0.04012601 -0.054292858 0.014218656
0.016505994 0.04778208 0.09886748 0.00024552038 -0.041308276 0.03510249 0.15343788 0.13071467
0.12352443 0.056618292 0.074412405 0.009046124 -0.09701978 0.012521266 0.11247043 -0.019506205
0.10659431 0.08860211 0.12562235 -0.014244583 -0.04247471 -0.12912984 0.102388725 -0.018209176
-0.07109325 0.24733244 0.14312312 0.106010936 0.2653009 0.10236294 0.14331123 0.23745622
0.067803465 0.23381324 0.08120059 0.091468886 0.4254147 0.039533526 0.38289854 -0.009699057
0.15815464 -0.02497186 0.4155236 -0.053681448 0.06024316 0.100306295 -0.102400705 0.15876351
-0.027639782 -0.14704257 -0.023802347 0.14601773 0.45375866 0.067733884 0.1913167 0.21509795
-0.033656374 -0.06586595 0.06905169 0.20449692 0.08019561 0.12210974 -0.026872536 0.108453125
0.04136013 -0.07351076 -0.08746742 0.07276775 0.24270995 -0.14929841 0.10953661 -0.2154458
0.20940456 0.11295585 0.07884705 0.42860222 0.21908279 0.33700904 0.15184972 -0.03348018
0.3069721 0.20884567 0.08275303 -0.005268429 -0.07133612 -0.09135118 -0.09804682 0.17751893

lstm.weight_ih_l0 f4 [256, 64]
00000000: 2c98 8ebd 8196 883d a261 493d 542f 9f3d
00000010: 1770 15bd 4d01 883d bb39 7f3d 89f6 0f3e
00000020: 2dd1 ee3e c341 fc3d 6a2d b2bc 19de b9bd
00000030: 8509 88be 5f7b b4bd 7535 9fbd 8cde d5bd
00000040: 14c4 afbe 28e0 3abd 9099 883e bd7a c63c
00000050: 0e9f 813e 2ade f93d 28da a0be f0cf 1bbe
00000060: 9cdb 4dbd fc87 32bd 6901 39be f2af 36be
00000070: 0f38 623e 2b0e 25be a0df 65bd f43d ff39
00000080: 5249 9ebb 4de3 65bc 4295 9bbe c41d 9cbd
00000090: e646 90bd c1b2 c73d c571 92bd 6f07 81bd
000000a0: c01a 5b3e 2b0c 2bbd 6a08 a43d 9783 c7bd
000000b0: a32f 883d 30e5 1b3d 7f1f 163e 587a 9abd
000000c0: 8b4e 07be d086 48be e36c 99bd 43da d43e
000000d0: 63af 93be 02bf e4bd 0c7a 693e 944e 9cbb
000000e0: e325 8c3d dcf4 90be 5080 d23d 1e48 293e
000000f0: ce29 4b3e ae7c 233e 7b77 19be 2f06 47bd
00000100: 286e 8b3d eac6 1b3e 9287 8ebe 8942 10be
00000110: d2e6 3dbe a822 b2bd c09e 1fbe 944d dd3e
00000120: bd02 c7bd 5318 64bd 21cd 5fbe a79a 453e
00000130: c9ef 883e 9c8a 863e 8b5f 2f3e 4fa8 303e
00000140: cdcc a2bc e880 83be 7881 993c 0b13 813e
00000150: ac6d 48be ef10 d7be 48a3 473e 3462 973e
00000160: d6b5 16bd 9c02 8bbb 67c7 f5bd bed5 1c3e
00000170: c6f4 43bc 3335 343c 087d e7bd bb81 92be
00000180: fe65 afbd c8ec a53c 102c fcbd 57b8 c93e
00000190: b62d 5ebe 5733 b93e ab4b 5dbd 492a 22be
000001a0: 0a0c 17be 371a b83d 9be0 2d3e d55c 86be
000001b0: 7319 02bd 1cc3 143e eff4 15bd 7912 4dbe
000001c0: 2d3b cabd fa39 893e 3324 fc3d 24d5 903d
000001d0: 6d10 8e3e 0543 e03d 7d8f c5bd ecd9 a13e
000001e0: 2d3f dcbd 27f8 003e b340 a3be 971f 07be
000001f0: 7227 873e dfd5 44be 74fc 843e 3404 35bb
00000200: e1ba 55bd 333d d63c 14eb 0cbf e129 f7bc
00000210: 981b 203e 9ef1 9ebe eb8d c83d a19f f5bd
00000220: 9152 083f b523 c7be ebbd a8bd 2512 1cbe
00000230: 1d73 063f c26d 7a3e 39e7 78be 294b 1e3f
00000240: c74a 86be e12b d4be 048d b63e 24ba 873e
00000250: fd9e 3a3e bae9 37bd 02bf 853e 2c95 00be
00000260: da00 6ebe fb1b c8be e22f 92bc b1b6 0fbe
00000270: 8d02 333e bcee 16be 1a35 44bf 9d41 8e3e
00000280: c8bb 21bf 24cf 8cbe a86c 24be edc6 52be
00000290: cd7d e6bd 09d8 f3be 56c6 e03d e186 febe
000002a0: 84fe 80bd 091d 723e 010c 0fbd eaaf f2be
000002b0: 6180 953c a7d6 923e a40a d1be 9b3a 45bf
000002c0: 7b86 5dbe 99bc dcbb 9031 7abe 4a43 2cbe
000002d0: f92a 093e 20e7 713f 8294 b4be e734 eabd
000002e0: 1be9 10bf ae9e febd 142f 243e 1edc a23d
000002f0: 702e 5c3e 2d32 053e 4180 8c3e 5d1d 513e
00000300: 9abc 393e 67e8 273d f724 5a3e 9c16 b23e
00000310: e54b 73be 3a3e f83d 9f8b 773e e505 e43e
00000320: c565 cd3e c150 e1bd 5247 8abe f282 743e
00000330: 9890 2c3e 722a fa3d 9174 29be 7d15 b33c
00000340: 6af5 8b3e 028f 0bbe d2db fd3e 675f a9bd
00000350: 7b1d 9d3e 4d7b ecbd 0cd4 e0bd 768e 62bc
00000360: c563 9bbd 6e57 773e 4afa 7cbe 766e 23be
00000370: 4302 56be bf89 923b 2838 9e3e eaf9 5d3d
00000380: 6c2a 88bd 3c7d 3a3d 014e 233d f664 5dbe
00000390: 71c0 b7be bfbf 7e3d 3e85 503e c89a 00be
000003a0: de76 b9bd 4e08 7bbe 1b35 673d 84e6 73be
000003b0: 0298 523e df75 36be b290 5a3d de78 113e
000003c0: 6b84 38be 1c2e c13d ca35 b5bc 6ee5 283c
000003d0: 9c64 21be e8a5 3dbe c873 353e c3b7 8bbd
000003e0: 8eb6 0f3e 6520 85bd 6273 493d c896 84be
000003f0: 1e24 603d 4103 de3c 1731 33bd a446 79be
-0.06962618 0.06669331 0.049165376 0.07772699 -0.03648385 0.06640873 0.062310915 0.1405889
0.46643963 0.123172306 -0.02175017 -0.09075565 -0.26569763 -0.08812594 -0.07773868 -0.10442838
-0.34329283 -0.04562393 0.2667966 0.024228448 0.25316662 0.122005776 -0.3141644 -0.1521604
-0.050258264 -0.043586716 -0.18066944 -0.17840555 0.22091697 -0.16118686 -0.05612147 0.0004868355
-0.004830518 -0.0140312435 -0.30387312 -0.07622865 -0.07044773 0.097508915 -0.07150606 -0.06300246
0.21396923 -0.04175965 0.08009417 -0.09741896 0.06649711 0.038060367 0.14660452 -0.075428665
-0.13213556 -0.19582677 -0.074914716 0.4157277 -0.28844747 -0.11169244 0.22800463 -0.0047701094
0.06843164 -0.28311813 0.1027838 0.16531417 0.19840166 0.1596553 -0.14986984 -0.04858988
0.0680812 0.15212598 -0.27837807 -0.14087881 -0.18545082 -0.086980164 -0.15587902 0.4322325
-0.09717319 -0.05568726 -0.21855594 0.19297276 0.26745442 0.26277626 0.1712629 0.17251705
-0.019873047 -0.25684285 0.018738493 0.2520984 -0.19573087 -0.42005107 0.1949588 0.2956711
-0.036794506 -0.0042422544 -0.120009236 0.15315911 -0.011960214 0.010999012 -0.11303145 -0.28614601
-0.08564375 0.020254508 -0.12313092 0.39398453 -0.21697125 0.36171982 -0.05402724 -0.15836443
-0.14750686 0.08989375 0.16980211 -0.262427 -0.03176255 0.14527553 -0.03661054 -0.20026578
-0.09874568 0.26802045 0.12311592 0.07071903 0.27746907 0.10950283 -0.09646509 0.31611574
-0.10754237 0.12594663 -0.318853 -0.13195644 0.26397282 -0.1922221 0.25973856 -0.0027620913
-0.052180175 0.026152229 -0.550462 -0.030171337 0.15635526 -0.31043714 0.09792694 -0.119933374
0.53250986 -0.3889443 -0.08239349 -0.15241297 0.525194 0.24455932 -0.24306954 0.61833435
-0.26228926 -0.41439727 0.3565446 0.26509202 0.18224712 -0.044900633 0.2612229 -0.12556905
-0.23242512 -0.39083847 -0.017845098 -0.14034535 0.17481442 -0.14739507 -0.76643527 0.27784434
-0.63177156 -0.27501786 -0.16057074 -0.20583697 -0.11254463 -0.4762576 0.109753296 -0.4971228
-0.06298545 0.23643889 -0.034923557 -0.47399837 0.018249692 0.28679392 -0.4082843 -0.7704255
-0.21633331 -0.00673635 -0.24432969 -0.16822544 0.13395299 0.94493294 -0.35269552 -0.114358716
-0.5660569 -0.124326095 0.16033584 0.0795214 0.2150209 0.13007422 0.274416 0.20421357
0.18138352 0.04099312 0.21303163 0.34782875 -0.2375942 0.12121244 0.24174355 0.44535747
0.40116706 -0.11001731 -0.27007538 0.23878077 0.16852033 0.12215127 -0.16548373 0.021860832
0.27335674 -0.13628772 0.49581772 -0.0827015 0.30686554 -0.11546955 -0.10977945 -0.013827911
-0.07587389 0.24154446 -0.24704853 -0.15960106 -0.208993 0.004471987 0.3090222 0.054193415
-0.06648716 0.04552959 0.039869312 -0.21620545 -0.3588901 0.062194582 0.20363328 -0.12559044
-0.09055875 -0.24514887 0.05644713 -0.23818403 0.20565799 -0.17818402 0.05336065 0.14206263
-0.18019263 0.09432623 -0.022120375 0.010308607 -0.15761036 -0.1852032 0.17719948 -0.06822159
0.14034483 -0.065003194 0.049182303 -0.25896287 0.054721944 0.027101161 -0.043747988 -0.24343354

lstm.weight_hh_l0 f4 [256, 64]
00000000: 1feb 333d 863f 56be f79c d63d 6add 61be
00000010: d90e c6bd adf1 243e 9b84 8b3e fe44 bf3d
00000020: 55df a7be 53f3 0f3e 80aa 24be 566a 8bbd
00000030: 5725 353e a528 0d3d 63db 10bd 3c7b 2a3e
00000040: d44d 963e 87f2 28be 3f44 083e 11a9 babe
00000050: 658c 99bc 2570 d83c 9a4d b43c 34b3 09bd
00000060: d246 3ebd b1de 253e bf2f 873d a69a d5bc
00000070: 8649 193e 009b d53d bad7 c1bd 19e5 90be
00000080: 2a62 5f3e 9bef 4d3c 6608 f83d 4552 923c
00000090: 5374 91be 80ef 113e 45fc 8dbe 0eed 8dbd
000000a0: 40d4 353d 869b 853d 9d89 b2be f63b 71bd
000000b0: e890 8dbd 8dca 68bd 486d 98bd e728 cf3c
000000c0: f69a cabb e12d 74bd b166 01bd 03ff 58be
000000d0: df9d 35be f0d7 a83e a0c9 af3e 4832 17be
000000e0: d0ab 12be 0497 70be 3d6c 24be cea0 e53e
000000f0: 6f23 00be b8d6 0c3f 9e06 133d 29dc 51be
00000100: a379 b73d b772 723e 2af7 7a3e 62e2 413e
00000110: 7154 0b3e e74b edbc 4680 9dbd 6228 3dbd
00000120: fa2f fd3d a5d2 f7bd 8965 67bd ca0c 3f3e
00000130: fc8f 333e c8e9 7ebe 7d67 8bbc d540 593e
00000140: dc73 a93d 2a18 27be 180a ddbd cb34 323d
00000150: efba 63bc c69d 98be 076f 28bd e16c 143d
00000160: 8e2e 60be b657 333e 049a 6dbe 6de4 8e3e
00000170: 998a 71be 7ffc 34bd 187e cfbd bae0 4c3c
00000180: 7af8 dcbd da95 ac3d b347 403d b74b 323d
00000190: 5f2c ae3d 049e 063e 13ab f7bd e11e 82bd
000001a0: 093c e4be a1d2 883e e70b f7bc dd7a 09be
000001b0: a872 0f3e 3e80 b0bd 27a2 503e 9ca6 a33d
000001c0: e791 75be fdda b63d 8740 c6bd 88df e03d
000001d0: 7965 b6be 8e74 a23e 0df8 6cbe d48f 263d
000001e0: b2c2 e3bd b704 433e 1cc5 f2bd 448b fbbd
000001f0: 7ad5 a43d 45df 53be b494 dcbd 783e 28be
00000200: aac5 30be 97f5 a53d a2e5 aebd 539b 94bd
00000210: b8fd 733d 53b2 203e a341 1abe 3ace 293e
00000220: 2e30 1f3e 119d c1bc 5335 21be 5976 a73d
00000230: 0a3b 80bd 9055 8cbe 35bd 07be 4472 48be
00000240: 07e8 abbe e281 1d3d 25b1 8cbe 253f ce3d
00000250: 24f0 ebbc 23e9 a5bd ee96 87be 940b 57be
00000260: 87ac 2cbd 1f4e 383b 8303 5dbe 638b e93e
00000270: 2384 dabc 086b 973c 6f87 6a3c b6e1 193e
00000280: 7c38 62be 74c2 e23d dc9b f13d fb6d 7fbe
00000290: 0336 4a3e f9cd 0f3e edc9 ddbc 0dc3 743e
000002a0: 1dd5 023d ffcb 8cbe 3c0c 823e a8ee fb3d
000002b0: dc06 50be 017d f93c e10e 9b3d a84a 4fbe
000002c0: 2931 d03d 08bd 143e 0d1e 0b3e 1746 87be
000002d0: d61a 683d 4f84 c9bd 876d b73d 09ea 213c
000002e0: 38a1 8d3e 27c5 a63b fa0d 2b3c 4656 eebc
000002f0: 8828 3c3c 8872 953d ce65 e03d 4c3c 0a3e
00000300: ddb5 35be bd39 5c3e 45c3 5a3e 9432 0b3d
00000310: e791 9c3e 5ea2 aabd dca8 8fbc f32f 1cbe
00000320: 8e23 ab3e 2652 233c 8931 c03d ad36 19bd
00000330: c375 ca3d 126e 0c3d 46ad edbc a786 a63d
00000340: 839b 913d 4470 aabc 1daa c03d 7890 a5bd
00000350: 5fc0 14be f71c 033e c0ba 5a3d 5217 a23d
00000360: 0cfd 81bd 4bfc ae3c 5e3d 81be a0cf 173e
00000370: 260a 3f3e 49e6 41bb 06c5 e03c 71aa d73c
00000380: e154 bfbd 641b aa3d 5991 01be 7a20 983b
00000390: c3a1 42be cbb5 cebd eb9b dd38 56f9 9a3d
000003a0: ec9a 123e b9d7 0dbe 2271 423e d755 35be
000003b0: 5e56 a73d 997b 563e e73a 3cbe 5ec0 a5bd
000003c0: 607b c6bd a78a bb3d 37d3 21be a09f 76bc
000003d0: 2215 523e 7554 a03d 587c a5bd 884e 3bbe
000003e0: 9e5b c33d 1611 7d3d d198 d4bd 688d e2bd
000003f0: d790 21bd c7ff 003e d87c 1b3e 2b85 833d
0.0439254 -0.2092267 0.104791574 -0.22057119 -0.09670801 0.16107817 0.27249607 0.09339331
-0.32787576 0.14057665 -0.16080666 -0.06807391 0.17690025 0.03446259 -0.035365473 0.16648573
0.29356253 -0.16498767 0.13307284 -0.36457112 -0.018743703 0.026420662 0.02200966 -0.033618167
-0.04645426 0.16198231 0.06600904 -0.026074719 0.14969453 0.104299545 -0.09464975 -0.28299788
0.2181479 0.012569333 0.12110977 0.017861495 -0.2840906 0.14251518 -0.2773153 -0.0692998
0.04439187 0.06523804 -0.34870616 -0.058895074 -0.06912404 -0.056833792 -0.07442719 0.025288058
-0.0061830236 -0.059614066 -0.031592075 -0.21191029 -0.17736004 0.32977247 0.34333515 -0.14765275
-0.14323354 -0.23495108 -0.16056915 0.44849247 -0.12513517 0.55015135 0.035894983 -0.2049414
0.08958747 0.23676573 0.24508348 0.18934014 0.1360643 -0.028966857 -0.07690482 -0.04618109
0.123626664 -0.12100724 -0.056493316 0.18657222 0.17535394 -0.24893868 -0.01701712 0.21216138
0.082740515 -0.16317812 -0.10792941 0.04350738 -0.013899549 -0.29807872 -0.04112151 0.036236648
-0.21892759 0.17513928 -0.23203284 0.2790865 -0.23588027 -0.04418611 -0.10131472 0.012504751
-0.10789581 0.084270194 0.046943378 0.04352924 0.08504557 0.13146216 -0.12093177 -0.06353546
-0.44577053 0.26723197 -0.030157043 -0.13425775 0.14008582 -0.0861821 0.20374356 0.079907626
-0.23981439 0.089284874 -0.09680276 0.10980135 -0.35624292 0.3172955 -0.23141499 0.04066451
-0.111211196 0.19044767 -0.11854002 -0.12282422 0.0804853 -0.2069064 -0.1077055 -0.1643008
-0.17262903 0.08103483 -0.08539893 -0.07256188 0.059568137 0.15693025 -0.15064101 0.16582575
0.15545723 -0.023634465 -0.15742998 0.0817687 -0.06261261 -0.2740903 -0.1325577 -0.19574839
-0.3357546 0.038453944 -0.274789 0.100706376 -0.028801031 -0.08101108 -0.26482338 -0.2100051
-0.042156722 0.0028122736 -0.21583371 0.45614156 -0.026674336 0.018483654 0.014314516 0.15027508
-0.2209186 0.11072245 0.11797306 -0.24944298 0.19747166 0.14043416 -0.027073825 0.23902531
0.031941522 -0.27499387 0.2539996 0.123013794 -0.20315117 0.030455114 0.07571197 -0.20243323
0.101656266 0.14525235 0.13585682 -0.26420662 0.056666218 -0.09839689 0.089564376 0.0098824585
0.27662063 0.0050894204 0.010440344 -0.029093873 0.011484273 0.07297236 0.10956918 0.13499564
-0.17745157 0.215064 0.21363552 0.033983782 0.30580065 -0.0833175 -0.017536573 -0.15252666
0.33425564 0.009968316 0.09384448 -0.03740566 0.098857425 0.03428466 -0.029013287 0.08131152
0.0710974 -0.020805486 0.094074465 -0.08084196 -0.14526509 0.12804018 0.053400755 0.07914604
-0.06347093 0.021360537 -0.25242132 0.14825296 0.18656215 -0.0029586724 0.027437698 0.02632639
-0.09342361 0.083060056 -0.12653102 0.0046425434 -0.1900702 -0.10093268 0.00010567143 0.07567088
0.1431691 -0.13851823 0.18988469 -0.17708527 0.0817077 0.20945586 -0.18381844 -0.08093332
-0.09691501 0.09157305 -0.15803228 -0.015052706 0.20515874 0.07828609 -0.08080357 -0.18291676
0.09538959 0.061783873 -0.1038071 -0.11062127 -0.03944477 0.12597571 0.15184343 0.06421884

lstm.bias_ih_l0 f4 [256]
00000000: 1a51 dabc b34b a73d 80dd 6e3e 14d5 263d
00000010: 0111 fe3d 0503 3a3e ba0c 57bd 598d 7e3d
00000020: 1398 0c3e d632 953d ac9a 523d a999 bfbd
00000030: 0db6 bc3e 7fab bf3d 53e5 5b3d aa41 d2bc
00000040: 8259 813c 7f20 8dbc 9003 b23d c7ae 4b3d
00000050: a3cb 9cbd a585 2bbe b82b 193e 4775 123e
00000060: 39d0 e83d 8acd b9bb 0057 e3bd 3c52 653e
00000070: e628 9e3c 5cb3 32be b145 cb3e ec8f c93d
00000080: a481 383e f5ee f33d ec63 883c f6b4 3ebd
00000090: 7de0 76bd 3199 17be 597e b63c 4778 393d
000000a0: ca5b 453e 6bb6 913e 7a57 64bd 6488 683d
000000b0: 4d79 af3c c374 01bd 6d23 09be 7fab 993e
000000c0: 70f8 3bbd b47b 67be 2895 a93d 6ce9 02be
000000d0: 1b9e fc3d a3c6 093e 9161 163e d7d5 23be
000000e0: 83ac cf3d 4238 65bd 4ae3 bdbd 6e60 103e
000000f0: b2e7 3e3e 7c72 3bbd 7645 903e b352 093e
00000100: bc62 d23c f216 9a3e 65b6 b53e d2ea d73d
00000110: f850 0a3d 0bc1 923e ef8b 143e 3bb0 533e
00000120: 8660 073e 1064 c03d be20 483e 0efe 573c
00000130: 130e c93d 8b4c b73d d723 263e eca6 f23b
00000140: d002 c53d c3da 233e 9a74 f63c 265f b7bc
00000150: 57ed 7d3e 0c03 e43d 8f68 043e d066 f3bd
00000160: c3cd b83d 64cb bebd 42ba 023e 37a8 adbb
00000170: e924 963d 2b6d 263e 7064 0f3e f5cb 863e
00000180: 3a81 8f3e d24c 91bd 20c9 713d 6a7a db3d
00000190: 14fd 0c3d 73e5 ea3c 39c2 ff3c b5b8 8f3c
000001a0: c477 653c fc31 563e c8f9 a83d 8aa7 453d
000001b0: c438 3abc 17b5 66bd 14c6 2e3e e9e2 ad3d
000001c0: 4292 133e 0ab7 823e af9f f73d 219a 153e
000001d0: 1abd b43d 9829 183e 01c6 6a3e e695 923e
000001e0: 5b48 a83c 172b e13d 917d c03d 1f96 2e3e
000001f0: cd43 bf3c dff5 533e 0122 c0bc 5a76 203e
00000200: a123 e1bd 6d60 03be 27ba 96bd ebb0 3fbe
00000210: 4e8e 373e c74b f7bd 2f4a 21bd bd67 d6bd
00000220: fc82 ffbc 2fa6 78bd e06c 4e3e 0194 48bd
00000230: 1cb2 95bd caf2 41bd 6d14 013d dbb5 083e
00000240: 460f 17bc 397f 563b 3f88 39be 7360 a63d
00000250: b7e4 943c 2ec6 e5bc c5f7 223e c12c a8bb
00000260: 327c ac3d 21c0 5c3d ea14 84bd 7664 cdbd
00000270: a2a3 0e3d 5f0a ecbb c90a 0a3d e54f 32bd
00000280: 7edd 2ebd 9158 86bd 6ae6 033d da00 74bc
00000290: 9450 fa3c 0455 da3d 3bc6 023e c563 3ebd
000002a0: 9035 8ebd 3daf 72bc 4855 e9bc e76d d9bd
000002b0: c4d3 c13d baf3 03be f07d 07bd 4933 f4bc
000002c0: 2568 e53d 6366 e63d cc9f b0bd 4335 9cbc
000002d0: 6720 9f3d 22f5 343d d853 1d3b d717 2c3e
000002e0: 3fd5 adbb a71b 963d 2f33 923c d6a0 483d
000002f0: 1c53 47bc 2edf 60be b7fe 113e d8a4 b53c
00000300: 8163 573e f830 043e 243c 243e fafc 9bbd
00000310: 1451 ea3d d98e 7b3e 7c29 123e d530 91bc
00000320: d81d 823e 96fa 143e c8e6 323d 5fb0 023e
00000330: 8230 3c3e 096f a63d ba6a 9d3c e8ff 43bd
00000340: 1d84 393e 019e 913d f5c2 423e 2214 143e
00000350: 26cb 17bd e681 803e 85d9 7b3e 2d0f 663d
00000360: 3918 0b3e 7f0a 733e ad36 173e 0ccb 8d3e
00000370: bbaf eb3d a589 a33d ed11 ff3e 1305 523e
00000380: a27d a83e 05b4 ad3e a735 d93d a65d 1bbd
00000390: 78a0 a33b 6551 a7bd 5823 373b 99de 753e
000003a0: 9ea1 9b3e 0542 7c3d c73e 643d a443 293e
000003b0: 456d 4d3e f7f4 4dbd da1b fcbc 1404 ab3e
000003c0: 2964 2c3e ab0c 75bb 7a91 be3d 769e 2a3d
000003d0: 53d5 9c3e 8efb 7e3e 30ec dc3d 8b08 983e
000003e0: f109 bd3e fabe 0abd 4b13 d73c 576e c03e
000003f0: 0d80 19bc a594 163c 0448 923e 8dcb 6b3e
-0.02665 0.08168735 0.23326683 0.04073055 0.12405587 0.18165214 -0.05250237 0.06214652
0.13729887 0.07285087 0.051417038 -0.0935548 0.36857644 0.09358882 0.053685497 -0.025666077
0.015789751 -0.01722741 0.08692086 0.049727228 -0.07656028 -0.167502 0.14958084 0.1430255
0.1136784 -0.005670254 -0.11100578 0.22394651 0.019306611 -0.17451233 0.39701608 0.09841904
0.18018204 0.11910812 0.016649209 -0.046559297 -0.060272682 -0.14804532 0.022277044 0.04528072
0.19273296 0.28459486 -0.055747487 0.056770697 0.021420145 -0.031605493 -0.1339242 0.30013654
-0.045891225 -0.22605783 0.082804024 -0.12784356 0.12334844 0.1345468 0.14685656 -0.15999542
0.10140326 -0.055961855 -0.092718676 0.14099285 0.18643072 -0.045763478 0.28177994 0.13410453
0.025681846 0.3009563 0.35490718 0.10542835 0.033768624 0.28662905 0.14506505 0.20672695
0.13220415 0.093940854 0.1954374 0.01318313 0.098171376 0.08950146 0.1622461 0.0074051525
0.09619677 0.1600142 0.030084897 -0.022384237 0.24797569 0.11133394 0.12930511 -0.11884844
0.09023621 -0.093161374 0.12766364 -0.005299594 0.07331259 0.16252582 0.14003158 0.26327482
0.2802828 -0.070947304 0.0590297 0.10716708 0.03442104 0.028673863 0.031220542 0.01754413
0.014005605 0.20917505 0.08250767 0.04825548 -0.011366073 -0.056325044 0.17067748 0.08490545
0.14411262 0.25530273 0.12091004 0.14609577 0.08825131 0.14859617 0.22927095 0.28629988
0.020542314 0.10994547 0.0939895 0.17049454 0.02334776 0.20699261 -0.023453714 0.15670148
-0.10993124 -0.12829752 -0.073597245 -0.18719833 0.17925379 -0.12075 -0.039377388 -0.10469005
-0.031190388 -0.06070536 0.2015872 -0.048969273 -0.07309362 -0.047350682 0.03151362 0.13350622
-0.00921995 0.003272964 -0.1811838 0.08123865 0.018175466 -0.028048601 0.15914829 -0.005132288
0.08422126 0.053894166 -0.064493015 -0.10028927 0.03482402 -0.007203385 0.03370169 -0.043533225
-0.0426917 -0.065598615 0.03220216 -0.014892781 0.030556 0.10660747 0.12770931 -0.046481866
-0.0694381 -0.014812288 -0.028483048 -0.10616665 0.09464219 -0.12885943 -0.033079088 -0.02980961
0.112015046 0.112499975 -0.08624229 -0.019068366 0.07769852 0.04417909 0.0024006274 0.16805969
-0.005304962 0.07329493 0.017846672 0.04898151 -0.012165811 -0.21960136 0.14257322 0.02217333
0.21034051 0.12909305 0.16038567 -0.07616611 0.11441246 0.24566211 0.14273638 -0.01772348
0.25413394 0.14548716 0.04367712 0.12762593 0.1837788 0.08126647 0.01921593 -0.047851473
0.18116803 0.07110215 0.19019683 0.14460805 -0.03705897 0.25099105 0.24594696 0.056166817
0.13583459 0.23734473 0.14766951 0.27693975 0.11508127 0.07985238 0.49818364 0.20509748
0.3290835 0.33926407 0.106059365 -0.037931107 0.0049934946 -0.08169822 0.002794465 0.24010696
0.30396742 0.0615864 0.05572393 0.16529709 0.20061214 -0.050282445 -0.030775 0.3340155
0.16835083 -0.0037391584 0.09305091 0.041655026 0.30631503 0.24900648 0.10787237 0.29694018
0.36921647 -0.033873536 0.026254317 0.37584183 -0.009368909 0.009190713 0.2857057 0.23026867

lstm.bias_hh_l0 f4 [256]
00000000: dc9f 1f3e ec84 073e 501c de3d 7259 1d3e
00000010: 4c06 f03b ea54 6f3e 6050 753d 9fb6 a1bc
00000020: 11e6 543b fa02 d2bb b926 7b3c 9bb6 733d
00000030: a9ea d13e 5f75 54bd 50f4 d13d 6865 063c
00000040: a7e4 9f3d 957c 483e add8 a93d cfe2 a0bb
00000050: 8b42 37be 7caa 0fbe 4b40 bd3c 1e74 613e
00000060: b7b6 3e3e 5b92 523c 66ba abbb d0bc 9c3e
00000070: 2203 15bd de12 fabd 77db 793e b082 7c3c
00000080: 08e0 373e 3a24 553e e949 ca3b 48dc 993b
00000090: c960 b63d 7a69 31be 4e92 d43d bcf0 7a3e
000000a0: 09fb 353e 9f81 a93e 2eed e4bd 4b8c 303c
000000b0: b44b 753d 5b89 e43d e400 e0bd 107d 823e
000000c0: 936e 80bd 6d00 7cbe 5778 16bc 3561 e1bd
000000d0: 31f8 efbc 5e46 463d 826d fa3d 52a1 6cbe
000000e0: 9f2b 983d 0254 ff3c b742 31bc bc1a 3d3e
000000f0: a575 cc3d f97e 013d c44a 873e 67b0 f93d
00000100: 3ad5 503d 11c1 9c3e d8d7 8a3e 7f07 3a3d
00000110: 33a7 583e a83f aa3e 97c7 723d ab8a 5b3d
00000120: e4cb 823d 8aed d3bb ee74 a73e d33e 18be
00000130: b130 143e 2de8 963d 759f 583e 02d8 4fbd
00000140: 2466 103d de74 223e b9de ab3c eb34 82bd
00000150: d503 133e ffc1 633e 8fc9 123e 1a07 f8bd
00000160: 9776 e53d ab90 013d 81b0 e23d cba9 02bc
00000170: 0557 303d 09e8 a23d 0a54 0b3e cc0f 883e
00000180: 276f 6f3e 1e0b a43c 3890 df3b a242 c03c
00000190: f4ee 003d 6def 883e 3f53 dd3d afd1 f03d
000001a0: 02fd f43c 7d3e a63d d335 cfbd 134c b43d
000001b0: 4fc9 c43c 3130 d8bc 264b a43d 97fa 6b3d
000001c0: b595 da3d 3972 0a3e 38e5 1a3e 7778 5b3e
000001d0: a6cf 223d d314 e7bc 3d3c 9c3e 9355 da3d
000001e0: 9b07 3f3d 45f8 2c3e c7ce 533e fcb9 8c3d
000001f0: 8022 4bbd 1c5a 323e 5d81 21bd fdca 883e
00000200: 2e59 adbd 4c57 43bd fa74 e5bd 9300 3ebe
00000210: d998 3e3e 840a be3b da07 67bd 9a31 f8bc
00000220: b17b 64be 448e b4bd 9081 5b3e 7974 ad3d
00000230: 882c 76bc 7d9c 05be 9fbb 1e3e d465 41bd
00000240: 87fa 953d 81c1 1f3e 7f0e a3bd c7a3 e8bc
00000250: b448 6c3d 2342 883d 6ac1 293e 4b5a 6ebd
00000260: 2ad1 17bc 4443 2a3d 0b65 973c 15cd 3c3d
00000270: a498 92bd 8fd2 c43d 4398 ef3c c5c4 be3c
00000280: 31c2 333d c6a0 a03d c8b0 0abd 9f87 b5bd
00000290: 1a66 41bd b05a 453e c533 f63d 3fb8 163e
000002a0: 6c9d 94bd ee05 ed3b 37f7 e9bd 853d ac3d
000002b0: 5c87 d43d ea5d debd a0d2 bc3d abf4 343e
000002c0: 2d0e 37bc af2c b3bd b51f fdbd f1f3 4b3b
000002d0: 7a5a 743d 8b1a 2b3c 1576 8abd 7c64 7dbd
000002e0: 49b1 00bd d95f fb3d c949 1c3c 49b6 cebd
000002f0: e75d c83d 6a44 6cbc 047e 38bc 97e0 333a
00000300: 2ed3 453e 6413 84bc 6c25 5d3e a88c 1c3e
00000310: 7d37 023e 2cdd 803e b651 653e ab79 053e
00000320: a134 693e e666 3e3e e20c 733e 5074 643e
00000330: 04f4 8a3e 53d6 8d3d 6044 5b3d 4514 913d
00000340: 3683 813e 1db2 953d 06ff d93d d42b d03d
00000350: cf99 193d 762f 6f3e 7752 d93c b31e 9a3d
00000360: c427 393e b2e0 0f3e b20c 403e b722 ac3e
00000370: 7b53 993e a6e3 6abd 95bd af3e d914 253e
00000380: 505d 8e3e 65ff ed3d 3afb 753e 9c2e 98bd
00000390: 2d26 ca3d b1c7 1b3c 55fa 923c 4c84 3b3e
000003a0: 46f7 883e 35f7 1b3e a640 3a3d 0c5a 463e
000003b0: e0d3 b83e c36b b53d 65f6 023e 4093 b13e
000003c0: f666 1f3e b5f0 d63d 85fc 933d f30e d83d
000003d0: 1e22 c03e ab5a 5d3e e14d 81bb 94d6 a93e
000003e0: 5c32 a03e 7a49 f63d 121d 003e 9ed7 3a3e
000003f0: 3d97 363e 34b8 293e c1c3 593e dfa0 663e
0.15588325 0.132343 0.10845244 0.15366152 0.0073249694 0.23372236 0.059891105 -0.0197404
0.0032485763 -0.0064090462 0.015329056 0.059500318 0.40999344 -0.051869746 0.10251677 0.008202888
0.07807284 0.19578774 0.08293281 -0.00490985 -0.17896478 -0.14029878 0.023101946 0.22016951
0.18624388 0.012852277 -0.0052407263 0.30612803 -0.03637994 -0.1221063 0.24400125 0.015412018
0.17956555 0.208146 0.0061733616 0.004695449 0.08905179 -0.17325392 0.10379468 0.24505895
0.17771544 0.33106706 -0.11178051 0.010775636 0.05988665 0.11159011 -0.1093767 0.2548604
-0.0627109 -0.24609537 -0.009183965 -0.11004869 -0.029293152 0.04840695 0.12227918 -0.23108414
0.07430195 0.031167988 -0.010819129 0.1846723 0.099833764 0.03161523 0.2642423 0.12191849
0.0509846 0.30616048 0.271178 0.045417305 0.21157531 0.3325169 0.059272375 0.05359904
0.06386545 -0.006467526 0.32706398 -0.14867716 0.144717 0.07368503 0.21154578 -0.05074311
0.03525366 0.15864894 0.020980226 -0.063577496 0.1435693 0.22241972 0.14334701 -0.121107295
0.1120426 0.031632107 0.11068822 -0.007975052 0.04305174 0.079544134 0.13606277 0.26574552
0.23382245 0.020024832 0.006822612 0.023469273 0.031477883 0.26745167 0.108068936 0.11758744
0.0299058 0.081173874 -0.10117688 0.088035725 0.024021773 -0.026390167 0.08022146 0.057612028
0.106730856 0.13520135 0.15126503 0.21432672 0.03974881 -0.028208172 0.30514708 0.10660853
0.046638113 0.16891582 0.20684348 0.06871411 -0.04959345 0.17417186 -0.03943001 0.26717368
-0.08464275 -0.047690675 -0.11203952 -0.18554907 0.18612994 0.0057995934 -0.056403972 -0.03029709
-0.2231281 -0.088161975 0.21436143 0.08469481 -0.0150252655 -0.13047977 0.1550126 -0.04721625
0.07323175 0.1560116 -0.07961749 -0.028398408 0.057686523 0.066532396 0.16577688 -0.05819158
-0.009266177 0.041568056 0.018480798 0.04609402 -0.0715802 0.09610473 0.029247409 0.023287186
0.043886367 0.07843165 -0.033859998 -0.08863758 -0.047216512 0.19272876 0.12021593 0.14718722
-0.07256588 0.007233373 -0.114241056 0.084101714 0.1037738 -0.108577564 0.09219861 0.17671458
-0.011172813 -0.08748757 -0.12359563 0.0031120742 0.059656598 0.01044334 -0.067608036 -0.061863407
-0.031419072 0.12274141 0.009539076 -0.10093362 0.097835355 -0.014420608 -0.011260513 0.00068617746
0.1931884 -0.016122527 0.21596307 0.15288031 0.1271648 0.2516874 0.22394451 0.13034694
0.22773983 0.1859394 0.23735383 0.22309995 0.27139294 0.06925645 0.053532004 0.07083944
0.25295419 0.07309363 0.10644345 0.101646096 0.0375002 0.23357949 0.02652858 0.07525387
0.18081576 0.14050558 0.18754843 0.33620235 0.29946503 -0.05734601 0.34324327 0.16121234
0.27805567 0.11620978 0.24021617 -0.07430765 0.09870563 0.009508059 0.017941633 0.18312186
0.26751155 0.15231021 0.04547181 0.19370288 0.36099148 0.088584445 0.12789305 0.34682655
0.1556662 0.1049513 0.07225899 0.10549726 0.3752603 0.21616618 -0.0039460515 0.33171523
0.3128842 0.12025733 0.1251109 0.18246314 0.1783113 0.16574174 0.2126608 0.22522305
