weights/2/model.pt (torch_old, 21086 bytes, 14 tensors)

encoder.weight_ih_l0 f4 [52, 17]
0	0x3e4aff1c	0.19823879
1	0xbf2afadb	-0.66789025
2	0xbe06d326	-0.13166484
3	0xbf8eac62	-1.1146357
4	0xbe39044f	-0.1806805
5	0x3df47374	0.119360834
6	0x3fc7ca69	1.5608646
7	0x3f8a5475	1.0807024
8	0x3feb44a4	1.8380322
9	0x404cdea6	3.2010894
10	0xbfcc5ea7	-1.5966386
11	0x40045c05	2.0681164
12	0x3ef12cdb	0.47104535
13	0x3fd33a3f	1.650215
14	0x3eba0afa	0.363365
15	0x3f0ab908	0.54188585
16	0xbe35e027	-0.17761289
17	0x3f9aa4a0	1.208149
18	0x3e66289a	0.22476426
19	0x3fb283e1	1.3946496
20	0x3ed7a644	0.42119038
21	0x3f73a14e	0.95168006
22	0xbfb06089	-1.377946
23	0x3f8b77af	1.08959
24	0x3eb0e3de	0.3454885
25	0x3e2dc9d2	0.1697152
26	0xbef32db6	-0.47495812
27	0xbee4cc69	-0.44687203
28	0x3fb6cfae	1.4282129
29	0xbf215027	-0.6301293
30	0xbdd56495	-0.10419575
31	0x3e527203	0.20551305
32	0x3e1ba62b	0.15200107
33	0xbe8d5dd2	-0.27610642
34	0x3f4cae70	0.7995367
35	0xbd676877	-0.05649611
36	0xbf042fab	-0.51635236
37	0x3e3eb033	0.18621902
38	0xbf048d72	-0.5177833
39	0x400a6244	2.1622477
40	0x3c85b6e2	0.016322557
41	0xbe1bf726	-0.15230998
42	0x3f8d99c3	1.1062549
43	0xbe92d3f3	-0.2867733
44	0x3fe436f7	1.7829274
45	0x3f8c32c6	1.0952995
46	0x4003a8d0	2.0571785
47	0x3f5aba08	0.8544011
48	0x3e99d730	0.30046988
49	0x3ed9c87b	0.42535767
50	0xbe6e5924	-0.23276192
51	0x3e2b14e4	0.16707188
52	0x3f43fc80	0.7655716
53	0x3d10423d	0.03521942
54	0x3f1e7520	0.6189747
55	0xbe67a588	-0.22621739
56	0x405a704f	3.4131048
57	0x3f02ecb1	0.5114241
58	0x3f85d8db	1.0456804
59	0x3fd2e663	1.6476558
60	0x401f53ea	2.4894967
61	0x3ee9d013	0.4566656
62	0xbf3b42b3	-0.7314865
63	0xbf61cced	-0.88203317
64	0x3d0b9590	0.03407818
65	0x3f00962a	0.5022913
66	0x3eb6153c	0.35563076
67	0x3fa36ff0	1.2768536
68	0xbf0847cf	-0.5323457
69	0x3eea2e68	0.4573853
70	0x3f87e132	1.0615599
71	0x3e3822f4	0.17982084
72	0x3f76ad54	0.9635823
73	0xc031cb01	-2.7780154
74	0x3fadcae1	1.3577539
75	0x3f878fb2	1.0590727
76	0x3fd39c89	1.6532146
77	0xbf28c946	-0.6593212
78	0xbfa4b2cb	-1.2867063
79	0xbcea5874	-0.02860663
80	0xbf496aad	-0.786784
81	0x3fb7f986	1.4373024
82	0x3f0e0541	0.55476767
83	0x3f07b3df	0.53008837
84	0xbf2d66cc	-0.6773498
85	0x3d13ab7b	0.03605221
86	0x3f2bade5	0.67062217
87	0xbdec5065	-0.115387715
88	0x3eb07e27	0.34471247
89	0x3dfb757e	0.12278269
90	0x4019a451	2.400654
91	0x3e5dce72	0.21660784
92	0xbd526147	-0.051362302
93	0x40301926	2.751535
94	0x402cbf1d	2.6991646
95	0x3f112e97	0.56711715
96	0x3c714597	0.014726064
97	0x3f8d56b6	1.1042087
98	0x3f55c8ce	0.8350953
99	0x3f27593a	0.65370524
100	0x3f3967f2	0.7242423
101	0xbec2cae8	-0.3804543
102	0x3f5ccc4f	0.8624925
103	0xbdb4ce67	-0.088284306
104	0x3f49a953	0.78773993
105	0xbe9a2a5f	-0.30110452
106	0x3f1fecc0	0.62470627
107	0x40115bc7	2.2712266
108	0x3e6a785e	0.22897479
109	0x40280c17	2.625738
110	0x40329b89	2.790743
111	0xc0190100	-2.390686
112	0x40037e96	2.0546012
113	0x3f2563f1	0.64605623
114	0x40137414	2.3039598
115	0x3f49f7bb	0.7889363
116	0x3f5d9e07	0.86569256
117	0x3f4ebd60	0.80757713
118	0x3d0a85be	0.033818953
119	0x3ddd654b	0.10810336
120	0x3c335be0	0.010947198
121	0xbf08b800	-0.5340576
122	0x3e1517b5	0.14559825
123	0xbebdd877	-0.37079212
124	0xbff13c3f	-1.8846511
125	0x3f387e74	0.7206795
126	0x3da4301c	0.08016989
127	0xbebbfa7d	-0.36714545
128	0x3ee9e56f	0.45682856
129	0x40243cd9	2.5662138
130	0x3fc12c94	1.5091729
131	0x3f959fa5	1.1689345
132	0x3eb3da2c	0.3512739
133	0x3a9d5dd5	0.0012006114
134	0x3ec0b03f	0.37634465
135	0x3fb18b14	1.3870568
136	0xbf0e29b3	-0.5553238
137	0x3f355ae7	0.7084183
138	0x3ec9f28b	0.39442858
139	0x3e7ab96e	0.24484798
140	0xbe40805c	-0.18798965
141	0x4012d662	2.294335
142	0x3fd431e7	1.6577729
143	0x3eb610da	0.35559732
144	0x3fbd6bdc	1.4798541
145	0x3f87ef37	1.0619878
146	0x3fb3162f	1.3991145
147	0xbeddfb3b	-0.43355736
148	0x40302ced	2.752742
149	0x3f652252	0.89505494
150	0x3ee0160e	0.43766826
151	0x3e2cc5aa	0.16872278
152	0x3f52db87	0.8236622
153	0x3f9009af	1.1252955
154	0x3f198cec	0.59980655
155	0xbe000397	-0.1250137
156	0x3f7c741b	0.9861466
157	0xbe51ff98	-0.20507658
158	0x3fb64df2	1.4242537
159	0x3fb3b00a	1.4038098
160	0x3f42cd03	0.76094073
161	0x3ce2c9b9	0.02768408
162	0x405e323b	3.4718158
163	0x3f10c055	0.56543475
164	0xbeea63f1	-0.45779374
165	0x3f4505f0	0.76962185
166	0xbda1342b	-0.078712784
167	0xbda1f34d	-0.07907734
168	0x3df39ba1	0.11894918
169	0x3f58cf8a	0.8469168
170	0x3e59e62c	0.2127921
171	0x3ce49677	0.027903778
172	0xbd0d8b16	-0.03455647
173	0x3eb37830	0.35052633
174	0x3d88d03f	0.06680345
175	0x3eb9a687	0.36259863
176	0x3f5146ea	0.8174883
177	0x3fb4d191	1.4126455
178	0xbd68b002	-0.05680848
179	0x3e4967bf	0.19668482
180	0x4009ce20	2.1532059
181	0x3e422715	0.18960221
182	0x3f8af64c	1.0856414
183	0x3e92edb9	0.28696993
184	0x3e502e17	0.20330082
185	0xbe87460c	-0.2642063
186	0xbee3636a	-0.44411784
187	0x3ed05e51	0.40696958
188	0xbf5bbf5b	-0.8583886
189	0x3e75a91c	0.23990291
190	0xbf1896ab	-0.596049
191	0xbdcbb6ec	-0.09946999
192	0xbf9c3cf6	-1.2206104
193	0x3e0034cb	0.12520139
194	0x3fd99f38	1.7001715
195	0xbfeb52cd	-1.8384644
196	0xbfb84b36	-1.4397953
197	0xbfcc3599	-1.5953857
198	0x400d8856	2.2114463
199	0xc067a245	-3.6192791
200	0x3e649f1f	0.22326325
201	0x3f393e80	0.7236099
202	0x3e92db88	0.28683114
203	0xbf6ad6df	-0.9173412
204	0x3f341b89	0.70354515
205	0xbcab7bec	-0.020933114
206	0xbd8ff16d	-0.0702847
207	0x3e2e23ce	0.17005846
208	0x3ea10df5	0.3145596
209	0x3e84f1de	0.2596578
210	0x3f84497f	1.0334929
211	0xbeb1519c	-0.34632576
212	0xc0a2cf79	-5.0878263
213	0xbfa4960f	-1.2858294
214	0x3fc45462	1.5338252
215	0x40302473	2.7522247
216	0x3f0f7833	0.56042784
217	0x3f83869a	1.0275452
218	0x3ea44d43	0.32090196
219	0x3ea51f88	0.3225062
220	0x3d4bec16	0.049785696
221	0x3e4d6459	0.20057811
222	0xbf8145c4	-1.0099416
223	0xbde117cd	-0.10990868
224	0xbf3ca610	-0.7369089
225	0xbdbfee03	-0.09371569
226	0xbf2cf948	-0.67567873
227	0x3ff437e6	1.9079559
228	0xbe4f9c5e	-0.20274493
229	0x400b09f7	2.1724832
230	0x3fc13fa3	1.5097545
231	0x3d5424be	0.051792853
232	0xbf453fa3	-0.77050227
233	0xbf1fbc25	-0.6239646
234	0xbeb41f46	-0.3518011
235	0xbd00797a	-0.03136585
236	0xbc2cbbba	-0.010542804
237	0xbe817f99	-0.25292662
238	0x3f787f2d	0.97069055
239	0x3e284894	0.16433936
240	0x3ef0c858	0.4702785
241	0x3c7a9358	0.015293919
242	0x3e409132	0.18805388
243	0xc026f940	-2.608963
244	0xbddd4c75	-0.10805599
245	0xbf679800	-0.9046631
246	0xbeb8021b	-0.35939106
247	0xbf2bf2f0	-0.6716757
248	0xbf9a3eef	-1.2050456
249	0x3e2f951d	0.17146726
250	0x3f0da6ee	0.5533284
251	0x3ecba8ae	0.3977713
252	0xbe9fde27	-0.31224176
253	0xbe9e2577	-0.30887958
254	0x3d782fd4	0.060592487
255	0x3f1e2bcb	0.6178557

encoder.weight_hh_l0 f4 [52, 13]
0	0x3e6814f7	0.22664247
1	0xbdb4b626	-0.088238046
2	0xbe699f73	-0.22814731
3	0x3effc42a	0.4995435
4	0xbf06e425	-0.5269187
5	0x3e1c4014	0.15258819
6	0x3f1a6949	0.603169
7	0xbe5b0cef	-0.21391653
8	0xbeda0ff6	-0.42590302
9	0x3f03549d	0.51300985
10	0x3ebd8788	0.37017465
11	0xbdbeedde	-0.09322713
12	0x3ebdc8df	0.37067315
13	0x3e90e3cc	0.28298795
14	0xbe4b812b	-0.19873492
15	0xbeabd14b	-0.33558115
16	0x3de03da9	0.10949261
17	0xbeca2b96	-0.39486378
18	0xbf532afc	-0.82487464
19	0xbf47da9b	-0.7806794
20	0x3e9ac552	0.30228668
21	0x3f88809b	1.0664247
22	0xbf054782	-0.5206224
23	0x3e369cce	0.17833254
24	0xbf03614b	-0.5132033
25	0x3d42b649	0.047537122
26	0x3f054701	0.5206147
27	0xbe64c0f5	-0.22339232
28	0xbf7175fb	-0.9432065
29	0x3ef230d9	0.47302893
30	0x3ebd8bb3	0.37020645
31	0x3eda1bd6	0.42599362
32	0xbf390067	-0.7226624
33	0xbf034b84	-0.512871
34	0xbdd39423	-0.10330989
35	0x3ec656aa	0.38737994
36	0x3c4caacd	0.012491894
37	0xbebdbdf9	-0.37059
38	0xbed65530	-0.41861868
39	0xbf3d8777	-0.7403483
40	0xbceda6d8	-0.029010221
41	0xbed853df	-0.4225149
42	0x3f8807a8	1.0627337
43	0xbdbc224a	-0.091862276
44	0xbf5529be	-0.8326682
45	0x3f8b10a0	1.0864449
46	0xbdc332f8	-0.09531206
47	0xbf27a7e5	-0.6549056
48	0x3f17be85	0.59275085
49	0xbdb122a6	-0.08649187
50	0x3f8fb9ea	1.1228611
51	0x3f4b8cfb	0.79511994
52	0xbea153ff	-0.31509396
53	0xbf65ee0e	-0.8981637
54	0xbe4c6b5a	-0.19962826
55	0xbf8233e0	-1.0172081
56	0x3f1e3d78	0.61812544
57	0xbdf40462	-0.119148985
58	0x3ef01858	0.46893573
59	0x3eb28e24	0.3487407
60	0xbe54d1b4	-0.2078312
61	0xbe8f7723	-0.28020582
62	0x3cd80c16	0.02637295
63	0xbe8c9499	-0.2745712
64	0x3f2980ab	0.66211957
65	0x3e1bcb7f	0.15214346
66	0xbf481d9f	-0.781702
67	0x3e82932a	0.25502902
68	0xbe9a27df	-0.30108544
69	0xbcbab38e	-0.022790696
70	0xbf118b2d	-0.5685299
71	0xbe8f7cbf	-0.2802486
72	0xbdf1b606	-0.11802296
73	0xbe3c9744	-0.18417078
74	0x3e84f080	0.25964737
75	0x3cea75ae	0.028620567
76	0xbe85553d	-0.26041594
77	0xbeb630be	-0.35584062
78	0x3d1b27b4	0.03787966
79	0xbfd470bd	-1.6596905
80	0x3f00238f	0.5005426
81	0x3f41d278	0.75711775
82	0xbfb768bd	-1.4328839
83	0xbe5297f9	-0.20565785
84	0x3f1e9b49	0.61955696
85	0xbed1cf4e	-0.40978473
86	0xbe76841a	-0.2407383
87	0xbf391282	-0.72293866
88	0xbd34f1f3	-0.044176053
89	0x3e87cdef	0.26524302
90	0xbefe37ea	-0.49652034
91	0xbd97d395	-0.07413403
92	0xbdf8371b	-0.121198855
93	0x3db0ce22	0.08633067
94	0xbd05d772	-0.032676168
95	0x3f2893c0	0.6585045
96	0x3f5c5b82	0.8607713
97	0xbe9f96d9	-0.31169775
98	0x3efe233f	0.49636266
99	0x3e63dfee	0.22253391
100	0x3fb1d634	1.3893495
101	0xbf6daf02	-0.92845166
102	0x3e9819fd	0.29707327
103	0xbe33c399	-0.17555083
104	0xbe91c65c	-0.2847165
105	0xbe8986a7	-0.26860544
106	0x3e48dde3	0.19615893
107	0xbe724b6c	-0.23661584
108	0xbec2f6d4	-0.3807894
109	0x3d8d704b	0.06906184
110	0xbfa3d5ef	-1.2799662
111	0x3f1a3c8b	0.6024863
112	0xbe3908ba	-0.18069735
113	0x3e7777df	0.24166821
114	0x3d8ac60a	0.06776054
115	0xbf0a3df9	-0.5400081
116	0x3dbc69e4	0.091998845
117	0xbda8cefb	-0.082426034
118	0xbf5fa94e	-0.87367713
119	0xbf9e4e23	-1.2367595
120	0x3d67cf98	0.05659446
121	0x3e1ee27e	0.15516087
122	0xbf02a00d	-0.5102547
123	0xbf46205c	-0.77393126
124	0xbe37d415	-0.17951997
125	0x3f1f77b1	0.6229201
126	0xbe1a96b4	-0.15096551
127	0x3e18f45b	0.14936964
128	0xbe729641	-0.2369013
129	0xbd2881d7	-0.04113945
130	0xbbf3773f	-0.0074299867
131	0xbf3e8fb7	-0.7443804
132	0x3e9805e5	0.29691997
133	0x3ef25237	0.4732835
134	0xbdfb6238	-0.12274593
135	0xbef8026d	-0.4843935
136	0xbe627727	-0.22115766
137	0x3c357e44	0.011077467
138	0x3e9b0378	0.30276084
139	0x3e472877	0.1944903
140	0xbf32ce5f	-0.6984615
141	0xbeb4cc3b	-0.35312065
142	0x3f6da444	0.92828774
143	0xbe937609	-0.2880099
144	0xbf4baa56	-0.79556787
145	0xbf3a692c	-0.7281673
146	0x3ed48331	0.4150634
147	0x3ea306df	0.3184118
148	0x3e761673	0.24032001
149	0x3d9625a0	0.07331395
150	0x3f398242	0.7246438
151	0x3dbbb8c7	0.09166103
152	0x3e299dda	0.16564122
153	0xbea18fff	-0.31555173
154	0x3f028d8e	0.50997245
155	0x3ed4e292	0.4157911
156	0xbe9d3242	-0.30702406
157	0xbef07ddc	-0.46971023
158	0x3dd2ad9e	0.10287021
159	0xbe76cab7	-0.24100767
160	0x3ee081e6	0.43849105
161	0xbea78d1a	-0.3272484
162	0x3f3d0411	0.7383433
163	0x3e10bc70	0.14134383
164	0xbe7ac085	-0.24487503
165	0x3d876b79	0.06612296
166	0x3d4aa356	0.049472176
167	0x3f5b289e	0.8560885
168	0xbed691c9	-0.419081
169	0xbec00ff8	-0.37512183
170	0x3e7259eb	0.23667113
171	0xbf373710	-0.71568394
172	0xbf3eac30	-0.7448149
173	0x3f5b6c19	0.8571182
174	0xbf5e77c3	-0.8690149
175	0x3f948239	1.1602241
176	0x3f4298f1	0.7601462
177	0x3f32d886	0.6986164
178	0x3f509ea6	0.8149208
179	0x3ea7a118	0.32740092
180	0xbc89adb1	-0.016806455
181	0x3e1c5c02	0.15269473
182	0xbefa36b0	-0.48869848
183	0xbe94a09e	-0.2902879
184	0x3e30cc4d	0.17265435
185	0xbde42912	-0.11140646
186	0x3ed774f8	0.42081428
187	0xbede321e	-0.4339761
188	0x3e5ca811	0.21548487
189	0x3f7a79aa	0.97841895
190	0x3c4c3f19	0.0124662155
191	0xbf2412aa	-0.6409098
192	0xbe4ce85e	-0.20010516
193	0x3e9dbcd7	0.30808136
194	0xbf3613f1	-0.7112418
195	0x3dc01aba	0.09380098
196	0xbf5d74c4	-0.86506295
197	0xbee0b8cd	-0.43890992
198	0x3f099149	0.5373731
199	0x3f493300	0.78593445
200	0xbf4ac2ce	-0.792035
201	0xbf3b9df9	-0.7328792
202	0x3d47561b	0.0486661
203	0xbde10b32	-0.109884635
204	0xbe97d81c	-0.29657066
205	0xbe47121d	-0.19440503
206	0x3f23a04b	0.6391646
207	0x3f3aa539	0.7290836
208	0xbf12176a	-0.5706698
209	0xbf9cfc17	-1.2264432
210	0x3dda3274	0.106541544
211	0xbd156e89	-0.036482368
212	0xbfa0ca27	-1.2561692
213	0xbf29d2a3	-0.6633703
214	0x3e2d2043	0.16906838
215	0xbe4732ef	-0.19453023
216	0x3ee40b74	0.44539988
217	0xbecfe457	-0.40603897
218	0x3f37fa94	0.71866727
219	0x3ea0be98	0.31395411
220	0xbe804c53	-0.2505823
221	0xbe849867	-0.25897524
222	0x3e1d0fa5	0.15337999
223	0xbeecdf26	-0.46264
224	0x3e99ac8b	0.30014452
225	0xbc5014f2	-0.012700306
226	0x3e5fb4b6	0.2184628
227	0x3ed0a345	0.40749565
228	0x3f70620a	0.93899596
229	0xbf0268fd	-0.5094145
230	0xbe9774ef	-0.295814
231	0xbf14f111	-0.5818034
232	0x3ee1e1de	0.44117635
233	0xbe94d873	-0.29071388
234	0xbf88317d	-1.0640103
235	0xbf43ef16	-0.7653669
236	0xbf3de61f	-0.7417926
237	0xbd185bc3	-0.037196886
238	0xbbb19c53	-0.0054202466
239	0xbf68f4fb	-0.9099881
240	0xbef1d163	-0.47230062
241	0x3f055322	0.52079976
242	0x3f3f84e7	0.7481217
243	0x3e4434e6	0.19160804
244	0xbfbced41	-1.4759904
245	0x3f7e091f	0.9923267
246	0xbdb91971	-0.09038056
247	0xbece00cf	-0.40234992
248	0xbf3013ad	-0.6878002
249	0xbeaeaefc	-0.34117877
250	0x3f08aead	0.53391534
251	0x3e493555	0.19649251
252	0x3f821892	1.0163748
253	0xbf5233a4	-0.8211005
254	0x3e814822	0.25250345
255	0xbebacfb2	-0.36486584

encoder.bias_ih_l0 f4 [52]
0	0x3ee3d9ae	0.44502014
1	0x3cfb114e	0.0306479
2	0x3bb501ea	0.00552391
3	0xbec6ae9b	-0.38805088
4	0xbee04968	-0.43806005
5	0x3eaa2dfd	0.3323821
6	0x3e42593b	0.18979351
7	0xbd4ee3be	-0.05051016
8	0xbe426a4a	-0.18985859
9	0xbde9ea65	-0.1142166
10	0xbe4355f7	-0.19075762
11	0xbd127e7f	-0.035765167
12	0x3cf9e9a6	0.03050692
13	0x3c8f1b5a	0.017469097
14	0xbe0bc48d	-0.13649197
15	0xbe209eba	-0.1568555
16	0xbeac4930	-0.33649588
17	0x3dfd912b	0.12381204
18	0x3e894700	0.2681198
19	0x3e2bf411	0.16792323
20	0x3e1296c3	0.14315324
21	0x3e0bb8eb	0.1364476
22	0x3e5e547b	0.21711914
23	0x3d876fed	0.06613145
24	0x3cdbd5f4	0.02683542
25	0xbe0a429c	-0.13501972
26	0x3dafae3a	0.08578153
27	0x3d1d2da7	0.038373616
28	0xbd48442f	-0.04889315
29	0xbd321094	-0.04347284
30	0xbe6e808d	-0.23291226
31	0x3cca1679	0.024668919
32	0xbdab0f0b	-0.083524786
33	0xbd848ccd	-0.06472168
34	0x3da3963f	0.079876415
35	0xbe2b1983	-0.1670895
36	0xbdcb4c6c	-0.09926686
37	0xbb7d4ca9	-0.003865043
38	0x3d3a876e	0.045539312
39	0x3d098fd3	0.033584427
40	0xbdbbabfc	-0.09163663
41	0x3e3eb41c	0.18623394
42	0x3dce83d9	0.10083742
43	0x3bcbac45	0.0062156045
44	0x3ef1c88d	0.4722332
45	0x3ea5a1cd	0.32350007
46	0x3c6433f6	0.013928404
47	0x3eba63b0	0.3640418
48	0x3e810e2a	0.2520612
49	0x3e72066c	0.23635262
50	0x3f1efdce	0.62106025
51	0x3ed07934	0.4071747

encoder.bias_hh_l0 f4 [52]
0	0x3eb12e30	0.3460555
1	0x3e1e2aaa	0.15445963
2	0x3cc17c10	0.023618728
3	0xbef9f8e2	-0.48822695
4	0xbdee6aeb	-0.11641487
5	0x3e792cf5	0.24333556
6	0x3ec588c1	0.38580897
7	0x3e3d374b	0.18478124
8	0xbe84c8e4	-0.25934517
9	0xbe09cfaa	-0.13458124
10	0xbebfa75c	-0.37432373
11	0x3d87ebd3	0.06636777
12	0xbe1be794	-0.15225059
13	0xbe070223	-0.13184409
14	0xbd403e2b	-0.046934288
15	0xbe094bb0	-0.13407779
16	0xbe0656c6	-0.13119039
17	0x3e192186	0.14954194
18	0x3de687d9	0.1125638
19	0x3d84e5fb	0.06489178
20	0xbe564a89	-0.2092687
21	0x3e25721b	0.16156809
22	0x3ea87fb7	0.3290994
23	0x3d2bcce6	0.041943453
24	0xbea769a1	-0.32697776
25	0xbe30d50b	-0.1726877
26	0x3e3f1f88	0.18664372
27	0xbe1af226	-0.15131435
28	0xbcee448d	-0.029085422
29	0x3d901d07	0.070367865
30	0xbe873168	-0.2640488
31	0x3edb7d8e	0.42869228
32	0x3dd92142	0.106020465
33	0xbe6b5caf	-0.22984575
34	0xbea63056	-0.32458752
35	0xbe6568a6	-0.22403201
36	0x3df1f8a6	0.11815004
37	0x3adc935d	0.0016828586
38	0xbe946109	-0.28980282
39	0x3e77afda	0.24188176
40	0xbf0ebfc4	-0.5576136
41	0xbe19fa21	-0.15036823
42	0x3d80d24f	0.06290113
43	0xbdecf591	-0.115702756
44	0x3e255e95	0.16149361
45	0x3f012f4a	0.5046278
46	0x3eca3381	0.3949242
47	0x3e8ee2a7	0.27907297
48	0x3d7d935c	0.06190811
49	0xbdd8ac03	-0.10579684
50	0x3eb093ea	0.3448785
51	0x3eb0c863	0.34527883

lstm.weight_ih_l0 f4 [52, 13]
0	0x3f5b60f0	0.8569479
1	0xbfb2dfad	-1.397451
2	0x3e773bbf	0.24143885
3	0x3ece2c9e	0.40268415
4	0xbfc53104	-1.5405583
5	0x3de23b40	0.11046457
6	0x3e3a12fc	0.18171304
7	0xbd0d245b	-0.0344585
8	0x3f68e791	0.9097834
9	0xbf69f4da	-0.9138924
10	0x3f9938f2	1.1970503
11	0xbd83c2a3	-0.064336084
12	0x3f96a489	1.1768962
13	0x3efd2103	0.49439248
14	0x3f0cfa87	0.55069774
15	0x3dbbd1e7	0.09170895
16	0xbec57d35	-0.38572088
17	0xbe3811ec	-0.17975587
18	0xbf6f5d1a	-0.93501437
19	0x3ee6aa71	0.4505191
20	0x403cbe93	2.9491317
21	0x3ef9e6e0	0.48808956
22	0xbdfbd55e	-0.12296556
23	0x3de1d26e	0.110264644
24	0xbf196122	-0.5991384
25	0x3f9c19c3	1.2195362
26	0xbdb36fd3	-0.08761563
27	0x3f3c55a2	0.73568165
28	0x3f2cd7ab	0.67516583
29	0x3dd961d4	0.10614362
30	0x3f3c13c6	0.7346767
31	0xbcc6cedd	-0.024268562
32	0x3ec5292a	0.38507968
33	0x3f4fc1d1	0.81155115
34	0x3f70b60e	0.94027793
35	0x3e4033fb	0.18769829
36	0xbf87bfb3	-1.0605377
37	0x3e3ffa24	0.18747765
38	0x3ed5eba1	0.41781333
39	0xbfbaf3b9	-1.4605628
40	0x3ebc2423	0.3674632
41	0xbf8e62c7	-1.1123894
42	0xbb98a14a	-0.004657899
43	0xbeabc721	-0.3355036
44	0x3c355e36	0.011069825
45	0x3ecc85fe	0.39945978
46	0xbe8bbb76	-0.2729146
47	0x3c4828e4	0.01221678
48	0x3f4e7ff4	0.8066399
49	0xbff4e939	-1.9133674
50	0x3f96c9ee	1.1780374
51	0x3f145b1e	0.57951534
52	0x3f9b9e41	1.215767
53	0x3ef923be	0.48660082
54	0x3f03a49a	0.5142304
55	0xbecb7bd0	-0.397429
56	0xbeefff49	-0.46874455
57	0xbe5fbef4	-0.21850187
58	0xbf969c16	-1.1766384
59	0x3fa82786	1.3137062
60	0x3fa9b4d1	1.3258306
61	0xbeee74d1	-0.465735
62	0xbe70b715	-0.2350734
63	0x3d593870	0.05303234
64	0xbf12e644	-0.5738261
65	0x3f0cbf83	0.54979724
66	0xbf248231	-0.64261156
67	0x3fa20cbd	1.2660137
68	0x3ea1f436	0.3163163
69	0x3ebe947b	0.37222657
70	0xbe8b8a31	-0.2725387
71	0xbd5a7b5a	-0.053340293
72	0x3fcbfbd3	1.5936226
73	0x3f4b9a66	0.7953247
74	0xbf35c724	-0.7100699
75	0xbdcfdf76	-0.10150044
76	0xbfba3be5	-1.4549528
77	0xbec1e150	-0.37867212
78	0xc006cda2	-2.1063008
79	0x3f37cf1f	0.71800417
80	0x3f5f3e71	0.87204653
81	0x3e86107a	0.26184446
82	0x3f1ab3a2	0.6043035
83	0xbe1c7b61	-0.1528144
84	0xbf110dab	-0.5666148
85	0x3fd6cdef	1.6781596
86	0xbc55b5f6	-0.013043871
87	0x3eb7078c	0.35747945
88	0xbfb90ac9	-1.4456416
89	0x3f901bf7	1.1258534
90	0x3d24c600	0.04022789
91	0x3f029661	0.5101071
92	0xbdfe2fdb	-0.124114715
93	0x3d00ea3c	0.031473383
94	0x3ef4fff0	0.47851515
95	0xbd4e9807	-0.050437953
96	0x3fc529c5	1.5403372
97	0xbf7be7d1	-0.984006
98	0x3fe247ce	1.7678163
99	0xbc911f79	-0.017715203
100	0xbe8cb5ee	-0.2748255
101	0x3f3e5c40	0.7435951
102	0xbc979f96	-0.018508714
103	0x3dfde30e	0.12396823
104	0x3e64c230	0.22339702
105	0x3f5e1f7a	0.8676678
106	0xbe0e9ecb	-0.13927762
107	0x3f234b36	0.6378664
108	0xbdbe23d7	-0.0928418
109	0x3e84a46e	0.259067
110	0x3dc10910	0.09425557
111	0xbdeeb02d	-0.116546966
112	0xbd4c546a	-0.04988519
113	0x3f758b11	0.95915323
114	0x3ef8b9ae	0.48579162
115	0xbe6cc455	-0.2312177
116	0xbf2124a7	-0.6294655
117	0x3caca9ef	0.021077124
118	0x3e2c36f0	0.16817832
119	0xbe17229e	-0.14759299
120	0x3e610f74	0.21978551
121	0xbd6693ea	-0.056293406
122	0xbfaaeac9	-1.3352901
123	0x3ecb5b0c	0.397179
124	0x3cdfa9dd	0.027302677
125	0xbf0fe90f	-0.56214994
126	0xbf1e3f0e	-0.61814964
127	0xbf1fe515	-0.62458926
128	0x3dfb445f	0.122689
129	0xbef4b602	-0.4779511
130	0x3f2ce180	0.67531586
131	0xbd607c74	-0.054806188
132	0xbf26b455	-0.65118915
133	0x3e8cb10c	0.27478826
134	0x3f5cf0ca	0.86304915
135	0x3e8c63a3	0.27419767
136	0xbea608e6	-0.32428664
137	0xbf012fed	-0.50463754
138	0x3ea592a3	0.32338437
139	0xbe152bb4	-0.14567453
140	0x3e323339	0.17402352
141	0xbd233b6d	-0.039851595
142	0xbefcb158	-0.49354053
143	0xbfd5e112	-1.6709311
144	0x3ecf5826	0.4049694
145	0xbe8a3ece	-0.2700104
146	0xbe5a2741	-0.21304037
147	0xbff703b9	-1.9298011
148	0x3ef1662a	0.47148257
149	0xbedc6f2c	-0.43053567
150	0xbf1eee4a	-0.6208235
151	0xbdc9abe4	-0.09847239
152	0x3e0092a1	0.12555934
153	0xbfcde09a	-1.6084168
154	0x3fa5e601	1.2960817
155	0x3f9adb38	1.209815
156	0x3d89ff11	0.06738103
157	0x3d79ca40	0.060983896
158	0x3e905951	0.28193143
159	0xbe5a604a	-0.21325794
160	0xbfae6e21	-1.3627359
161	0x3ea358d3	0.31903705
162	0x3ea3c36a	0.31985027
163	0x3dca8d3d	0.0989022
164	0x3f303542	0.68831265
165	0x3f25d24b	0.64774007
166	0xbf6661cc	-0.89992976
167	0x3f388772	0.72081673
168	0xbd6c3835	-0.05767079
169	0xbee95b19	-0.45577314
170	0xbe91f552	-0.28507477
171	0x3e15cb69	0.14628376
172	0xbebb72ba	-0.36610967
173	0x3dcf95a1	0.10135961
174	0xbdfd4768	-0.12367135
175	0xbe8761ae	-0.2644171
176	0xbf17200d	-0.5903328
177	0xbd0f1ca3	-0.03493942
178	0xbe89c654	-0.26909125
179	0x3ea510ba	0.32239324
180	0xbe5d0f76	-0.21587929
181	0xbee34a3c	-0.44392574
182	0xbe312a50	-0.17301297
183	0xbee85e96	-0.45384663
184	0xbe256b48	-0.16154206
185	0x3ea52693	0.32255992
186	0xbe78d279	-0.24299039
187	0xbf5a7f32	-0.85350335
188	0xbe801405	-0.25015274
189	0x3f527a70	0.82218075
190	0x3f025215	0.509065
191	0xbf1147b6	-0.5675005
192	0xbec9a53f	-0.39383885
193	0x3f0d866f	0.55283254
194	0x3e89c4e4	0.26908028
195	0xbf6e9798	-0.93200064
196	0x3ea6b988	0.32563424
197	0xbe7e53e5	-0.2483669
198	0x3f14c0a2	0.58106434
199	0xbde6e738	-0.1127457
200	0xbf12abee	-0.57293594
201	0xbf443863	-0.7664854
202	0x3eec4c37	0.46151897
203	0x3f3317fb	0.69958466
204	0x3f2c4996	0.67299783
205	0xbebb4b92	-0.36581093
206	0x3d58a8ee	0.05289548
207	0x3ec9513a	0.39319783
208	0xbf45ebd5	-0.77312976
209	0x3d312408	0.043247253
210	0xbd48ca47	-0.04902103
211	0xbe74ebf5	-0.23918135
212	0xbf46ac7e	-0.7760695
213	0x3ef31f22	0.4748469
214	0xbbca6727	-0.0061768475
215	0x3d9aa931	0.07551802
216	0xbedc2ade	-0.43001455
217	0xbeb71fb7	-0.35766384
218	0x3da030c6	0.07821803
219	0xbeb52511	-0.35379842
220	0x3e24ddfd	0.16100307
221	0x3d9203fd	0.07129667
222	0xbec8ffd2	-0.39257675
223	0xbe2cf090	-0.16888642
224	0xbf4380fd	-0.76368695
225	0x3d696381	0.05697966
226	0xbf265e6d	-0.6498783
227	0xbf10622c	-0.563998
228	0x3ed69a0e	0.4191441
229	0x3fa0d10c	1.2563796
230	0xbe58ee55	-0.21184666
231	0xbe04cac8	-0.1296798
232	0x3eb617dc	0.35565078
233	0x3d859f2b	0.065244995
234	0xbdf29005	-0.11843876
235	0x3e60158c	0.2188322
236	0xbea2a892	-0.31769234
237	0xbf42f3bb	-0.76153153
238	0xbed81d13	-0.42209682
239	0xbef51271	-0.47865632
240	0xbedcea3c	-0.43147457
241	0xbee0747b	-0.43838868
242	0xbe69b2d8	-0.2282213
243	0xbf73ec84	-0.9528277
244	0xbd9d6389	-0.076850004
245	0x3f2a3557	0.6648764
246	0xbf2cc604	-0.6748965
247	0xbf08fecc	-0.5351379
248	0x3eccb56b	0.3998216
249	0xbe585e74	-0.21129781
250	0xbe049459	-0.12947215
251	0x3fa43e66	1.2831542
252	0xbe5b719a	-0.21430054
253	0xbf79fa79	-0.97647816
254	0x3f496384	0.78667474
255	0xbe99df8f	-0.30053374

lstm.weight_hh_l0 f4 [52, 13]
0	0xbefa21f0	-0.48854017
1	0xbf13ab35	-0.57683116
2	0xbdaf1482	-0.085488334
3	0x3f0d3cd4	0.5517094
4	0xbfb918e7	-1.4460725
5	0xbf18636e	-0.5952672
6	0x3cb78da8	0.022406414
7	0x3e911d03	0.28342447
8	0xbee6e943	-0.4509984
9	0x3e84fbb7	0.25973293
10	0xbe918742	-0.28423506
11	0xbf0506e2	-0.5196363
12	0x3e6db4a0	0.23213434
13	0xbe1038a9	-0.14084114
14	0x3d2e3418	0.04253015
15	0x3f35588d	0.7083824
16	0x3f49fde9	0.7890306
17	0xbe5c7cf1	-0.21532036
18	0xbf5c6603	-0.8609316
19	0xbf4a813d	-0.7910345
20	0xbe44a2cb	-0.19202726
21	0x3ec312c9	0.3810027
22	0xbe781ad9	-0.24228992
23	0xbf5c6aae	-0.8610028
24	0xbe8fff39	-0.28124407
25	0xbebbf89f	-0.3671312
26	0xbcf6babc	-0.030118339
27	0xbf859d51	-1.0438634
28	0x3eac8bad	0.33700314
29	0x3eb38147	0.35059568
30	0xbf664f36	-0.89964616
31	0xbea55ba9	-0.32296494
32	0xbf263901	-0.6493073
33	0xbf03835f	-0.5137233
34	0xbf084ee9	-0.5324541
35	0xbeeae4c3	-0.45877656
36	0x3efa751c	0.48917472
37	0x3cad4163	0.021149343
38	0xbe638172	-0.22217348
39	0xbda1bb58	-0.07897061
40	0x3f0c7c11	0.5487681
41	0xbdc92f09	-0.09823424
42	0x3e8555f9	0.26042154
43	0x3efe3a8a	0.49654037
44	0xbdd3b0c5	-0.103364505
45	0x3f118b40	0.56853104
46	0x3d454d35	0.048169333
47	0x3f12b40a	0.5730597
48	0x3f124947	0.5714306
49	0x3f5d0c6f	0.863471
50	0x3edad4d5	0.42740503
51	0xbd76381a	-0.060112096
52	0x3ed70348	0.4199469
53	0xbd7a7df1	-0.061155263
54	0x3f0443c5	0.5166591
55	0x3f0f6e80	0.56027985
56	0x3e458094	0.1928733
57	0x3ea5eaf1	0.3240581
58	0xbf23c4b5	-0.63972026
59	0xbd9834fa	-0.074319795
60	0xbf862f60	-1.0483208
61	0x3f102b4e	0.5631608
62	0x3f5c7f9f	0.86132234
63	0x3f51fb75	0.8202432
64	0x3ed24111	0.41065267
65	0x3f934fdf	1.150875
66	0x3f811dbe	1.0087202
67	0xbe73110b	-0.2373697
68	0xbecaf40c	-0.39639318
69	0x3e74349e	0.23848197
70	0xbdd227ce	-0.102614984
71	0x3e31dc80	0.1736927
72	0x3ec65eab	0.387441
73	0x3efead3b	0.4974154
74	0xbc18acce	-0.009318544
75	0x3c114ce1	0.008868427
76	0xbf01f246	-0.50760305
77	0x3f274673	0.6534187
78	0x3e543cae	0.20726272
79	0xbf97143a	-1.1803048
80	0xbf02a07f	-0.5102615
81	0x3d777522	0.06041444
82	0x3d2a9a59	0.041651104
83	0xbe0e41a5	-0.13892229
84	0x3f4a3131	0.7898131
85	0xbe900971	-0.28132203
86	0xbdf5caee	-0.120015964
87	0x3e5d4d06	0.21611413
88	0x3eb69a05	0.35664383
89	0x3e65e0bb	0.22449009
90	0x3ed2713c	0.41102016
91	0xbfcd9b0d	-1.6062943
92	0x3cd524fa	0.026018608
93	0x3a59f2d5	0.0008314078
94	0xbed56b69	-0.4168351
95	0x3f501697	0.8128447
96	0xbe709ef6	-0.23498139
97	0x3f04551e	0.5169238
98	0x3eb1b18f	0.3470578
99	0x3f95309b	1.1655458
100	0xbd209435	-0.03920384
101	0x3ee9a219	0.45631483
102	0x3d6f0dca	0.05836276
103	0xbe6a2027	-0.22863828
104	0xbeaa29c8	-0.33235002
105	0x3ed6b0e7	0.4193184
106	0xbf23d129	-0.6399103
107	0x3d93fc11	0.07225812
108	0x3f729a50	0.9476671
109	0xbed2c2f7	-0.4116437
110	0x3c655db7	0.013999394
111	0xbf3aa900	-0.72914124
112	0x3f6c510a	0.92311156
113	0xbef326e0	-0.47490597
114	0x3dd7a36e	0.105292186
115	0x3ef85a10	0.48506212
116	0xbf7a0892	-0.9766933
117	0x3f4e53e2	0.80596745
118	0xbe0b37e6	-0.13595542
119	0xbea495b1	-0.32145455
120	0x3d8dc6ad	0.0692266
121	0x3ef25910	0.47333574
122	0x3def17c1	0.116744526
123	0xbd9fe24a	-0.07806833
124	0xbe2bf584	-0.16792876
125	0xbe26ef25	-0.16302164
126	0x3ee8d06a	0.45471507
127	0xbf891e39	-1.0712348
128	0xbf55432c	-0.8330562
129	0xbfb0c351	-1.3809606
130	0xbf1f1a6c	-0.6214969
131	0x3e84f6ce	0.25969547
132	0x3ed41bc6	0.4142744
133	0xbf2ad4d3	-0.66730994
134	0xbea3493b	-0.31891808
135	0x3e6960c5	0.22790821
136	0x3e1b2ac0	0.15153027
137	0xbd8d155c	-0.068888396
138	0x3eb21e4a	0.34788734
139	0x3e9cda0b	0.30635104
140	0xbf037ffe	-0.51367176
141	0xbf059183	-0.5217516
142	0xbf6dbe16	-0.92868173
143	0x3dedcff2	0.11611928
144	0xbfc914fb	-1.5709528
145	0xbece9ac1	-0.40352443
146	0xbefb2ffb	-0.49060044
147	0x3e34afda	0.17645207
148	0x3e9c7ae7	0.30562517
149	0x3e22510a	0.15851226
150	0x3db20686	0.086926505
151	0x3e1412ce	0.14460298
152	0xbc3711fb	-0.0111737205
153	0xbe5e2aa3	-0.21695952
154	0xbe7016ec	-0.23446244
155	0xbe1b4a12	-0.15164974
156	0x3fdcac25	1.7240034
157	0x3e303df2	0.1721113
158	0xbecd7a66	-0.40132445
159	0x3de47c4a	0.11156519
160	0x3f0226f3	0.5084068
161	0x3e097aea	0.13425794
162	0x3b045806	0.0020194068
163	0x3cd345bd	0.02579009
164	0x3ef75d34	0.48313296
165	0xbeb6e9c5	-0.35725227
166	0xbec956bf	-0.39323995
167	0x3e0a8b3b	0.13529675
168	0xbf186951	-0.595357
169	0xbd3a279f	-0.045447942
170	0x3e2438b0	0.1603725
171	0x3ea39453	0.319491
172	0xbf03cd12	-0.5148479
173	0xbe865285	-0.26234832
174	0x3df90a67	0.12160187
175	0x3dcc66a3	0.09980514
176	0x3edf72cf	0.4364228
177	0xbdad9a69	-0.08476717
178	0x3db0d1a5	0.086337365
179	0xbeeb1560	-0.45914745
180	0xbdfdc609	-0.12391288
181	0x3e9aad75	0.30210462
182	0xbeac5fe4	-0.3366691
183	0xbe271fcd	-0.16320725
184	0xbf3c2531	-0.7349425
185	0x3f063a54	0.5243275
186	0x3d87ea33	0.06636467
187	0xbeab8dc0	-0.33506584
188	0x3d3eefc8	0.046615392
189	0x3e6fcdba	0.23418322
190	0x3ea3f7b3	0.32024917
191	0xbe29acee	-0.16569874
192	0xbda23d18	-0.07921809
193	0xbed50eec	-0.41612947
194	0x3e9d0cc1	0.30673793
195	0x3ed482b6	0.41505975
196	0xbeb18c97	-0.34677574
197	0x3e919c50	0.2843957
198	0x3f33bd6f	0.7021093
199	0xbe8f323b	-0.2796801
200	0xbf1c499d	-0.61049825
201	0x3f483a66	0.7821411
202	0xbbfb95a3	-0.00767775
203	0x3e2571da	0.16156712
204	0xbf0a80cd	-0.54102784
205	0x3f44ec14	0.76922727
206	0x3ddba04d	0.10723934
207	0xbedd47d9	-0.43218878
208	0x3f01e7e2	0.5074445
209	0xbdbf698e	-0.09346305
210	0x3dfe44b5	0.124154486
211	0xbf09cdcc	-0.53829646
212	0x3ebc1d63	0.3674117
213	0xbe53e564	-0.20692974
214	0x3f11237f	0.5669479
215	0x3ecf4f33	0.40490112
216	0xbd707ab6	-0.058710776
217	0x3ef02039	0.46899584
218	0xbec73606	-0.38908404
219	0xbe7a814f	-0.2446339
220	0xbe802818	-0.2503059
221	0x3fa00a1b	1.2503084
222	0x3ef50f80	0.47863388
223	0xbd86f387	-0.06589418
224	0x3e17c132	0.14819792
225	0xbe021a00	-0.1270523
226	0xbf4d8a7f	-0.80289453
227	0x3f59b21f	0.85037416
228	0xbeade67b	-0.33964905
229	0xbe360103	-0.17773823
230	0x3ec266e7	0.37969133
231	0xbf0e9854	-0.55701184
232	0xbe86af14	-0.2630545
233	0x3e0e2c3f	0.13884066
234	0xbe906ace	-0.28206486
235	0xbeed4412	-0.46340996
236	0x3e989bd8	0.298064
237	0xbe65af0e	-0.2243006
238	0xbdf07be6	-0.11742382
239	0xbf21df90	-0.63231754
240	0x3ea18b2a	0.31551486
241	0x3e8eb85a	0.27875024
242	0x3ecfe130	0.40601492
243	0x3e3cabda	0.18424931
244	0xbe6e223c	-0.23255247
245	0xbe287cc2	-0.16453841
246	0xbcdc2517	-0.026873155
247	0x3df179a5	0.1179078
248	0xbe7974ad	-0.24360915
249	0xbec7560e	-0.38932842
250	0xbe9ed8d2	-0.31024796
251	0xbebfb726	-0.3744442
252	0xbf018f9d	-0.5060976
253	0x3f497b40	0.7870369
254	0xbdaf9b41	-0.08574534
255	0x3edbfa30	0.42964315

lstm.bias_ih_l0 f4 [52]
0	0x3eb00ad5	0.34383264
1	0x3c5385a4	0.01291028
2	0xbe872345	-0.26394096
3	0x3e80eeed	0.25182286
4	0x3d05400a	0.032531776
5	0x3d719531	0.05898017
6	0x3c397bc9	0.011321017
7	0x3e19d2ab	0.1502177
8	0xbe8a3d9e	-0.27000135
9	0xbd8e0e7b	-0.06936356
10	0x3f2c00ee	0.6718892
11	0x3df996d4	0.12186971
12	0xbd34204c	-0.043976113
13	0x3e738256	0.23780188
14	0x3e275eb7	0.16344725
15	0xbd7c738d	-0.061633635
16	0x3ed3a554	0.41337073
17	0x3e3bd192	0.18341663
18	0x3ef7107c	0.48254764
19	0x3e802d29	0.25034454
20	0x3ea223b7	0.31667873
21	0x3d27c66a	0.040960707
22	0x3f257999	0.6463867
23	0x3ef47b53	0.4775034
24	0xbdebbd2c	-0.11510691
25	0x3d057c04	0.032588974
26	0x3e22eb06	0.15909967
27	0xbe2d007e	-0.16894719
28	0x3e0c3e8e	0.13695738
29	0xbdcd60b2	-0.10028209
30	0x3b005bdb	0.0019586
31	0xbd9d5e49	-0.07683999
32	0x3e8991b0	0.26868963
33	0xbcc4eef0	-0.024039716
34	0x3e95adf5	0.2923428
35	0x3d625683	0.055258285
36	0xbe42773a	-0.18990794
37	0x3e5d91ec	0.21637696
38	0xbdc3c5cb	-0.095592104
39	0x3f0f575b	0.5599267
40	0x3e0f92ed	0.14020891
41	0x3f0fd95c	0.5619104
42	0x3f78db54	0.9720967
43	0x3ed73285	0.4203073
44	0x3eedd1d1	0.4644914
45	0x3e80f101	0.2518387
46	0x3ef5f49f	0.48038194
47	0x3f221f79	0.63329273
48	0x3e7aa535	0.24477084
49	0x3ec39b88	0.38204598
50	0x3ed3e698	0.41386867
51	0x3ec8ff5e	0.3925733

lstm.bias_hh_l0 f4 [52]
0	0x3e9c9a09	0.3058627
1	0x3de5ca94	0.11220279
2	0xbec3a79e	-0.3821382
3	0x3e17f8ab	0.14840953
4	0xbdc78fa7	-0.097441964
5	0x3e38011b	0.17969172
6	0x3dc46ae6	0.09590702
7	0xbdfb5064	-0.12271193
8	0x3d934e3e	0.07192658
9	0x3e6beb64	0.23039013
10	0x3f429dad	0.76021844
11	0x3eb81180	0.3595085
12	0x3eb01a12	0.3439489
13	0x3dfcb1c7	0.12338596
14	0x3e04b01b	0.12957804
15	0x3e9cb81b	0.3060921
16	0x3e3c5303	0.18391041
17	0x3e3a7257	0.1820768
18	0x3e956ce3	0.29184636
19	0xbdd591e2	-0.104282156
20	0x3e664281	0.22486307
21	0x3eafc7cb	0.34332117
22	0x3ebdc403	0.37063608
23	0x3f1b833b	0.60747117
24	0xbddd0212	-0.107914105
25	0x3ec16ca7	0.37778208
26	0x3e29e216	0.16590151
27	0xbe1ef10d	-0.15521641
28	0xbe895247	-0.26820585
29	0xbe1924ba	-0.14955416
30	0x3e1e318c	0.15448588
31	0xbe8b22a6	-0.27174872
32	0xbd5ae795	-0.05344351
33	0x3e8fcf3f	0.28087804
34	0xbd207745	-0.039176244
35	0x3e2b2412	0.16712978
36	0x3d5dc83c	0.054146037
37	0x3e3b92f3	0.18317775
38	0x3c33a51c	0.010964658
39	0x3e490984	0.19632536
40	0x3eab935d	0.33510867
41	0x3e5c5b48	0.21519196
42	0x3f2ebb43	0.6825449
43	0x3e1ec5b3	0.15505104
44	0x3eb349ab	0.35017142
45	0xbd96ff66	-0.07372932
46	0x3e54b954	0.20773822
47	0x3e9ad57e	0.30241007
48	0x3e832331	0.25612786
49	0x3e5ae025	0.21374567
50	0x3e9d244f	0.30691764
51	0x3efded46	0.49595088

lstm.weight_ih_l0_reverse f4 [52, 13]
0	0xbf3e0bcb	-0.74236745
1	0xbeffdba2	-0.49972254
2	0xbed24aa3	-0.41072568
3	0x3f3e7b0f	0.7440652
4	0x3f1e1bd8	0.61761236
5	0xbea382f8	-0.3193586
6	0xbf55ba01	-0.83486944
7	0x3f977d7d	1.1835171
8	0x3f2380a9	0.63868195
9	0x3f22934e	0.6350602
10	0xbf6114d6	-0.8792242
11	0x3d1c3de3	0.038144957
12	0x3b80364f	0.003912724
13	0xbe27b482	-0.16377452
14	0xbd2d6c8f	-0.042339858
15	0x3ff16fdc	1.8862262
16	0x3f5c329f	0.8601474
17	0xbe144915	-0.14481004
18	0x3f97e2a2	1.1866038
19	0xbf2e2bc8	-0.68035555
20	0xbec48a74	-0.3838688
21	0x3ebb152a	0.36539584
22	0x3f7f58f4	0.99745107
23	0xbf0b6c06	-0.54461706
24	0x3c2b6cf9	0.010462993
25	0xbf231679	-0.63706166
26	0xbd88676c	-0.06660351
27	0x3f4798a2	0.77967274
28	0xbf88640b	-1.0655531
29	0xbec50f42	-0.38488203
30	0x3e20e0e7	0.15710793
31	0xbf4d7dd6	-0.80270135
32	0xbf3d06cb	-0.7383849
33	0x3de49031	0.11160315
34	0x3ea2d5f5	0.3180386
35	0x3ef57005	0.47937027
36	0xbf70b3cf	-0.94024366
37	0x3f2b2e31	0.6686736
38	0xbe9de45b	-0.30838284
39	0x3f2198d4	0.6312382
40	0x3f3a77af	0.7283887
41	0xbebb6d12	-0.36606652
42	0x3e6dc7b3	0.2322071
43	0xbe115de7	-0.14195977
44	0xbf7c7e38	-0.98630095
45	0xbfaa85ba	-1.332206
46	0x3fbd5a0f	1.4793109
47	0x3fcae651	1.5851537
48	0xbed4f8b7	-0.41596004
49	0x3b45699a	0.0030122758
50	0xbe998124	-0.2998134
51	0x3f48f8d4	0.7850468
52	0xbf305d59	-0.6889244
53	0xbcae3c8f	-0.021269111
54	0xbdc7ea83	-0.097615264
55	0xbdf99af4	-0.12187758
56	0x3e04cd90	0.12969041
57	0x3effa90c	0.4993366
58	0x3e83f477	0.2577245
59	0x3e8969ba	0.26838475
60	0xbed35312	-0.41274315
61	0xbf807ced	-1.0038124
62	0x3f2ebeab	0.68259686
63	0x3edcab5d	0.4309949
64	0x3e483e4c	0.19555014
65	0xbdd594a1	-0.10428739
66	0xbe04705b	-0.12933485
67	0xbd9828bd	-0.07429645
68	0xbe7951d8	-0.24347627
69	0xbeab253a	-0.3342684
70	0xbf2f4fd4	-0.68481183
71	0x3e57ec60	0.21086264
72	0xbdc6dac9	-0.09709699
73	0x3da8a6f0	0.08234966
74	0xbe4533db	-0.19258063
75	0xbe899001	-0.2686768
76	0x3e88be2b	0.26707587
77	0xbec50a5e	-0.38484472
78	0xbd9f9fab	-0.07794126
79	0xbe9f6ee8	-0.31139302
80	0xbfccc077	-1.5996236
81	0x3ec2e6d9	0.38066748
82	0x3efb0226	0.49025077
83	0xbf82ad86	-1.0209205
84	0xbee3176d	-0.4435381
85	0x3d4f5579	0.050618622
86	0x3f060b34	0.52360845
87	0x3ef0aeb3	0.47008285
88	0xbde66959	-0.11250562
89	0x3dda8616	0.10670106
90	0xbf108679	-0.5645519
91	0x3ec87481	0.39151385
92	0x3e1901c5	0.14942081
93	0xbf08fc36	-0.53509843
94	0x3f12fc41	0.5741616
95	0xbcfa07e0	-0.030521333
96	0xbe05c1f5	-0.1306227
97	0xbefd5374	-0.49477732
98	0xbf1b8657	-0.6075186
99	0xbe931e8f	-0.28734252
100	0xbf2924cc	-0.6607177
101	0xbc4f75ee	-0.012662394
102	0x3ecf0ab8	0.40437865
103	0xbe126916	-0.142979
104	0xbcf55399	-0.029947089
105	0x3e2893f5	0.16462691
106	0xbde1fab7	-0.11034148
107	0x3f8424f1	1.0323774
108	0xbf6977e6	-0.91198575
109	0x3bf4a2ba	0.0074656876
110	0xbf334c46	-0.7003826
111	0xbf24c45d	-0.64362127
112	0xbe099d57	-0.13438927
113	0x3f198386	0.59966314
114	0x3ebcd08f	0.36877868
115	0xbebb2312	-0.36550194
116	0xbf5e2fb5	-0.86791545
117	0xbf911ebb	-1.1337503
118	0xbe5bb207	-0.21454631
119	0xbfaa1b7e	-1.328964
120	0x3e359dbd	0.17735954
121	0xbe81f096	-0.25378865
122	0xbf35db6b	-0.7103793
123	0x3e5f4314	0.21802932
124	0x3eae661e	0.34062284
125	0x3f0edd74	0.5580666
126	0x3ec4055d	0.38285342
127	0x3c8ff7cc	0.017574213
128	0x3e9b177d	0.30291358
129	0xbe3bd7a4	-0.18343979
130	0xbe31b5e4	-0.17354542
131	0x3d0d1b69	0.03444997
132	0xbe84ecf0	-0.2596202
133	0x3f0f3677	0.5594248
134	0x3eed8f59	0.46398428
135	0x3f34473e	0.70421207
136	0xbf2c4178	-0.672874
137	0x3f23d56f	0.6399755
138	0x3e934e53	0.28770694
139	0x3db57993	0.08861079
140	0xbe277c2f	-0.16355966
141	0xbea562a3	-0.32301816
142	0x3c7ea84e	0.015543057
143	0x3e70347f	0.23457526
144	0x3ec87383	0.39150628
145	0xbd923246	-0.07138495
146	0xbd6818e2	-0.056664355
147	0xbeb45635	-0.3522202
148	0xbf2cc65e	-0.67490184
149	0xbf05fa4a	-0.52335036
150	0x3f70aeb7	0.94016594
151	0x3e49a2cb	0.19691007
152	0xbf0f801f	-0.5605487
153	0xbe369dbc	-0.17833608
154	0xbd2bb7a7	-0.04192319
155	0x3f530bf5	0.8244012
156	0xbeef2e38	-0.4671495
157	0x3f3c7594	0.7361691
158	0xbf56fcda	-0.8397957
159	0xbe613621	-0.21993305
160	0x3f1f3a0b	0.6219794
161	0xbee9b520	-0.45646
162	0xbeccd5d1	-0.4000688
163	0x3f8dc2c5	1.1075064
164	0xbf33c056	-0.70215356
165	0xbd0ddb10	-0.034632742
166	0xbf0ee081	-0.55811316
167	0xbed55627	-0.41667292
168	0x3dfc7e24	0.12328747
169	0x3b9dd143	0.0048162057
170	0xbe80b2b2	-0.25136334
171	0xbdf377dd	-0.118880965
172	0x3e4874ec	0.19575852
173	0xbe5b748a	-0.21431175
174	0x3ded47a0	0.11585927
175	0xbc518030	-0.01278691
176	0xbd86cbbe	-0.065818295
177	0xbd97935e	-0.07401155
178	0xbee17cc1	-0.44040492
179	0x3d8003f4	0.06250754
180	0x3f507893	0.8143398
181	0xbca63032	-0.020286653
182	0xbd44a2e1	-0.048006896
183	0xbf3cdb1b	-0.7377183
184	0x3f911505	1.133454
185	0x3e19a126	0.1500288
186	0xbd527295	-0.051378805
187	0x3f2ad8f7	0.6673731
188	0xbc226674	-0.009912122
189	0xbf0ce4f0	-0.5503683
190	0xbe2a2479	-0.16615476
191	0x3f065481	0.5247269
192	0xbf0b9f7d	-0.54540235
193	0xbdbd92af	-0.09256493
194	0xbea2b0df	-0.31775567
195	0xbdce66c8	-0.10078198
196	0xbdee65af	-0.11640488
197	0xbf43394b	-0.762593
198	0xbebab0eb	-0.36463103
199	0x3e26e9e5	0.16300161
200	0xbf458e1d	-0.7716997
201	0x3e6c77a3	0.23092513
202	0x3ee96081	0.4558144
203	0x3e65d2b5	0.2244366
204	0xbf0356ea	-0.51304495
205	0xbefad0c6	-0.48987406
206	0x3d4d228e	0.050081782
207	0xbf004bb5	-0.5011552
208	0xbea48b3a	-0.3213747
209	0xbdaafa5f	-0.08348536
210	0x3e3532e1	0.1769519
211	0xbec5e9b3	-0.3865486
212	0xbef7ee3f	-0.48423955
213	0x3ea85602	0.3287812
214	0x3decd9f8	0.11565012
215	0xbf49a8d9	-0.78773266
216	0x3f439336	0.763965
217	0x3d8ca493	0.068673275
218	0xbe818f33	-0.25304565
219	0xbf4cf2ae	-0.800578
220	0x3f01a1b3	0.5063736
221	0xbf478683	-0.77939624
222	0xbe40768e	-0.18795225
223	0x3d9902fb	0.074712716
224	0x3f275ad5	0.65372974
225	0xbede7040	-0.43445015
226	0xbf0611fd	-0.523712
227	0xbe32cbad	-0.17460509
228	0xbbe36f6f	-0.006940774
229	0x3ebc0e0b	0.36729464
230	0x3ec68617	0.38774177
231	0xbe2bf3a6	-0.16792163
232	0x3d7901d3	0.060792755
233	0x3d72b57a	0.0592551
234	0xbedfd5d9	-0.4371784
235	0xbee95b6d	-0.45577565
236	0xbe847d7e	-0.25876993
237	0x3f32f4c7	0.6990475
238	0x3d7a1fcd	0.061065484
239	0xbe7e74ae	-0.24849197
240	0xbeb3d0cc	-0.35120237
241	0x3d937115	0.07199303
242	0x3e375484	0.17903334
243	0xbe70c0ad	-0.23511
244	0xbe833034	-0.25622714
245	0x3ed39e39	0.41331652
246	0x3eab26ea	0.33428127
247	0x3e629d53	0.22130327
248	0xbf013b45	-0.50481063
249	0x3e2c5470	0.16829085
250	0x3e887ec5	0.26659217
251	0x3f498412	0.7871715
252	0x3e19d13a	0.1502122
253	0xbf260f8f	-0.6486749
254	0x3dd312c3	0.10306313
255	0xbd58e188	-0.05294946

lstm.weight_hh_l0_reverse f4 [52, 13]
0	0xbf33aa8d	-0.70182115
1	0xbee1fea9	-0.44139603
2	0xbe96af07	-0.2943041
3	0xbe6c2794	-0.23061973
4	0xbe2c3fc1	-0.16821195
5	0xbf02d50f	-0.5110635
6	0x3d6d5ef9	0.0579519
7	0x3e7cab40	0.24674702
8	0x3ee84a12	0.4536901
9	0x3e1f42c7	0.15552817
10	0x3e6b0e6c	0.2295472
11	0x3f0c07dc	0.5469949
12	0xbe8c7f25	-0.27440754
13	0xbf2a2472	-0.6646186
14	0x3f05a513	0.5220501
15	0x3e989300	0.29799652
16	0xbf0240f8	-0.50880384
17	0xbd4ae6fe	-0.049536698
18	0xbed07151	-0.40711454
19	0x3cbdb6fa	0.02315854
20	0x3eb253e7	0.34829637
21	0x3e439a3f	0.19101809
22	0xbaa76032	-0.0012769757
23	0x3efeebcd	0.49789277
24	0xbe913511	-0.283608
25	0xbdb56d2e	-0.08858715
26	0x3e73ad44	0.23796564
27	0xbe692ab0	-0.2277019
28	0xbea83c42	-0.32858473
29	0xbf4b8464	-0.7949889
30	0xbd350c72	-0.044201322
31	0x3d93a54e	0.07209264
32	0x3ed0e4d4	0.40799582
33	0xbf881b52	-1.0633337
34	0x3e7cac56	0.24675116
35	0x3cda37cd	0.026637936
36	0x3af70d36	0.0018848542
37	0x3f8197cd	1.0124451
38	0xbf816606	-1.010926
39	0xbf7527b2	-0.95763695
40	0xbed1623d	-0.40895262
41	0xbed7a098	-0.4211471
42	0xbe82189d	-0.25409403
43	0xbf18d11d	-0.5969408
44	0x3f7973d5	0.9744237
45	0x3ee6cfb9	0.45080355
46	0xbf023bbb	-0.5087239
47	0xbd973779	-0.073836274
48	0x3b980b0c	0.0046399888
49	0xbd4cb9ef	-0.049982008
50	0x3f4f5ce4	0.81001115
51	0x3e31c3c9	0.17359842
52	0x3e8999aa	0.2687505
53	0x3ebcf325	0.36904255
54	0x3f0394ba	0.51398814
55	0x3f30264b	0.6880843
56	0xbf346f68	-0.7048249
57	0x3eb92589	0.3616145
58	0xbed26556	-0.41092938
59	0x3baeec93	0.0053382604
60	0xbf01fa15	-0.5077222
61	0xbf341477	-0.70343727
62	0xbef1e17b	-0.4724234
63	0xbea15955	-0.31513467
64	0xbc61c60c	-0.013780128
65	0x3f32660c	0.6968696
66	0x3dd8fa95	0.1059467
67	0xbe4f924b	-0.2027065
68	0xbe1ee893	-0.15518408
69	0xbf481ced	-0.7816914
70	0xbf34a60f	-0.70565885
71	0xbe37fc39	-0.17967309
72	0xbde251c0	-0.11050749
73	0x3e7f2569	0.24916615
74	0x3dcbc22f	0.09949147
75	0xbd07b0e0	-0.033127666
76	0xbd20713d	-0.039170492
77	0x3e487620	0.19576311
78	0xbf001e48	-0.50046206
79	0x3f83fe72	1.0312026
80	0x3f6edbaf	0.9330396
81	0x3f588634	0.8457978
82	0xbe4b22ee	-0.19837543
83	0x3ee363c1	0.44412044
84	0xbf02f831	-0.5115996
85	0xbfbdefb5	-1.4838778
86	0xbe174f90	-0.14776444
87	0xbe22a9fd	-0.15885158
88	0xbf76bc01	-0.9638062
89	0x3e741c49	0.23838915
90	0xbf5432f9	-0.8289028
91	0x3df338ff	0.118761055
92	0x3abbb204	0.001432002
93	0x3eb4af47	0.35289976
94	0x3e033531	0.1281326
95	0x3ed4aa77	0.41536304
96	0xbe55cc0f	-0.20878623
97	0x3edf5931	0.43622735
98	0xbeb69e02	-0.35667425
99	0xbecadd7a	-0.39622098
100	0xbcde98d6	-0.027172487
101	0x3e57001e	0.20996138
102	0x3f2a604d	0.66553193
103	0xbe847b1e	-0.2587518
104	0x3eaf5f32	0.34252316
105	0x3f3edb20	0.7455311
106	0xbf0f9d36	-0.5609926
107	0xbde399dc	-0.11113331
108	0xbdb485c0	-0.08814573
109	0x3d6a7334	0.057238773
110	0xbd25626c	-0.040377066
111	0xbe866b18	-0.2625358
112	0x3d24b099	0.04020748
113	0x3df2055d	0.11817429
114	0xbf88a5bc	-1.0675578
115	0x3f3d65fd	0.73983747
116	0x3eca3986	0.39497012
117	0x3d6ed105	0.058304805
118	0x3d37a672	0.04483647
119	0xbefc61af	-0.49293277
120	0x386c6bc0	5.6367135e-05
121	0xbf6a3066	-0.914801
122	0xbe83e383	-0.25759515
123	0x3ebac053	0.36474857
124	0xbf8b4598	-1.0880613
125	0x3f87c624	1.0607343
126	0xbdb2f6b6	-0.087384626
127	0x3e4b9a5d	0.19883104
128	0xbe88fb77	-0.26754352
129	0xbe15647a	-0.1458911
130	0x3eb74fb6	0.35803002
131	0x3df709da	0.12062426
132	0x3f4ac318	0.7920394
133	0x3ebcca48	0.36873078
134	0x3edc37ea	0.4301141
135	0x3fed09ba	1.8518593
136	0xbfe55aff	-1.7918395
137	0xbe1f15d1	-0.15535666
138	0xbf4c5c98	-0.79828787
139	0xbe95cae9	-0.2925637
140	0xbf5913e0	-0.8479595
141	0x3da2bcfb	0.079462014
142	0xbe34fa81	-0.17673685
143	0x3f2c489d	0.672983
144	0xbdcef6fd	-0.10105703
145	0x3e247016	0.16058382
146	0x3e4d6b8a	0.20060554
147	0xbe5a1c3b	-0.21299832
148	0xbf149bf5	-0.5805047
149	0xbf21a645	-0.6314433
150	0xbf6b893b	-0.9200627
151	0xbf7dfc1b	-0.9921281
152	0xbf10e498	-0.56598806
153	0xbf4bf665	-0.79672843
154	0xbea09825	-0.31366077
155	0xbde6ae1c	-0.112636775
156	0x3f5604fe	0.8360137
157	0xbeb9a839	-0.36261156
158	0x3ebfdef6	0.37474793
159	0x3e43c3fd	0.19117732
160	0x3f3f5ae1	0.74748045
161	0x3e4c47a6	0.19949207
162	0xbe55194d	-0.20810433
163	0xbee05b1f	-0.4381952
164	0xbe080cb0	-0.1328609
165	0xbd5365c4	-0.051610723
166	0xbb548e4f	-0.0032433455
167	0x3f149277	0.5803599
168	0x3d422927	0.047402527
169	0x3e9d039b	0.30666813
170	0xbd47825c	-0.048708305
171	0x3ea72f79	0.32653406
172	0xbd89d801	-0.067306526
173	0xbd95a91e	-0.07307647
174	0x3e3e8d13	0.18608503
175	0xbecf5025	-0.40490833
176	0xbd95a15a	-0.07306166
177	0x3e880ad7	0.2657077
178	0xbe0bc6c5	-0.13650043
179	0xbeda243e	-0.42605776
180	0xbe00bf49	-0.1257297
181	0xbe53f5f4	-0.20699292
182	0x3b5594fb	0.003259002
183	0x3f62cbdd	0.8859232
184	0x3dc427e0	0.09577918
185	0xbf33ecd6	-0.7028326
186	0x3eecc509	0.46244076
187	0xbeaa95ea	-0.333175
188	0xbf0501dc	-0.5195596
189	0x3dc85317	0.09781473
190	0x3d1b4958	0.037911743
191	0x3daf08d6	0.08546607
192	0x3e328c9a	0.17436448
193	0xbe8ce34c	-0.27517164
194	0xbe884838	-0.266176
195	0xbdc4415d	-0.095827796
196	0x3ef2a344	0.47390187
197	0x3e39243c	0.18080229
198	0x3c963170	0.01833412
199	0x3d6e8e73	0.05824132
200	0xbdfb1565	-0.1225994
201	0xbe944d26	-0.2896511
202	0xbeaec76d	-0.34136525
203	0xbe84e019	-0.25952223
204	0xbe7c67be	-0.2464895
205	0xbf37f7b0	-0.71862316
206	0x3ebdb55a	0.37052423
207	0xbebf091b	-0.37311634
208	0xbf2dc87a	-0.6788403
209	0x3e8ca531	0.2746978
210	0xbe08072c	-0.13283986
211	0xbec1ad41	-0.37827495
212	0xbe9aa73d	-0.30205718
213	0x3f04b4c1	0.5183831
214	0x3e517244	0.20453745
215	0xbe79779c	-0.24362034
216	0xbeba0cc8	-0.36337876
217	0x3c0e892b	0.008699696
218	0xbf2e3635	-0.68051463
219	0x3f236f69	0.63841873
220	0xbecaa505	-0.39579025
221	0xbe619740	-0.22030354
222	0xbdc4a1fc	-0.096012086
223	0xbb657a54	-0.003501554
224	0x3d407278	0.046984166
225	0xbe834ab4	-0.2564293
226	0x3e655509	0.2239572
227	0xbea708b1	-0.3262382
228	0xbf23049a	-0.63678896
229	0x3ea249a9	0.31696823
230	0xbe2c369f	-0.16817711
231	0xbe44772b	-0.19186084
232	0xbecfff7e	-0.40624613
233	0xbe6a2ed6	-0.22869429
234	0xbeb3549c	-0.3502549
235	0x3f22109e	0.63306606
236	0xbdac2842	-0.08406116
237	0x3ebe5f17	0.37181923
238	0xbea793be	-0.32729906
239	0x3d8600bd	0.065431096
240	0xbe824a3f	-0.2544727
241	0xbe741886	-0.2383748
242	0xbe2c775c	-0.16842407
243	0xbee17be2	-0.44039828
244	0xbed12951	-0.40851834
245	0xbf132d9b	-0.57491463
246	0xbeb55d5b	-0.35422787
247	0xbef4487e	-0.47711557
248	0x3d485978	0.04891345
249	0x3e972bc7	0.29525587
250	0x3c09bc7f	0.008406757
251	0x3e1cc63e	0.15309998
252	0x3e6720a5	0.22571047
253	0x3eb92700	0.36162567
254	0xbf27f014	-0.65600705
255	0xbdfa293c	-0.12214896

lstm.bias_ih_l0_reverse f4 [52]
0	0x3d39113d	0.045182455
1	0x3ee9e079	0.45679072
2	0x3e7c0736	0.24612126
3	0x3e8ebf00	0.27880096
4	0x3dd63449	0.10459191
5	0x3db213d8	0.08695191
6	0x3efb48f4	0.49079096
7	0x3ee24eb5	0.44200674
8	0xbea892b0	-0.32924414
9	0xbc100d4e	-0.008792235
10	0x3c863761	0.016383829
11	0x3f31f27f	0.69510645
12	0xbd1f8b7d	-0.038951386
13	0x3eb45b4c	0.35225904
14	0x3e5b2f41	0.21404745
15	0x3efb4990	0.4907956
16	0x3e036f07	0.12835322
17	0x3eba90a6	0.36438483
18	0x3eba35dd	0.3636922
19	0x3e5ab292	0.21357182
20	0x3e9a9dc6	0.30198497
21	0x3e22dea2	0.1590524
22	0xbded9d94	-0.11602321
23	0x3ef04917	0.46930763
24	0x3f08d54b	0.5345046
25	0x3f18c53c	0.59675956
26	0xbdc48de5	-0.09597377
27	0x3e8bf659	0.27336386
28	0xbcee25d9	-0.029070782
29	0x3d868472	0.06568231
30	0x3e93384d	0.28753892
31	0xbe1290eb	-0.14313094
32	0xbdbc6d4c	-0.09200534
33	0x3c0fdf97	0.008781335
34	0xbe7ad25e	-0.24494311
35	0xbe394cf2	-0.18095759
36	0xbe9d0964	-0.30671227
37	0x3ccda490	0.025102884
38	0xbe1f915a	-0.15582791
39	0x3f49d1f3	0.7883598
40	0x3f08aa5f	0.53384966
41	0xbd2b075f	-0.041755076
42	0x3ddf4885	0.10902504
43	0x3eca749a	0.39542085
44	0x3dbd89d1	0.09254802
45	0x3dba1790	0.090865254
46	0xbea325f5	-0.31864896
47	0x3e352deb	0.17693298
48	0x3ef9c6dd	0.48784533
49	0x3f29ec58	0.66376257
50	0x3f9deba8	1.2337542
51	0x3ca53da0	0.020170987

lstm.bias_hh_l0_reverse f4 [52]
0	0x3de654a3	0.11246612
1	0x3ef35bd0	0.47530985
2	0x3ec151e0	0.37757778
3	0x3eb081d5	0.34474054
4	0x3ef6ade4	0.48179543
5	0x3e09de7f	0.13463782
6	0x3eb754d2	0.358069
7	0x3ec8e658	0.39238238
8	0xbdc01595	-0.093791164
9	0x3e5adc14	0.21373016
10	0x3f118ee7	0.56858677
11	0x3f1bdc7c	0.6088331
12	0x3e933b38	0.28756118
13	0x3ebd1642	0.36931044
14	0x3eb0c9d6	0.3452899
15	0x3e5bc348	0.21461213
16	0x3e991c63	0.2990447
17	0x3e112268	0.14173281
18	0x3ef7c980	0.4839592
19	0x3e255d2b	0.16148822
20	0x3dcacc1a	0.099022105
21	0x3e475228	0.19464934
22	0x3e2c4812	0.16824368
23	0x3de53cfa	0.11193271
24	0x3e1cd09d	0.15313955
25	0x3f0e1547	0.55501217
26	0xbe096d74	-0.1342066
27	0x3e885cb7	0.26633236
28	0x3ed8213b	0.42212853
29	0xbddfff33	-0.10937347
30	0xbd67f499	-0.05662975
31	0xbbb92fcf	-0.005651451
32	0xbdd53ad1	-0.10411609
33	0xbedd1cd9	-0.43186072
34	0x3d300320	0.04297173
35	0xbead2f32	-0.3382507
36	0xbebea07b	-0.37231812
37	0x3e1c092a	0.15237871
38	0x3b1e9047	0.0024194883
39	0x3f16a864	0.58850694
40	0x3f0d48bd	0.55189115
41	0x3ee5a805	0.4485475
42	0x3ef68393	0.48147258
43	0x3d729b2b	0.05923001
44	0xbc8605f0	-0.016360253
45	0x3e9b579e	0.30340284
46	0xbe44d412	-0.19221523
47	0x3e4d0469	0.20021214
48	0x3eb1f8a1	0.3476
49	0x3e8f495c	0.27985656
50	0x3f5fa104	0.87355065
51	0x3ea90736	0.33013314
